notebooks/training/params/ActuationNet_100_256x256x256.pt (torch, 562556 bytes, 8 tensors)

mlp.0.weight f4 [256, 3]
000000 b8 4b 3b bc 97 de 8c bb a0 55 2c 3d 94 6d a1 bf
       -0.011431627 -0.0042989957 0.042073846 -1.2611566
000010 7b f4 7e bf 0f d6 89 bd 92 d5 12 3f 16 64 ed be
       -0.995918 -0.067302816 0.5735713 -0.46365422
000020 77 46 b0 3f 16 c4 41 3f c5 02 a3 3f dc 6e 7e 3f
       1.3771504 0.7568983 1.273522 0.9938791
000030 56 a5 0b bf 4c 94 e2 bd ed 88 52 bf d9 70 0d bb
       -0.5454916 -0.11063442 -0.8224018 -0.0021582155
000040 c9 ae fe 3a f0 61 9d bb 46 4a a9 3f ef c5 31 3f
       0.0019430752 -0.004802935 1.3225791 0.6944265
000050 33 09 5b bf 8e 15 ad 3f d5 5b 92 3f 8b 74 63 be
       -0.8556091 1.3522203 1.1434275 -0.22212426
000060 36 b1 c5 be f7 a6 1d bf fa 49 72 bd b9 b5 2a bf
       -0.38611764 -0.61582893 -0.05915258 -0.66683537
000070 7b 82 c1 be b7 3d da 3e 83 f1 45 3b 79 67 7c bb
       -0.3779486 0.4262521 0.0030203767 -0.0038513823
000080 3a 22 05 3c f7 d7 2a 3f d2 4d 6b bf 3f bb 8b 3d
       0.008125836 0.66735786 -0.9191562 0.06822824
000090 13 a7 b8 3a b6 ca e5 3a c6 42 f9 ba 86 aa 81 bf
       0.0014087878 0.0017531726 -0.0019017092 -1.0130165
0000a0 e1 cb 8d 3f e5 b3 77 bf 98 6b bf 3f 2a 1f 47 be
       1.1077844 -0.9675887 1.495471 -0.19445482
0000b0 98 c2 4e bf 8c 8e 7f 3f c4 45 50 bf e6 36 44 bf
       -0.80765676 0.99826884 -0.81356454 -0.7664627
0000c0 2d 27 f4 3b f6 8f 0b bb df dc 84 3b fe 4e 96 3f
       0.007450959 -0.0021295524 0.00405465 1.1742857
0000d0 02 9e 1f bf 92 55 d7 bc 7f 73 29 bf 3b 19 b7 bf
       -0.62350476 -0.02628592 -0.6619186 -1.4304575
0000e0 94 65 8e 3e 93 7e 9c bf e3 d7 83 bf ec 53 44 bf
       0.27811873 -1.2226127 -1.0300258 -0.76690555
0000f0 71 de aa 3f 48 2b a2 3f 70 b3 90 3e 10 5e 8a 3b
       1.3349134 1.2669458 0.282619 0.004222639
000100 65 3b b2 bb ef 3a aa 3b 76 91 e3 3d ab a9 85 3f
       -0.0054392093 0.0051950137 0.11111729 1.0442404
000110 ed 5f 32 3f 5b 72 db 3a 8a 89 ab bb 55 c0 76 3b
       0.6967762 0.0016742455 -0.005234902 0.003765126
000120 09 8f 24 bf f3 15 0e 3f c1 3e 09 3f a7 ae 8a 3f
       -0.64280754 0.5550224 0.5361138 1.083455
000130 d6 7b cd be 14 17 08 bf 5c 9e 9b 3d 39 f4 3f 3e
       -0.40133542 -0.53160214 0.07598564 0.18745507
000140 3c f5 27 3d f7 2a ba bb 0e 65 90 ba 35 3b d6 ba
       0.041005358 -0.0056813913 -0.0011016445 -0.0016344549
000150 7d 60 c9 3e ef 66 a9 bf d9 59 71 3f 1b 4c 93 bf
       0.39331427 -1.3234538 0.9427772 -1.15076
000160 2a d1 8a 3f de 25 71 3f 2c 92 82 be a1 03 34 bf
       1.0845082 0.94198406 -0.25502145 -0.7031804
000170 6b 0d 72 3f 05 8b 3b be 80 a3 91 3f 92 fa 71 3f
       0.94551724 -0.1831475 1.1378021 0.94522965
000180 c7 8c b2 bd 6a 6f 5e be c5 f1 24 3d 9f c5 d9 bc
       -0.087182574 -0.21722189 0.040269632 -0.02658349
000190 8f 5f 91 bf f2 b6 67 bf 1d 93 99 bf 1a 6d 72 bf
       -1.1357287 -0.9051353 -1.199802 -0.94697726
0001a0 ec 61 1f be af f0 65 3b 29 b1 29 3b 96 27 52 bb
       -0.15564698 0.0035086086 0.002589295 -0.0032067052
0001b0 a0 70 bd 3d 9c cb 7f 3c 2d 1f eb be 24 5f 63 3f
       0.09249997 0.015612509 -0.45922223 0.8881705
0001c0 0b a9 8a bf 7c eb 03 bf 6f 75 4e bf 6c cd 27 bf
       -1.0832838 -0.51531196 -0.8064794 -0.65547824
0001d0 7f dc 84 bf 5c 09 e2 3e f2 0f a9 3f 6b 5e 99 bf
       -1.037979 0.44147766 1.3207991 -1.1981939
0001e0 48 30 90 be e7 46 8e be 1b a2 6f be 18 f4 69 bf
       -0.28161836 -0.2778847 -0.23401682 -0.9138808
0001f0 d1 63 b6 bf 8a 7d 5d be c0 88 cb 3b 49 d8 58 bb
       -1.4249212 -0.2162992 0.00621137 -0.00330879
000200 bb 55 c2 3b e7 cd a9 39 38 e7 98 3b 15 f6 17 bb
       0.00593063 0.000323876 0.0046662353 -0.0023187448
000210 26 28 4c 3f c7 06 38 bf a3 86 b0 3f 1c 84 ec be
       0.7974876 -0.7188534 1.3791088 -0.4619454
000220 58 06 04 3f 79 4e a0 bf 75 dc ab bf 79 59 25 3f
       0.5157218 -1.2523948 -1.3426653 0.6458965
000230 ba f4 d1 be fa b4 64 3a af ca 65 bb a1 ca 8d b9
       -0.41007024 0.00087244774 -0.0035063436 -0.00027044586
000240 51 c4 7a 3f 5c b4 a6 bf a5 94 d4 3e 62 4b a4 3f
       0.97955805 -1.3023791 0.41519657 1.2835505
000250 0f 64 58 bf a6 5a 35 bf 90 cb 4c bf 81 ed 5c 3f
       -0.8452768 -0.70841444 -0.7999811 0.862999
000260 6f 1b 58 3f b3 5e 67 bc 79 f0 9b bf 86 bb 59 bf
       0.8441686 -0.014121699 -1.2182761 -0.85051763
000270 d0 48 00 bf b9 0e 9a bf 3d 59 8c 3f 4b 4d 93 bf
       -0.50111103 -1.2035743 1.0964733 -1.1507963
000280 b2 88 e5 be 39 05 52 3e 80 fc e5 be f4 a9 8f bf
       -0.44830853 0.20509805 -0.44919205 -1.122374
000290 2c 2f 33 3f 63 7c 69 ba c6 58 a8 bb f8 48 a2 3b
       0.69993854 -0.00089067797 -0.0051375357 0.004952546
0002a0 bc 6a 65 bf 10 e0 7f 3f 89 9b 02 3f 7f 6a 5c bb
       -0.8961599 0.9995127 0.5101858 -0.0033632813
0002b0 1d f5 09 bb b5 78 6e 3b c0 fb 4d bb 81 31 8c 3b
       -0.002105064 0.0036387865 -0.0031430572 0.0042783623
0002c0 f7 52 dc bb ec 88 3e bb 45 f0 53 ba ae 09 7e ba
       -0.0067237574 -0.002907331 -0.0008084814 -0.00096907734
0002d0 9e 50 5d bf 5a 9f b2 3f aa d0 68 bf e4 4c 82 bf
       -0.8645114 1.395488 -0.90943396 -1.0179715
0002e0 3e 8c 8d bd b3 35 9b 3f 9c 6c 88 bf d7 9c 52 bf
       -0.06911515 1.2125763 -1.0658145 -0.8227057
0002f0 54 3f 75 3f 8f db 41 3f ac f9 49 3c 5e 02 d5 3e
       0.95799756 0.75725645 0.012327593 0.4160337
000300 77 ff ff b8 9c cd 98 ba 74 90 c5 39 1a 4d 0b be
       -0.000122069316 -0.0011657956 0.00037682394 -0.1360363
000310 20 89 58 3e 63 19 56 3f 62 f4 13 3f 76 2d 19 3e
       0.21146059 0.8363249 0.57794774 0.14958748
000320 33 d1 86 bf a5 2a 7d 3f 39 45 2a 3f 3a 14 85 bf
       -1.0532593 0.98893195 0.66511875 -1.0396798
000330 67 61 8b 3f ef 4e 6e 3e 5e be 15 3f 29 7d 26 bb
       1.08891 0.23272298 0.584936 -0.002540419
000340 a6 19 01 bb 94 c3 86 bb 8a 26 6a 3d fb ae a2 3f
       -0.0019699126 -0.00411267 0.05716566 1.270965
000350 91 59 8e bf f5 b4 1b be 2d 0e 8b bd 63 24 6a bb
       -1.1121083 -0.15205748 -0.06789813 -0.0035727255
000360 a6 55 94 39 bd 3b 15 bc cb 9e 9c 3b 20 d8 b8 bf
       0.00028292573 -0.009108481 0.004779672 -1.4440956
000370 06 39 bd 3e 6c bd 4c 3f 10 1d 84 bf 32 25 73 bf
       0.36957568 0.79976535 -1.0321369 -0.9497863
000380 5f 51 73 bf ea 38 64 bf 70 6b 1f bf da b2 30 bf
       -0.9504604 -0.89149344 -0.6227331 -0.69022906
000390 2e 9d 98 bf 48 7e 83 bf 9f d2 b9 bd 98 f9 28 3f
       -1.1922967 -1.0272913 -0.09073376 0.6600585
0003a0 d4 86 15 3e 84 4c 02 3e d5 53 b8 3e 00 12 ae bf
       0.14602214 0.12724501 0.3600146 -1.3599243
0003b0 36 c4 3c bf 11 94 47 3f 1b 67 85 bf d4 00 94 bf
       -0.73736894 0.77960306 -1.042209 -1.1562753
0003c0 c4 d6 e4 be 15 d2 ae 3c b9 17 da 3e 37 b0 b1 bc
       -0.44695103 0.02134041 0.42596224 -0.021690471
0003d0 6c 8f 89 bf e8 a8 ff 3e 50 b1 09 3f 66 2d 29 bf
       -1.0746894 0.49933553 0.5378618 -0.660849
0003e0 52 8d dc be 90 8e ed 3e 66 fb a5 3f 1e 75 94 bf
       -0.4307657 0.4639783 1.2967346 -1.1598241
0003f0 45 24 87 3f 94 d1 41 3f 74 1f 99 3f 1a bc 2f 3b
       1.0557944 0.75710416 1.1962724 0.0026814998

mlp.0.bias f4 [256]
000000 2e 4e a6 ba 35 6a c4 3c d1 0d 71 3c 4e 85 a5 3d
       -0.0012688094 0.023976425 0.014712767 0.080820665
000010 f9 55 c5 bb 93 6a 09 39 7e a7 2a bd 1d 19 37 bd
       -0.0060222116 0.0001310504 -0.04166364 -0.044701684
000020 20 ec 9f bb 68 f2 e1 bb 86 2d 02 ba 9f 6c 32 3c
       -0.004880443 -0.006895352 -0.000496589 0.010890155
000030 78 9d 04 ba 15 cc 77 3b 97 24 3e bd 4a 24 06 bd
       -0.0005058865 0.0037810851 -0.046421614 -0.03274945
000040 99 6b f6 b9 14 85 2e bc c4 5e 02 3d e8 7f 87 bb
       -0.00047000943 -0.0106518455 0.031828657 -0.0041351207
000050 a1 15 db 3d cc 50 7c 38 a7 5b 4b 3c 04 f6 f6 39
       0.10697485 6.015673e-05 0.012411988 0.00047104072
000060 e1 6e 8b bb e0 18 62 bc ea da c8 3a 51 7e 75 3a
       -0.004255161 -0.013799876 0.001532403 0.0009364831
000070 d8 17 87 bc de 31 29 3d fc 2c 64 3c d2 6e 49 3d
       -0.016490862 0.041307323 0.013926741 0.049177952
000080 9a d4 f0 ba e9 f6 8a bc 43 c0 b8 3c b0 17 9e ba
       -0.0018373907 -0.016963439 0.022552615 -0.0012061503
000090 ca d6 4a 37 ab 87 67 3c 9d b6 f0 3b c6 eb 1f bd
       1.2090148e-05 0.014131467 0.007345988 -0.03904321
0000a0 38 57 8d b9 0e 1d cc bd 34 fe ad 39 79 2d 3f b9
       -0.000269586 -0.09966479 0.00033186527 -0.0001823212
0000b0 0a 6b a9 3c e8 fc 5b bc ab a1 c8 3b 37 bb 2c 3a
       0.020680923 -0.013426997 0.006122788 0.00065891765
0000c0 f1 2d e3 bc cc 37 87 3c 36 dc 38 bc 13 5a 06 bd
       -0.027731868 0.016506098 -0.011282971 -0.032800745
0000d0 96 3d 11 3d c6 eb 81 3c 64 f7 05 3d 61 11 59 b9
       0.035459124 0.015859496 0.032706633 -0.00020701207
0000e0 79 21 8c bc ee 0d bb b9 34 ad 16 ba e6 07 9c 39
       -0.017105805 -0.00035677798 -0.0005747855 0.00029760523
0000f0 46 2f 62 bd 0e 74 6d bc 00 1b 59 bd f2 74 9e 3b
       -0.055220865 -0.014493002 -0.053004265 0.0048357183
000100 f4 2d fb b9 ea 53 0e bb b0 15 0e 3c ef e0 06 bd
       -0.00047908688 -0.0021717497 0.008672163 -0.032929357
000110 30 15 5f 3c 63 04 11 3a 0c 7e 65 bd 6e df fd ba
       0.013615891 0.00055319647 -0.05602841 -0.0019368955
000120 d0 ba 8f b9 a6 8c aa bc 6b 06 45 bd a7 3b d6 3b
       -0.00027414272 -0.02081902 -0.048101824 0.006537873
000130 10 44 e5 3c d9 ce a0 ba 2c 4a 21 bd 08 60 0b bd
       0.027986556 -0.0012268677 -0.039377376 -0.03402713
000140 45 0a 3a 3b 20 cb 1b 3a d8 1b 01 bc 22 be 39 bd
       0.0028387469 0.0005943049 -0.007880174 -0.04534734
000150 5c 7a 15 bc 2a 0c e4 b9 f7 e7 93 bc da 0d 09 bc
       -0.009123411 -0.00043496612 -0.018054945 -0.008365119
000160 9d 9a fd bb 16 5f 99 bc 3d 99 87 3a c5 ab a7 b9
       -0.0077393786 -0.018722098 0.0010345351 -0.000319807
000170 67 2b d3 ba 76 11 30 3a 06 08 42 bd c5 0b 66 3a
       -0.0016110957 0.0006716469 -0.047370933 0.00087755575
000180 d7 86 7b bd 5a 83 f3 3c 54 9c 3a bc 66 e0 cb bb
       -0.06140789 0.02972572 -0.011389811 -0.0062218187
000190 9d 79 97 3b 1a f6 e8 38 2d dd 7a 3c 66 5c b4 39
       0.0046226517 0.00011108462 0.0153115215 0.00034401118
0001a0 c7 81 61 3c e6 30 6c 3a 70 71 d8 bc 97 f0 6e bd
       0.0137638515 0.0009009972 -0.026421279 -0.058334913
0001b0 22 e5 20 bc de 65 a9 3c 18 bb df bc 62 a8 64 3a
       -0.0098202545 0.020678457 -0.027310893 0.0008722601
0001c0 ab 43 24 bd d0 cd 47 bb c3 fa 07 3d 70 d9 1d 38
       -0.040103596 -0.0030487664 0.03319813 3.763422e-05
0001d0 3d 1d bb bc cc 5e 8e 3b 64 3c 41 3a d0 3d b8 39
       -0.02284109 0.0043447968 0.00073713646 0.0003514127
0001e0 22 31 93 ba 25 e7 9a 3c 22 72 80 3a 38 52 c9 3c
       -0.0011229853 0.018909046 0.0009799639 0.024575338
0001f0 93 bc b3 ba d9 94 da 3b cc cb 8b b9 75 91 42 3a
       -0.0013712816 0.006670576 -0.00026663987 0.00074221875
000200 a7 5c 80 bc da 64 96 ba 78 13 d4 3c 30 da 89 bb
       -0.01566918 -0.0011474148 0.02588819 -0.004206918
000210 03 d7 6c 3d 9e 1d 81 3c d2 89 49 3c 09 8b f9 3a
       0.05782224 0.015761193 0.012300925 0.0019038628
000220 31 d6 5c bc 72 a2 32 39 d7 55 c7 bc e0 5a 56 bd
       -0.013478802 0.00017035918 -0.024332924 -0.05233276
000230 42 c0 17 bc 91 9a 8e ba 3d e8 83 3a ad 4b 10 3d
       -0.009262146 -0.0010879805 0.0010063719 0.03522842
000240 78 8c 15 b8 39 15 c9 3c 9a 20 19 bd 66 3e 42 bc
       -3.565519e-05 0.024546253 -0.037384607 -0.011855697
000250 a3 c2 f9 3c d7 ab ac b9 46 4a 0a 3b 60 28 f2 b9
       0.030488318 -0.00032934427 0.00211014 -0.0004618792
000260 64 bb f3 3b 33 09 b6 bb 2f 3e f1 3a 75 b1 8e 3b
       0.00743811 -0.005555296 0.0018405373 0.0043546506
000270 c5 2f d1 3b 8f f3 d3 ba d9 85 3b 3c 76 dd 1f bd
       0.0063838684 -0.0016170609 0.011445486 -0.03902956
000280 1f 13 8b 3a b4 8b ea b8 0a 59 1f 3d 54 cd c2 3c
       0.0010610557 -0.00011184011 0.038903274 0.023779549
000290 05 81 3e 3b 1a b9 e3 ba 68 9d 07 bd 5d 05 be 3a
       0.00290686 -0.001737389 -0.0331091 0.0014497448
0002a0 f9 9c 08 3c 76 86 1e 3a 8b 47 9a bd 20 be d2 bc
       0.008338206 0.0006047258 -0.07533177 -0.025725424
0002b0 53 b8 c2 3a 9e e0 d5 3c c4 fd a3 39 11 69 38 bd
       0.0014855958 0.026108082 0.00031278853 -0.045022074
0002c0 52 69 52 ba fa 86 52 3d e8 63 5b 3b b6 4e 58 b9
       -0.0008026558 0.051398255 0.0033476297 -0.00020628687
0002d0 78 cd 9b b8 4a 49 84 bb bf 94 18 3c a0 3b e6 ba
       -7.4292475e-05 -0.004037057 0.009312808 -0.0017565377
0002e0 d5 d6 77 bb fa ba c3 b9 f5 8f 94 bd 49 0d bd bc
       -0.003781726 -0.00037332607 -0.0725402 -0.023077624
0002f0 d4 17 2b b9 3c 87 38 3c 5f 30 27 3b f9 97 cb 3a
       -0.00016316707 0.011262711 0.002551101 0.0015532962
000300 51 2d 4f bb 9d 4d 79 bc 46 1b 47 bd 40 fa 44 3b
       -0.0031612704 -0.015216258 -0.048609994 0.0030056387
000310 03 61 76 bc e7 ee 99 bd d2 ed b0 bc aa c3 d8 b8
       -0.015037778 -0.0751627 -0.021597777 -0.00010336128
000320 b3 f1 77 39 d0 e7 8d 37 c4 52 e2 38 8b f4 82 3c
       0.00023645796 1.6916456e-05 0.00010791936 0.015985748
000330 9e ee 0b bc 9e b0 28 bc e0 15 37 3d 36 43 eb bc
       -0.0085407775 -0.010296015 0.044698596 -0.028718572
000340 2c 31 70 3d 50 6f 83 39 c4 b7 d4 ba f9 a9 9c 3c
       0.058640644 0.000250692 -0.0016229083 0.019124018
000350 ad c8 23 3a 5e 6e e0 3b 37 19 3e ba da a5 33 ba
       0.00062478596 0.0068490943 -0.0007251682 -0.0006853022
000360 4e 46 3b 3c 6c 51 f2 b8 e5 b2 31 bc 98 22 17 3b
       0.011430336 -0.00011554625 -0.010845874 0.002306139
000370 40 50 d6 36 7e 0b 7b ba 6e bd 99 ba 28 3d c2 3c
       6.3870393e-06 -0.00095766026 -0.0011729428 0.023710802
000380 58 0e c2 bb 62 8b d3 bb 05 af f7 3b 3b 6a 89 3c
       -0.00592212 -0.0064558247 0.0075587058 0.016774287
000390 82 81 dd 3c 37 7f 2f ba 14 b6 5d bc 5e ce d0 39
       0.027039293 -0.00066946767 -0.01353218 0.00039826607
0003a0 52 69 0a bc b3 22 4a 3a 64 ca 22 bc 4a 54 0e 3b
       -0.008447962 0.0007710859 -0.009935949 0.002171772
0003b0 74 ea 44 b9 22 19 26 3c 81 99 ec 3a a4 bb 49 3c
       -0.00018779357 0.010137828 0.0018051119 0.012312803
0003c0 e1 99 46 3b 00 13 a4 bc ea e8 8a 3c 19 a5 6d 3b
       0.0030304121 -0.020028591 0.016956765 0.0036261736
0003d0 e7 c0 d0 3c a5 8c a3 bc 52 26 d1 b9 88 06 72 ba
       0.025482608 -0.019964525 -0.00039892137 -0.00092325406
0003e0 43 0e a0 3c 5e 8c 5e 3c 5c 4e f4 3b 4f a3 77 bc
       0.01953805 0.013583271 0.00745563 -0.015114619
0003f0 8d 32 2c ba 3e 59 1b 39 4b ce 0e 3d 96 9f 16 bd
       -0.0006568812 0.00014815197 0.034864705 -0.036773287

mlp.2.weight f4 [256, 256]
000000 5e 34 e2 3c 8c 7d 0d 3d f5 76 ac 3d f2 c1 3d 3d
       0.027612861 0.03454356 0.08421127 0.04632754
000010 73 3f 53 3d 30 fb 8b 3b e4 87 fe 3c 4c 06 99 3d
       0.05157418 0.0042718872 0.031070657 0.07471904
000020 5f d3 7f 3d 06 bb 45 3c 5a 4c 74 3c b2 bb e6 3c
       0.06245744 0.012068516 0.014910782 0.028165672
000030 72 92 eb 3a eb 72 32 bd cf b1 81 3d 5c 5f 2c 3c
       0.0017972721 -0.043566626 0.063327424 0.010520782
000040 7a df d4 bb 06 58 79 bb 3b ca ab bc 86 fa 99 be
       -0.006496367 -0.003804685 -0.020970454 -0.30073947
000050 d3 9a 50 bd 61 7d 3f b7 dd c2 36 bd 92 ca 57 3b
       -0.050928902 -1.1413679e-05 -0.04461943 0.0032927138
000060 8c 89 6e bc d8 ed c2 bd 26 e1 41 3c 30 55 30 bd
       -0.014559161 -0.09518021 0.011833465 -0.04304999
000070 1b 61 2b bd 26 46 c3 3c 99 37 0e 3d c4 e1 41 3d
       -0.041840654 0.02383716 0.03472099 0.047334448
000080 4e be c1 bc 4d fb 18 bb ae ed b5 bb b9 c0 db bc
       -0.023650315 -0.0023343146 -0.0055520153 -0.026825296
000090 96 1f 88 bc bb 7a 12 3d 35 b3 30 3a 66 8c a6 3d
       -0.016616624 0.035761576 0.0006740571 0.081322476
0000a0 77 77 e8 3d 8d b7 f0 bc 02 e0 01 3d 0d 09 ba bc
       0.11350911 -0.029384399 0.03170777 -0.022709394
0000b0 7e d7 54 3e 71 28 90 3d f5 0b a5 bc cb 62 aa b9
       0.20785329 0.070389636 -0.020147303 -0.00032498533
0000c0 75 27 31 bd e0 02 1a 3d 48 17 bc bb f1 9f 18 3c
       -0.04325052 0.037600398 -0.00574008 0.009315477
0000d0 38 fe 8d 3c 8d 53 f6 3d 06 6d 5e bd 83 3e 12 3d
       0.017333135 0.12027655 -0.05430319 0.035704147
0000e0 99 4b f9 3c 5b b5 b1 3c 22 76 4a bc 7f 41 30 bb
       0.030431556 0.021692922 -0.012357267 -0.0026894507
0000f0 b4 df 19 bd f4 a3 5e 3d da 03 14 3d 8d 00 24 bd
       -0.037566856 0.054355577 0.036136486 -0.040039588
000100 a4 3b a1 3c a0 36 eb 3c 1b 2c 5c bd a5 ea dd bc
       0.01968176 0.02871257 -0.053753 -0.027089426
000110 61 01 08 be c5 aa d4 3b 9f 6e 3e 3d 1a a8 88 bc
       -0.13281776 0.006490084 0.046492215 -0.01668172
000120 2a 6f 45 bd dc e1 13 bd 00 9c 58 3d 6a ce 4c 3d
       -0.048201717 -0.03610407 0.05288315 0.05000154
000130 a0 44 15 bc f2 79 d0 bd 2a 66 25 bd 86 8c 01 3c
       -0.0091106 -0.10179509 -0.040380634 0.007907039
000140 a9 94 81 3c ee 93 cc 3d d2 0b c8 3c f3 bf 1d bd
       0.015817957 0.09989153 0.024419699 -0.038513135
000150 12 3c cb bc 28 4c 4a 3d 7d b6 2c 3d 65 26 37 3c
       -0.024808917 0.049389035 0.042166222 0.011178588
000160 b4 4a 03 bd 07 88 d4 bb f3 3f f0 3c c7 ca 2f bc
       -0.032053664 -0.0064859423 0.029327368 -0.010729498
000170 5a fb a1 ba 69 d5 af bc 01 95 01 3d a7 b1 d8 3c
       -0.0012358234 -0.021464067 0.03163624 0.026451899
000180 b2 fe ad 3c de 36 6e 3d d7 9f 79 3d 75 bc f0 3a
       0.021239612 0.058157794 0.06094345 0.0018366711
000190 46 a0 e9 bc 6f 3e da bd c7 3e f0 bb c5 b0 25 be
       -0.028518807 -0.106564395 -0.0073317024 -0.16180713
0001a0 31 d8 1d be 22 c4 85 3c 4b 87 93 bd 50 f7 04 be
       -0.15414502 0.016328875 -0.072035395 -0.12984967
0001b0 33 1d 43 bd 1d 11 3d 3d 3b fc 10 3c 7f fe 39 be
       -0.04763527 0.0461589 0.008849199 -0.18163489
0001c0 8c 2d 23 3e ab bb 1e 3e 1e e5 42 3c a7 9f d0 3a
       0.15935344 0.15501277 0.011895446 0.0015916721
0001d0 65 a1 fd bc 93 51 b0 3d b8 4c dd 3c b9 fe d9 3c
       -0.030960748 0.08609309 0.027014121 0.026610719
0001e0 fd ae da 3c 59 7c 02 3d a5 79 95 bc 64 46 ce 3b
       0.026694769 0.03185687 -0.018246481 0.0062950123
0001f0 36 ee 2b 3c 8b cb 95 bc f5 e7 06 3c 5a e4 50 bc
       0.010493806 -0.018285533 0.008234014 -0.012749756
000200 ad 07 89 3d c5 d5 37 3c a2 62 95 3c f6 8a 70 bd
       0.06690917 0.0112204 0.018235508 -0.058726273
000210 22 4e 00 3d c4 8d bb 3c a0 fb 6b bd 8b 74 ea bc
       0.031324513 0.022894748 -0.057613015 -0.028620025
000220 58 6e 0d bd 36 3b 7f 3c 1a ce 6a 3d 7d 27 10 bd
       -0.03452906 0.015578082 0.05732546 -0.03519391
000230 42 cd b4 3a 4f 19 c1 bc 52 17 38 3d 6b fc 88 bd
       0.0013794082 -0.023571638 0.044944115 -0.0668877
000240 a5 40 0e 3d e2 bd 97 bc ff 7b 97 3d e3 27 2c 3d
       0.03472962 -0.01852316 0.07396697 0.042030226
000250 cd 47 8c bd 55 ff 56 bc 81 d7 46 bd cb 8d c7 bc
       -0.068496324 -0.013122399 -0.048545364 -0.024359604
000260 c3 d6 4c bd 02 7d a5 3d 90 ed fb 3c 4c 6a ed 3c
       -0.0500095 0.08080484 0.030752927 0.02898135
000270 17 68 2b bd 2a 9e 1b bc 9b 73 62 be 11 b9 f4 3c
       -0.041847315 -0.0094981585 -0.22114412 0.029873403
000280 bb 3c d9 3a 43 4a 50 3c 98 81 ff 3c e8 7f a1 b9
       0.0016573885 0.012713018 0.031189725 -0.0003080361
000290 7b cf 45 3c 34 b8 a8 bc 19 ea 65 3c d6 01 a5 3c
       0.012073393 -0.020595647 0.014032864 0.020142477
0002a0 3a 95 6b 3d f0 04 25 3d 5e 0c 41 bc 5f 3a 01 bc
       0.05751536 0.040287912 -0.011782734 -0.007887452
0002b0 0a 10 a2 bc 52 99 37 3c 04 c7 e2 3c 69 14 1b bd
       -0.019783039 0.011205988 0.027682789 -0.03786126
0002c0 bb 2d bc bb fe 96 52 3d 17 a8 59 3d b8 ab 9e b9
       -0.005742756 0.05141353 0.05313882 -0.0003026405
0002d0 b5 63 51 bd e3 2e 12 3d 51 87 86 be fc 93 c0 3c
       -0.05112048 0.035689246 -0.26275113 0.023508064
0002e0 34 ad d1 3d f2 7e 52 bc bc f5 f9 3b 57 bf f1 bb
       0.10238114 -0.012847649 0.007628171 -0.007377546
0002f0 9e d1 c1 3c 2b fc 19 3d 8f bc c4 3d 7f f5 df bb
       0.023659524 0.037594 0.09606277 -0.0068346853
000300 91 fb 8a bd f9 8b 24 3d b9 56 8a 3c 37 10 46 bd
       -0.06786264 0.04017255 0.016887056 -0.048355307
000310 64 a9 33 3d 06 b5 70 bb 4d f4 f6 bd 04 d7 0c 3d
       0.043862715 -0.0036728992 -0.120583154 0.034384742
000320 a3 da 0e 3a 31 35 22 3a 1a 5d e5 bb de 95 ce 3a
       0.00054494495 0.00061877357 -0.006999624 0.0015761217
000330 cd 6b 18 3d 22 4f d2 bc 2b 00 33 3b cf e7 4c 3d
       0.03721218 -0.0256725 0.0027313333 0.050025757
000340 09 3d c9 3c 4b c4 12 bd 30 5e b6 3d 7d e7 5c 3d
       0.024565237 -0.03583173 0.089046836 0.053931702
000350 4f d0 b2 bc be c0 d1 3c 27 d6 91 bc 7c 73 0a bc
       -0.021827845 0.025604602 -0.017802311 -0.008450385
000360 01 6e 27 3c a2 a5 55 3c 48 2b b5 bb 0d 4b 48 3d
       0.010219098 0.013039978 -0.005528841 0.0488997
000370 d4 e8 a4 bc 3e e5 f8 3d 55 79 d1 3c a2 3e 3a be
       -0.020130552 0.121530995 0.025570551 -0.18187955
000380 dd b5 08 3d 34 0f 42 3d 40 5b 54 3c a7 1c a0 3d
       0.033376563 0.04737778 0.012961209 0.07817965
000390 22 2b 86 3a 62 f9 2d 3d 9a a8 3f bc a3 de 48 bc
       0.0010236243 0.042474158 -0.011697913 -0.012260112
0003a0 a4 d8 71 3d 0e 1d e6 3c e1 00 98 3d 7e 25 c8 3d
       0.059044495 0.028090026 0.07422043 0.09772776
0003b0 16 d5 9c 3c 22 e3 b2 3b a9 f0 2d 3e e8 52 0c bd
       0.019144576 0.0054592052 0.16986336 -0.034258753
0003c0 aa 1c 06 bd 99 cc d0 3d f6 ec 2e 3d 97 21 af bb
       -0.03274218 0.10195274 0.042706452 -0.0053445804
0003d0 f1 f6 72 3c 0e 8f b7 3d a4 3b 9f bc d7 a8 dd 3a
       0.014829383 0.089628324 -0.019437619 0.001691128
0003e0 95 32 aa 3c d1 5a 40 bd 8e e5 b2 bc 1d ab c7 3c
       0.020776073 -0.04696161 -0.021837976 0.024373585
0003f0 37 c6 aa 3b 7e 2d 78 3c 62 c7 8d bd 48 19 fb 3c
       0.0052116173 0.015147565 -0.06922795 0.030651703

mlp.2.bias f4 [256]
000000 de d5 5a 3c f1 37 5d 3d 04 89 ee bc 72 5d df bc
       0.013356654 0.054008428 -0.029118069 -0.027266238
000010 0a 95 d2 3c 51 cb b3 3b a3 bf 05 3d 02 40 50 ba
       0.025705833 0.0054868837 0.032653462 -0.0007944108
000020 8a eb 1c bd 96 6d 18 bd d9 01 49 3d 00 25 16 3d
       -0.038310565 -0.037213884 0.049074028 0.03665638
000030 c3 ac 2d bd 0a 29 8f 3b e5 23 6f 3b ad 34 00 3d
       -0.042401087 0.004368906 0.00364899 0.031300236
000040 13 6e 67 3d 16 76 dc 3b 87 f9 0f 3c eb 11 0a 3d
       0.05650146 0.006727944 0.008787519 0.033708494
000050 39 5d 3d 3d 52 55 25 3c 43 6e 77 3a b7 80 3f 3d
       0.046231482 0.010091143 0.00094387325 0.04675361
000060 64 c6 30 3d 14 96 6e 3c be a0 90 3c 75 87 59 bb
       0.04315795 0.014562149 0.017654773 -0.003319231
000070 22 e2 8b 3b 17 fe 22 bb 63 22 2a 3d 6f 40 a5 bb
       0.0042689005 -0.0024870688 0.0415367 -0.0050430815
000080 33 97 69 3d ef 07 65 bc 9a a9 cd bc 1b 44 bc 3b
       0.05702896 -0.013978942 -0.025105286 0.0057454235
000090 8f 06 cc bc f1 f1 66 bd 56 53 29 bd 1d c0 01 bd
       -0.024905471 -0.056383077 -0.04133924 -0.031677354
0000a0 7a 89 22 3c 26 b4 7a 3c f6 ba 3c 3d 6b fd d2 3c
       0.009920472 0.01530174 0.046076737 0.025755605
0000b0 28 df 3d 3d b7 42 94 3d 6f ef 0c bd 61 2b 07 bd
       0.046355397 0.07239287 -0.03440803 -0.033000354
0000c0 5d fe 26 bb 04 65 9c bc c0 b5 e3 bc 5f 42 0d 3d
       -0.0025481202 -0.019091137 -0.027796626 0.034487125
0000d0 36 47 39 bc 0f 21 08 bd 4e b1 cd 3c cf fc 31 bd
       -0.011308482 -0.033234652 0.02510896 -0.043453988
0000e0 ad d4 43 3d 83 b1 3c 3d e8 9b 03 3e 0f 77 4c bd
       0.047810245 0.046067726 0.12852442 -0.04991823
0000f0 dd 8a 41 3d 4c 19 bc 3e 11 d5 27 3d 3e 5e ab 3c
       0.04725157 0.3673805 0.04097468 0.020918962
000100 25 ef 98 bc b2 f0 48 bc 4b 93 56 bd 40 72 89 3b
       -0.01866872 -0.0122644175 -0.052386563 0.004194528
000110 46 ba 12 bd a4 b7 2b bd 0e 51 1d 3c 02 d7 e8 3c
       -0.035822175 -0.04192318 0.0096018445 0.028422836
000120 93 0f 9f 3c ec af 25 3d d6 08 85 bb 03 eb 15 bd
       0.019416606 0.040450975 -0.004059891 -0.036601078
000130 6c 2f 27 3c 18 d4 19 bc f4 8f c6 3b 27 79 42 bd
       0.010204177 -0.009388946 0.006059641 -0.04747882
000140 24 12 c3 be f2 93 a6 3c 9c 3f 9c 3d 61 bd 16 bd
       -0.38099778 0.020334218 0.0762932 -0.0368017
000150 d4 42 2a bd 40 d6 3c bb cc 72 2c 3d a1 c0 d6 bc
       -0.04156764 -0.0028814226 0.042101666 -0.0262149
000160 89 5e 1a bc 42 fe 79 bc 65 b8 02 bd 95 09 f4 3b
       -0.009421953 -0.015258374 -0.031914134 0.0074474313
000170 5b 15 8d bd 74 7a 25 3d 09 60 fa 3c 0f ce d6 3c
       -0.06888839 0.040399984 0.030563371 0.026221303
000180 ad 73 24 3d e8 8e e0 3c 8d 1b 92 ba 8b d5 44 bd
       0.04014938 0.027411893 -0.0011147127 -0.048055213
000190 e3 2c b1 bc 87 c1 28 3d e4 4e 0e bd 71 ef 09 3a
       -0.021627849 0.041200187 -0.034743205 0.0005261815
0001a0 9a 43 54 bc 11 01 9e bc 04 33 a5 bc 7e b9 a6 bb
       -0.012955571 -0.019287618 -0.020165928 -0.0050880304
0001b0 2f 30 e0 ba 62 db 0f bb aa 1b b7 bc 93 cf a5 bb
       -0.0017104204 -0.002195083 -0.022352058 -0.005060145
0001c0 2a 7b 67 3d 4a eb c7 bd 4a fd e4 3c 52 65 79 bd
       0.056513943 -0.09761675 0.027952809 -0.060887642
0001d0 aa 5e c7 bd c7 8e 72 3c 18 e3 84 bc 94 76 d1 3c
       -0.097348526 0.014804549 -0.016221568 0.025569238
0001e0 71 62 46 bd c0 c5 7f 3c 50 55 02 3b ce b8 2e bd
       -0.048433725 0.015611112 0.0019887276 -0.042656712
0001f0 30 ae a2 3e 05 3e 80 bc 12 3e 0b 3e e9 75 0a bd
       0.3177352 -0.015654573 0.13597897 -0.033803854
000200 88 2e 03 3d 7a c1 71 3c 97 6e 32 bc ee ef 3f bd
       0.032026798 0.014755601 -0.0108906245 -0.046859674
000210 d2 75 90 3c 4e 6b 41 3d 58 3d 04 3d d4 60 30 bd
       0.017634306 0.047221474 0.032285064 -0.043061092
000220 27 95 81 bc bd 99 25 3d a6 b8 20 bc cf 11 41 3d
       -0.015818192 0.04042982 -0.009809649 0.047136124
000230 5b 92 70 bc ec 0b fd 3c 52 91 b3 3a 3a b1 9f 3a
       -0.014683331 0.030889474 0.0013699925 0.0012183555
000240 70 17 35 3d f8 a2 b5 bd f8 c7 1b 3d e4 8a f2 bb
       0.044211805 -0.088689744 0.038032502 -0.007401811
000250 ca cb 80 3c eb e9 51 3c ba cc 95 3d c0 1f f2 bc
       0.015722174 0.012812118 0.07314439 -0.029556155
000260 57 91 9b 3c 6c da df bc 7e c7 a5 3e 72 5a 8f bd
       0.018990202 -0.027325831 0.32378763 -0.06999673
000270 46 95 3e bc f2 f8 18 3b 65 09 72 bd f3 64 0c bd
       -0.011632269 0.0023341742 -0.05909099 -0.03427596
000280 c4 5e 4e 3d 0d bd 03 bd fd b6 4d 3c ee 88 f8 bc
       0.050383344 -0.032162715 0.012555835 -0.03033873
000290 93 2d 16 3d 89 b2 cf bc d5 08 d3 3c 5f f6 60 bd
       0.036664557 -0.025353687 0.025761047 -0.054922458
0002a0 81 6b 19 3d 6b 64 0e bd fd cc a3 3c 8d fa 8f 3c
       0.03745604 -0.034763735 0.019995207 0.017575527
0002b0 9b 1b 42 bd 38 a5 08 3b 24 12 41 bd 8c 04 5d 3d
       -0.047389608 0.0020850431 -0.04713644 0.053959414
0002c0 d3 25 45 3d 32 8f 4c bd 0d aa 83 bd 3c 0b c7 bc
       0.048131775 -0.04994125 -0.06428919 -0.02429735
0002d0 ab 66 69 3b 8e 2d f5 bb f9 85 4a bd 77 1c f4 3c
       0.0035614173 -0.007482237 -0.049444173 0.02979873
0002e0 00 6a af bc 43 b1 45 3d 11 7c 14 bd 9b 9c c0 3c
       -0.02141285 0.048264753 -0.03625113 0.023512175
0002f0 82 f2 36 bd 23 71 2b 3c 99 23 2b 3d 38 b7 41 3c
       -0.044664867 0.010463986 0.041781995 0.011823468
000300 c8 ae 83 be e2 9c b3 3c 7d 51 89 3c 90 36 2b bd
       -0.25719285 0.021925393 0.01676249 -0.04180008
000310 b6 db 29 3d 71 17 a3 bb fc ed de 3c 3c 5c 30 bd
       0.0414693 -0.0049771597 0.02721309 -0.04305671
000320 b0 68 da bc 13 0b 94 bb f1 65 11 bd 40 93 c1 3b
       -0.026661247 -0.0045179217 -0.03549761 0.005907446
000330 fa db 05 3d 23 42 db bb 24 23 3a bd 5e 89 5a 3d
       0.03268049 -0.0066912337 -0.04544367 0.05335366
000340 05 0f 53 3d c8 1f 1b bd 3b 71 89 3c f2 9a 62 3d
       0.051527996 -0.037872106 0.016777625 0.05532355
000350 67 e4 13 3d 03 2c 73 bc 4e 96 1f 3e 37 bd 87 bc
       0.036106493 -0.014842036 0.1558468 -0.016569717
000360 b1 ba 34 bd b0 6e 8f 3c a5 6a 04 bd 7f 7c 3b 3a
       -0.044123355 0.017508835 -0.032328267 0.0007152035
000370 ea d2 e8 3d 03 fa be bc d8 68 0d 3d e6 2d 45 3d
       0.11368354 -0.023312574 0.034523815 0.048139475
000380 47 f6 d0 bc a5 60 b0 bc 0a 4e d9 3c 4b b0 3d bd
       -0.02550806 -0.021530459 0.02652647 -0.046310704
000390 1d e6 9c 3e 40 1e ae 3b 5d 89 ad bc 5a c3 bb 3c
       0.30644313 0.0053136647 -0.021183664 0.0229203
0003a0 98 0f 64 bc 1f 19 8f 3e 6d f1 e1 3c 73 ae 42 3f
       -0.013919733 0.27948853 0.027580941 0.7604744
0003b0 c4 8e d1 3e a1 65 5b 3d 11 3a 0a bc 8d 12 b3 3c
       0.40929234 0.053563718 -0.008436696 0.021859432
0003c0 1c 17 ab bc 22 f3 18 bc 0f e0 3d 3d 46 57 45 bd
       -0.020885043 -0.009335311 0.046356257 -0.048178934
0003d0 1b 5c 01 bd fb c7 51 3d 5d 48 2f 3d ee 34 1b 3d
       -0.03158198 0.051216107 0.04279362 0.037892275
0003e0 26 2e d7 3c 43 12 80 bc 54 4b b2 bc e6 6a 54 bf
       0.026267122 -0.015633708 -0.021764435 -0.82975614
0003f0 5c 53 cb bc b4 18 6f 3c 66 4b 6c bd c9 a4 67 3d
       -0.024820022 0.014593292 -0.057689093 0.056553636

mlp.4.weight f4 [256, 256]
000000 fc 9e 2c 3b c3 d8 e1 3b 34 c2 95 bb 43 81 cd bc
       0.002633988 0.006892295 -0.00457027 -0.02508605
000010 16 e3 40 bc e7 bb b4 3c ab 34 03 3c d4 ee c2 3a
       -0.0117728915 0.022062255 0.0080081625 0.0014872202
000020 46 18 e9 b9 af 7e bd bb a7 64 07 3c 4f a2 73 3b
       -0.00044459308 -0.005782924 0.0082637435 0.00371756
000030 6d 44 8c bb 4e 12 8e bb e7 e6 20 bc f0 5f 04 ba
       -0.004280618 -0.004335678 -0.009820676 -0.0005049696
000040 4c 18 f6 3b d8 58 95 39 1a 38 91 3c 16 74 ce 3b
       0.0075102206 0.00028485688 0.017726947 0.0063004596
000050 57 7f c1 3b 40 86 37 bc d1 56 fa 3b 86 c8 02 bc
       0.0059050727 -0.011201441 0.007639744 -0.007982379
000060 08 1f 36 b9 a3 c3 85 ba 6e 77 93 3b ec a6 0d ba
       -0.00017368433 -0.0010205399 0.004500321 -0.00054035964
000070 f7 09 2a bc 37 9b 90 bb 35 69 d8 3b 87 5f 98 bb
       -0.010378352 -0.0044130343 0.0066043385 -0.0046500596
000080 b1 ca 0f 3b fa ac dd b9 a2 77 63 3b 0e 92 99 ba
       0.0021940882 -0.00042281282 0.0034708758 -0.0011716501
000090 de 66 c3 3a cd 10 12 b9 fa 88 57 3a cb 89 bd 3b
       0.0014907976 -0.00013929904 0.000822201 0.0057842485
0000a0 b2 01 89 3b c1 08 d3 3b a7 ea 5a bc db 5b b7 bc
       0.0041811103 0.0064402525 -0.01336161 -0.022382667
0000b0 c7 fb a0 3b 49 0f 03 3c c8 22 14 bc 95 1c 3d 3c
       0.0049128267 0.00799925 -0.009041496 0.011542459
0000c0 e0 d4 96 bb 12 0d 29 bb e2 43 02 bc 4c 23 88 3b
       -0.0046030134 -0.0025795144 -0.007950755 0.0041545983
0000d0 27 8b ae 3a dd 0d 5b 3b 1c ed 00 bc e0 1d 94 ba
       0.0013316617 0.0033425011 -0.007869031 -0.0011300407
0000e0 e5 9e b9 bb 1c b8 0e 3b df 60 02 bd bd f7 c5 3b
       -0.0056646937 0.0021777218 -0.031830665 0.0060414956
0000f0 41 8e 8c 3b 9c f8 07 bb 34 08 de bb 28 ce a8 3b
       0.004289419 -0.0020747548 -0.00677588 0.005151529
000100 cc 32 c2 bb 00 bf 9e bb 27 04 af 3a 2b 19 0f 3a
       -0.0059264656 -0.0048445463 0.0013352678 0.00054587674
000110 85 81 cd 3b 75 3c 1c 3b 2f 30 08 3c a7 5b 4a bc
       0.0062715434 0.0023839746 0.008312269 -0.012350953
000120 41 23 6c 3c 9d d1 4d bb f5 b4 07 3c d0 9f dd bb
       0.014412702 -0.0031405457 0.00828289 -0.006763436
000130 fd dc 7e bb 37 56 a6 ba e5 a1 c3 3a 21 03 3f bc
       -0.0038889043 -0.0012690489 0.0014925568 -0.011658461
000140 ff 19 91 b9 d6 58 92 3b b6 ba 44 bc 00 ff e0 bb
       -0.00027675924 0.0044661565 -0.012007406 -0.006866336
000150 1b a5 5b bc 2c 62 15 bc 4a a7 4d 3c 3b 62 1a bb
       -0.013406063 -0.009117644 0.012552092 -0.0023557085
000160 63 7f 95 3b be 31 97 3a 2d 6f 19 bc b2 a1 67 3c
       0.004562305 0.001153521 -0.009364885 0.014137672
000170 a1 b8 46 bd 53 b1 9c 3b c5 e5 07 bd 8c 7c 8f b9
       -0.04851592 0.004781881 -0.03317811 -0.0002736788
000180 24 08 55 bb e1 7a 28 3c d4 d8 5e 3c 30 1c 71 bd
       -0.0032506073 0.010283203 0.013601501 -0.058864772
000190 c6 93 87 39 c2 be 5b 3c e3 40 ef ba 56 9c be 3a
       0.00025859306 0.013412179 -0.0018253591 0.0014542441
0001a0 82 47 9f 39 a0 a7 c1 3a de 40 ad 39 92 02 8b ba
       0.0003038012 0.0014774688 0.0003304546 -0.0010605624
0001b0 97 72 65 3b b1 d0 a2 3a 29 25 84 3a f0 58 0d 3c
       0.0035010928 0.0012421814 0.0010081875 0.008627161
0001c0 f8 11 ff 3c 89 2d 51 3b 12 87 75 bb c2 f2 29 bc
       0.031136498 0.003191801 -0.0037464541 -0.010372819
0001d0 dd 1d 8f bb 9d 55 96 3b 48 97 1b 39 af 5f b5 3b
       -0.0043675737 0.0045878426 0.00014838309 0.005535088
0001e0 27 42 63 bc a5 8d 82 3b 19 9a 4f 3c ee 50 45 3b
       -0.013870752 0.0039841705 0.012671017 0.0030108052
0001f0 f6 b9 21 bb 00 b0 32 3a 79 c8 82 bb a4 58 46 bc
       -0.0024677492 0.0006816387 -0.0039911834 -0.0121060945
000200 23 7a 56 bc 63 08 18 3c 17 11 e7 3a 1a 5e 2f 3b
       -0.013090643 0.009279343 0.0017628995 0.002675897
000210 c4 62 33 3b b5 86 d8 bc aa ef 30 bb 33 08 e2 ba
       0.0027372101 -0.02643142 -0.002699832 -0.0017244875
000220 eb ef 24 3b b0 86 8c 3a b5 a5 06 bc a0 8b 2f 3c
       0.0025167416 0.0010721292 -0.008218219 0.010714442
000230 f3 a6 f6 3b 4d f5 4a bc e3 cf 6a 3a af 93 12 3c
       0.007527226 -0.012387586 0.0008957369 0.008946343
000240 ea fc 72 3c 30 18 01 3c 8e b2 89 3b 56 b9 1b bc
       0.014830807 0.007879302 0.0042021936 -0.009504637
000250 26 70 10 bc 30 0a b9 3a 6d 35 21 b9 8a 19 01 3a
       -0.008815801 0.0014117416 -0.00015374059 0.0004924765
000260 c1 c5 36 3c d8 ed 18 bc 93 75 13 bc a4 25 87 bd
       0.011155547 -0.00933405 -0.0090002 -0.06598976
000270 cd 35 75 3d 06 fb 1a ba f7 f9 45 bc 8a 1c 8d bc
       0.05986576 -0.0005912039 -0.012083522 -0.017225523
000280 59 32 33 3c c0 e4 19 3d 58 a2 a8 ba 81 23 75 bb
       0.010937297 0.03757167 -0.0012865765 -0.0037405195
000290 06 61 69 3a 9c f0 29 3b e7 e4 77 3b 89 4b 2e 3b
       0.0008902702 0.0025930768 0.0037825645 0.0026595315
0002a0 0f 89 cc 3b 47 85 2e 3b a5 e2 b2 3b a8 45 2c bc
       0.0062419246 0.0026629732 0.005459147 -0.010514654
0002b0 20 c6 8b 3b 2f f6 d1 3b 0c b5 c9 bb 40 af d8 b9
       0.0042655617 0.006407521 -0.0061556157 -0.00041329302
0002c0 f4 8c 87 bb 73 6a 03 bb 86 b7 3b 3b f4 4d 88 bb
       -0.004136676 -0.0020052462 0.0028643324 -0.0041596834
0002d0 4d 5a 01 3d 63 8a 88 bb 77 43 8f bb f5 f4 06 3b
       0.03158026 -0.0041668876 -0.004372056 0.0020592783
0002e0 55 34 89 bb 89 e7 4b 3b f1 40 91 3b f8 7e 8a 3a
       -0.0041871467 0.0031113348 0.0044327904 0.0010566404
0002f0 ee e3 13 bc 7e 01 cb 3b 45 a6 10 3c 8b 12 6a 3b
       -0.009026511 0.0061952462 0.008828704 0.003571662
000300 33 e4 0e bc 7f 57 04 bc 31 36 31 3b 3c 16 82 bb
       -0.008721399 -0.008077501 0.0027040357 -0.0039699357
000310 aa 1e 8e ba d9 e9 4e bc 15 84 68 3b 42 23 30 bb
       -0.0010842879 -0.012628996 0.0035479118 -0.0026876484
000320 e3 f5 18 bb 3a 08 35 3b 65 04 c4 bb 69 86 12 3c
       -0.002333992 0.0027623312 -0.005981969 0.008943179
000330 17 5a 64 bb be b3 46 ba b5 96 a6 3b 2c 08 1e 3c
       -0.0034843737 -0.0007579884 0.0050838836 0.009645503
000340 79 50 28 3b 52 28 a6 bc ea a8 a8 3b ed 8d 04 bc
       0.002568273 -0.020282898 0.0051470893 -0.008090478
000350 36 ea 3b bb d7 79 8e bb a6 0b ca 3b 58 01 10 3c
       -0.0028673536 -0.0043480205 0.0061659394 0.008789383
000360 89 d3 78 ba a8 94 67 bb 0e bc 6a bb 7e ce 71 3b
       -0.00094919704 -0.0035336409 -0.0035817656 0.003689676
000370 4a 66 cc 3b 0c 15 0a bd bd 5f 3f bc 12 10 20 bb
       0.0062377797 -0.033711478 -0.011680541 -0.002442364
000380 25 b7 a5 bb d1 85 57 3b b0 96 00 3b 46 b6 af ba
       -0.005057233 0.0032886157 0.0019621067 -0.0013405762
000390 51 f0 5f 3b 5c a8 0d bc d6 cc 1a 3b 3c 95 0e 3c
       0.003417034 -0.008646097 0.0023620627 0.008702572
0003a0 5c 7e 92 3b b8 a8 f6 3b 73 5e 1d bb 80 61 d1 3c
       0.0044706296 0.007527437 -0.0024012595 0.025559187
0003b0 48 92 da bc b2 2b 18 bc 77 9b fd 3b 28 64 aa 3c
       -0.02668108 -0.0092877615 0.00773948 0.020799711
0003c0 10 8b 65 38 2e d9 37 bc 69 40 05 bb 5b 47 f4 3a
       5.4727367e-05 -0.011221213 -0.002033258 0.0018636988
0003d0 dc 78 02 bc e4 f0 50 bb e5 03 02 bc 87 16 b4 3b
       -0.007963385 -0.0031881863 -0.007935499 0.0054958495
0003e0 ba be a2 3a 0e 42 eb ba 60 e9 c1 bb 7f 06 15 ba
       0.001241646 -0.0017948763 -0.005917713 -0.0005684867
0003f0 31 e8 3c bb 53 9a e6 bb 27 ea 54 3b d9 c9 7b 3b
       -0.002882492 -0.00703744 0.0032488198 0.003841987

mlp.4.bias f4 [256]
000000 e5 25 b7 bb 2c b0 27 3b 1e 15 77 bc 71 76 2f 3d
       -0.005589234 0.0025587184 -0.015080718 0.042837564
000010 55 34 d6 3c 0e 2f 77 3e c1 76 52 3c d9 72 1d 3c
       0.026148 0.24139044 0.012845696 0.009609901
000020 4a bc c7 be 04 b6 2b 3d 50 4f b0 bc a0 68 06 3e
       -0.3901084 0.04192163 -0.021522194 0.13125849
000030 8e 9f 8d bc 10 00 8c 3e 8e 5c 7d 3c 0b a2 a4 be
       -0.017287996 0.27343798 0.015463961 -0.3215488
000040 63 da 04 3d 23 92 f4 3e cb 63 86 3c b2 7e 6e bc
       0.032434832 0.47767743 0.016405007 -0.014556574
000050 aa 6f 7a 3d 6a ae 9d be 4c ab 50 bc 3b c5 e0 bc
       0.061141647 -0.3079713 -0.012736153 -0.027437797
000060 a4 8d 93 3c a6 ba 21 3c 74 36 16 bd a2 08 5e bc
       0.018011875 0.009871161 -0.036673024 -0.013551863
000070 d9 fc 0f 3d 3c d2 10 bd a8 35 8e 3c 11 07 99 bc
       0.035153244 -0.035356745 0.01735957 -0.018680127
000080 70 4f 6f 3b c1 a8 c5 bc db 6d 39 bd 7a fc 5b bd
       0.0036515854 -0.02412832 -0.045270782 -0.053707577
000090 ee 94 a0 3c e8 d6 1b 3e 72 a2 81 3c 39 06 c7 bd
       0.019602265 0.15218699 0.01582453 -0.09717984
0000a0 05 5c ee 3d 83 8f bf 3c fc e6 63 3d e2 66 4f 3b
       0.11638645 0.023383861 0.055640206 0.0031647016
0000b0 87 6d 45 bd 38 c3 09 bd 00 58 27 3d 1a 57 b7 3c
       -0.048200157 -0.03363344 0.040855408 0.0223804
0000c0 5f f1 c9 3f 9a 87 57 bd cb 9c 1b bd b7 e2 99 bc
       1.5776786 -0.052619554 -0.037991326 -0.018784864
0000d0 47 2f 12 bc 00 00 bb ba c6 94 11 3d 86 a5 c0 3c
       -0.008922405 -0.0014266968 0.035542272 0.023516428
0000e0 31 e3 c5 3c b0 30 c3 bb da c4 3d bb 8b 76 1b bd
       0.024156185 -0.0059567317 -0.0028956444 -0.03795485
0000f0 57 b0 27 3c f1 d7 cf b9 74 c2 71 3c 26 bb 42 3b
       0.010234914 -0.00039643006 0.014755834 0.00297136
000100 57 00 43 bd c2 a8 97 b9 12 e9 1c bd dd f0 8b 3c
       -0.047607746 -0.000289267 -0.03830821 0.017082626
000110 0c aa 16 be cc 04 87 bc fc a6 f2 3c e8 1e a1 bb
       -0.14713305 -0.01648178 0.02962064 -0.0049170144
000120 51 24 8c bd c9 c8 df bd 58 60 dd ba 65 ce 3d bd
       -0.06842864 -0.109269686 -0.0016889675 -0.04633941
000130 16 55 91 bc 4a 97 8f bd f1 cd f9 38 0d bd f8 bc
       -0.017740767 -0.07011278 0.00011911605 -0.030363584
000140 5b 6a 43 3c 4b f1 c7 bc ee f5 58 3d 05 ac 2a be
       0.011927213 -0.02440705 0.05296891 -0.16667183
000150 b2 1f 02 3d 3d 6a e8 be cb cb 74 be 3c 18 00 3c
       0.03176851 -0.45393553 -0.23905866 0.007818278
000160 a6 a3 40 3c fe 6b 36 bc f0 7c 2c 3d b4 29 3e 3c
       0.011757767 -0.011134146 0.042111337 0.0116066225
000170 42 c7 e8 bd 49 de 0d 3f 8a 4e a7 3d c6 92 a2 bc
       -0.113661304 0.55417305 0.08169277 -0.019845378
000180 6e 88 37 bd 4e 91 22 3e 09 8c 86 bc 74 9e ed 3c
       -0.044807844 0.15875742 -0.016424196 0.02900622
000190 d0 ec ea 3b 2d 94 4c 3d 2e e7 8e be 31 eb 40 3c
       0.0071693435 0.049946 -0.2791075 0.011774824
0001a0 4d 90 71 3d a9 ba 80 3c 9b 09 4c bd 00 22 a9 3b
       0.058975507 0.015714006 -0.049813848 0.005161524
0001b0 8a c0 e6 bc 8f 3b 42 bc b5 fc a2 3c 1e 65 c5 3c
       -0.028167982 -0.01185502 0.01989589 0.024096068
0001c0 da 81 74 bd f5 84 25 bc 2e 4a f9 3b 70 0d a7 bb
       -0.05969415 -0.0101025 0.00760772 -0.0050980374
0001d0 b7 35 39 bc 05 69 8b 3c a6 89 ff bc 63 f6 be 3c
       -0.0113043105 0.01701785 -0.031193566 0.023310846
0001e0 2d 60 88 ba 3a d9 96 bd 48 21 43 3d 93 1e 5d bd
       -0.0010404639 -0.073656514 0.04763916 -0.053984236
0001f0 5f 88 47 bb 40 6e 27 3d 84 f7 04 3c bb 7b c2 3c
       -0.0030446274 0.040876627 0.008115653 0.02374064
000200 0f 38 1d bc dc ce be 3c a8 cc 04 bc d0 b6 12 3d
       -0.009595885 0.023291998 -0.0081054345 0.035818875
000210 d1 e0 a5 3e 57 37 a8 bd 72 0d 09 3d 94 da 4e 3d
       0.32398084 -0.0821368 0.033460088 0.05050142
000220 da 64 63 3d 31 33 44 3c ac 8a bc b9 b7 b4 c0 bb
       0.0555161 0.011975096 -0.00035961473 -0.005880918
000230 6e d1 ff 3c 79 96 17 be a4 02 07 3c 0e 14 74 3c
       0.031227794 -0.14803495 0.008240376 0.01489736
000240 14 34 8d 3b 4e 44 13 bb d5 61 09 3d f3 cd 92 3e
       0.0043091867 -0.0022471133 0.033540566 0.28672752
000250 a6 c8 6b 3e 99 17 8f 3e 1c 9f 8c ba 47 d6 3e bd
       0.2302576 0.2794769 -0.0010728571 -0.04659107
000260 ff 8a d8 3c 2b 08 8a bc de 62 bb b9 f3 3b 92 bc
       0.026433466 -0.016849598 -0.0003574108 -0.017850852
000270 69 94 9f bb 35 ef 2c 3c aa f2 d1 bc e2 06 da 3c
       -0.004869987 0.010555078 -0.025628407 0.02661461
000280 c1 0b 66 3c 12 75 99 bd c6 53 97 bb c7 70 96 bc
       0.014040888 -0.074930325 -0.004618141 -0.018364323
000290 51 8b a2 bc 05 c0 12 3c 48 5d 58 3b fc d0 90 bc
       -0.019841822 0.008956914 0.0033014584 -0.017677777
0002a0 77 89 af bc 81 ab c4 bc fd f0 b0 3c 05 2f cb 3a
       -0.021427853 -0.02400756 0.021599287 0.0015501684
0002b0 df 6d b8 bb b5 cb 24 bd 3a 98 32 bc 38 38 89 bc
       -0.005628332 -0.040233333 -0.010900551 -0.01675044
0002c0 57 93 11 bd c4 55 e6 3c 86 d3 56 bc 27 fc 91 3e
       -0.035540905 0.028117068 -0.013111955 0.2851269
0002d0 c0 d1 4c bd 53 f9 09 3d 05 a4 e7 3d 5e 99 eb bb
       -0.05000472 0.03368504 0.11310581 -0.0071899137
0002e0 ae 55 3b 3d fc 23 27 3d dc 67 17 bd b8 e9 35 bd
       0.045736007 0.0408058 -0.036964282 -0.044412345
0002f0 15 8b 98 be 2c 49 4c 3d 81 ba 2f bc b7 84 21 bd
       -0.2979361 0.04987447 -0.010725618 -0.039433207
000300 bb 0b 99 3c 97 2c 7c ba 30 bd a6 be 5b 04 06 bd
       0.018682351 -0.00096196815 -0.32566214 -0.032718997
000310 11 bf a6 3c 1b 6f 73 3d d8 78 8c 3c 06 8d 46 be
       0.02035478 0.05943213 0.017147467 -0.19389734
000320 f1 97 39 3d 51 19 9d bc 11 97 95 3e 5b e0 61 bd
       0.04531092 -0.01917711 0.29216817 -0.055145603
000330 7f 7f 9f bc 77 60 21 bd c6 3f 69 bd 0c 5a f3 3b
       -0.019469975 -0.039398637 -0.056945585 0.007426506
000340 57 6c 8d 3b 3f bf b2 bb 4c 65 ba 3e d3 bb 3e 3d
       0.0043158936 -0.005454927 0.36405408 0.046565842
000350 d9 99 b8 bc 22 88 00 bd 42 d7 86 3b 5a 28 53 bc
       -0.022534298 -0.031379826 0.004115016 -0.0128880385
000360 e8 fa 93 3b ed 32 f3 bc 50 f3 f5 bc a0 62 79 3c
       0.0045159943 -0.02968737 -0.030023247 0.015221268
000370 7e bb 06 3d 04 23 8b bc aa fa c7 bd 30 1b 8d 3b
       0.03289365 -0.01698447 -0.09764607 0.0043062195
000380 6d ea 8c bc 1e 9f 49 bc 24 b1 96 bc bb da e3 bc
       -0.017201627 -0.012306003 -0.018395014 -0.02781426
000390 3f b5 cb 3c 5e 9b 17 3c 71 43 29 bd 81 81 03 3e
       0.024866698 0.009253351 -0.041324083 0.1284237
0003a0 1d f0 14 3c ae c2 4d 3c 68 61 42 ba 19 fc 61 3d
       0.009090451 0.012558622 -0.00074150274 0.05517206
0003b0 98 ce 15 3e 7e 48 42 bd f2 bc 28 be 1d 92 11 bd
       0.1462959 -0.047432415 -0.16478327 -0.035539735
0003c0 5d 70 3f bd bc d5 31 be 7b 7b 51 3c 92 ad b8 bc
       -0.046738017 -0.1736669 0.012785788 -0.022543702
0003d0 52 16 d7 bc ee 2d b1 3e d7 a0 ca 3c d9 d9 84 3c
       -0.02625576 0.34605354 0.024734898 0.01621716
0003e0 8b 55 57 3d 9e 4c 7c bd 7d 03 30 ba 40 04 a7 3c
       0.052571815 -0.061596505 -0.0006714387 0.020387769
0003f0 bc 91 89 bc 18 49 15 3d 68 9a 79 bc 72 1e cf bb
       -0.016793124 0.03644666 -0.015234567 -0.006320768
