notebooks/training/params/ActuationNet_100_256x256.pt (torch, 298706 bytes, 6 tensors)

mlp.0.weight f4 [256, 3]
0	0x3a8f272d	0.001092171
1	0xba18cb73	-0.0005828656
2	0x3a2c9002	0.0006582738
3	0x3f8a2488	1.0792398
4	0x3f449c04	0.7680056
5	0x401b5efd	2.4276726
6	0x3b5ce829	0.0033707714
7	0x3a8a9806	0.0010573871
8	0xbaa5cc0f	-0.0012649315
9	0x3b8d8f0e	0.004320032
10	0x3b54ec23	0.0032489381
11	0x3b81bf83	0.0039595976
12	0x3a7c6970	0.00096287485
13	0x3af861d2	0.0018950051
14	0xba53e040	-0.0008082427
15	0xbf0b901c	-0.5451677
16	0x3f98f310	1.1949177
17	0x3f05fb54	0.5233662
18	0xbf5c089f	-0.85950655
19	0x3f6e1a85	0.93009216
20	0x3f9ce402	1.2257082
21	0xbf7a37e5	-0.9774154
22	0xbeddb246	-0.43300074
23	0x3f40c0d0	0.7529421
24	0x3b514ffe	0.0031938548
25	0xbaf1d071	-0.0018448961
26	0xb9e5a64c	-0.00043802185
27	0x3ed41f45	0.41430107
28	0x3f3820e8	0.7192521
29	0xbed7b5ab	-0.4213079
30	0x3b31c495	0.0027125229
31	0xbac27d0c	-0.0014838292
32	0x3b1c5060	0.0023851618
33	0x3b5897eb	0.0033049535
34	0xbc0b91cb	-0.0085186465
35	0xbc8af2fb	-0.016961565
36	0xbb72562e	-0.0036977637
37	0x3a43050a	0.00074394105
38	0xbad4702b	-0.0016207745
39	0xbe160f2c	-0.14654225
40	0xbe091b72	-0.13389376
41	0xbe296509	-0.16542448
42	0x3b11aa13	0.0022226616
43	0xba66be9e	-0.0008802208
44	0x3ad30367	0.0016099036
45	0xbfa6bde1	-1.3026696
46	0x3f6b47a4	0.9190619
47	0x3fd0e749	1.6320583
48	0x3a88a18c	0.0010424121
49	0x3b2dde28	0.002653012
50	0x3a1a4953	0.000588556
51	0x3b9738d6	0.0046149297
52	0x3f0160ae	0.50538146
53	0xbe467f1f	-0.1938443
54	0x3e51372a	0.204312
55	0xbea6ffee	-0.32617134
56	0x3eebc095	0.46045366
57	0x3924e430	0.00015725265
58	0x3ac67576	0.0015141207
59	0xbb7786d6	-0.0037769577
60	0x388b1cbe	6.63339e-05
61	0xba600fae	-0.00085472583
62	0x3b6796c4	0.0035337666
63	0x387a2fa0	5.9649e-05
64	0xba8ba4ca	-0.0010653969
65	0x3a86be14	0.0010280036
66	0x3a7ff7a0	0.0009764377
67	0xba5e8798	-0.0008488833
68	0x3991d98c	0.0002781864
69	0xbb8b3d3d	-0.0042492435
70	0x398d9b38	0.00027009263
71	0xbae1dcd3	-0.0017231948
72	0xb9f641da	-0.0004696984
73	0x3b3222f4	0.0027181478
74	0x3a6dfa7c	0.00090781576
75	0xbf690f80	-0.91039276
76	0x3daed355	0.08536402
77	0xbe2b2b81	-0.16715814
78	0x3b04a75b	0.0020241353
79	0x3addc3c1	0.0016919301
80	0x3b1ee222	0.0024243672
81	0x3a0b080c	0.0005303628
82	0xbae9ec1f	-0.0017846859
83	0x3b51c1db	0.0032006416
84	0xbb6cf3d5	-0.0036156077
85	0xb9d37717	-0.00040333785
86	0xba73a3bc	-0.00092941127
87	0x3a1a7f0f	0.0005893567
88	0x3a09dbe0	0.0005258899
89	0xbaeec464	-0.0018216488
90	0x3b3b53a3	0.0028583787
91	0x3a7adab6	0.00095693336
92	0x39de6efa	0.00042425824
93	0xbfe35b66	-1.7762268
94	0xbf927468	-1.1441774
95	0x3f8b6779	1.0890952
96	0xbe8f0804	-0.27935803
97	0x3fce9999	1.6140624
98	0x3f9fae4d	1.2475067
99	0x3ec94cfa	0.3931654
100	0xbfb8ba55	-1.4431864
101	0xbf5dbbfb	-0.8661496
102	0x3b50a887	0.0031838731
103	0xba646e6f	-0.00087139657
104	0x3b0a5fad	0.0021114156
105	0xbcd4aca3	-0.025961226
106	0xbd4552be	-0.048174612
107	0x3b80504f	0.0039158235
108	0x3fb17871	1.3864881
109	0x3f91c17b	1.138717
110	0xbecded1c	-0.40219963
111	0xbf8b1708	-1.0866404
112	0x3ebbe899	0.36700895
113	0x3f4c3a39	0.7977634
114	0x3f341106	0.70338476
115	0x3e26e73a	0.16299143
116	0x3fd30d2e	1.6488397
117	0xbb027a66	-0.001990938
118	0x3b08fff5	0.0020904515
119	0x3b8d81f6	0.004318471
120	0xbf58c6a8	-0.84678125
121	0x3f75b798	0.95983267
122	0x3f1ee9d3	0.6207554
123	0x3c9eb087	0.019371284
124	0xbeb0526b	-0.3443788
125	0x3e8d1d61	0.27561477
126	0xbfa9b217	-1.3257474
127	0xbfcd60f6	-1.6045215
128	0x3f868aeb	1.0511144
129	0x3ecf35b2	0.40470654
130	0x3e1f7dfe	0.15575406
131	0x3f1ae783	0.6050951
132	0x3cb39cf5	0.021925429
133	0xbe4c3fda	-0.19946232
134	0xbe5f65ec	-0.21816224
135	0xbf82e0b1	-1.022482
136	0xbe9a4793	-0.30132732
137	0x3fa4bf52	1.2870886
138	0xbee5a62a	-0.44853336
139	0xbfdbf4f8	-1.7184134
140	0xbfe7fdde	-1.8124349
141	0x3b4ae729	0.0030960536
142	0xbb37c806	-0.0028042807
143	0xbad950ab	-0.0016579827
144	0x3f9b8eae	1.2152917
145	0x3ea7dbfb	0.3278502
146	0x3fbd784c	1.4802337
147	0xbfea93d6	-1.8326366
148	0x3f907bb7	1.1287755
149	0xbff73529	-1.9313098
150	0x3f75c62c	0.9600551
151	0x3f6aa35b	0.9165551
152	0xbda3df41	-0.08001567
153	0xbf9ec31d	-1.2403294
154	0x3fa17cd0	1.2616215
155	0xbfa3cb08	-1.2796335
156	0xbaf30cc0	-0.0018543229
157	0xbb62ddeb	-0.0034617137
158	0xb9b0b029	-0.00033700585
159	0x3f2dcd64	0.67891526
160	0x3e53cf97	0.20684658
161	0xbd577dcc	-0.052610204
162	0xbf1ac0c0	-0.60450363
163	0xbf40b21f	-0.7527179
164	0x3f15c5b6	0.5850481
165	0x3b12a71a	0.0022377432
166	0xbabd78ff	-0.0014455615
167	0x3b5de669	0.003385926
168	0x3e2a7f81	0.16650201
169	0xbc197cb5	-0.009368111
170	0xbf0bca31	-0.54605395
171	0x3f956422	1.1671183
172	0x3f1f85f9	0.623138
173	0x3f93c653	1.1544899
174	0x3eca4c5f	0.39511392
175	0x3eb53f7d	0.354
176	0x3df32b50	0.118734956
177	0x3b7c72ef	0.0038520654
178	0xbb2041fa	-0.0024453388
179	0x3b300190	0.00268564
180	0xbf73494b	-0.9503371
181	0x3e6e0c2a	0.23246828
182	0x3f4f0801	0.8087159
183	0xbfda6afa	-1.7063897
184	0xbf2a4deb	-0.66525143
185	0x3f6b9bc2	0.9203454
186	0xbfd897d0	-1.692133
187	0xbcc683a5	-0.024232695
188	0xbfa042db	-1.2520403
189	0xbf495a74	-0.78653646
190	0x3f92b343	1.1460956
191	0x3fdeec18	1.74158
192	0x3f4b6e66	0.7946533
193	0xbeff403c	-0.49853694
194	0xbf04d975	-0.51894313
195	0xbe941c43	-0.28927812
196	0x3ed89ddd	0.4230794
197	0x3e7a38db	0.24435751
198	0x3affb27a	0.0019508146
199	0x3ac45329	0.0014978397
200	0x3a51f763	0.0008009581
201	0xbab6bb30	-0.0013941284
202	0x3a2845f9	0.0006419118
203	0xb8cfbbc6	-9.905505e-05
204	0xbe862eb4	-0.26207507
205	0x3e6b2834	0.22964555
206	0xbe61b85b	-0.22042982
207	0x3f38043b	0.71881455
208	0xbfa9c66a	-1.3263676
209	0xbdf56176	-0.1198148
210	0xbf8027ef	-1.0012187
211	0xbe8bd0c6	-0.2730772
212	0x3fb07709	1.3786327
213	0x3ef3cdfa	0.47618085
214	0x3ec4d10c	0.3844074
215	0x3efce895	0.49396196
216	0x3fb81e9e	1.4384344
217	0x3f6de880	0.9293289
218	0x3fa85e72	1.3153822
219	0xb947ea05	-0.00019065298
220	0xbb185f58	-0.0023250189
221	0xba6d8cb8	-0.0009061801
222	0xbb6713b2	-0.0035259542
223	0x3b497d90	0.0030745007
224	0x3b8ab84c	0.0042333957
225	0xba9040d2	-0.0011005646
226	0x3afc67ea	0.0019257043
227	0x3a12a623	0.00055942143
228	0xbf7e75ec	-0.99398685
229	0x3fd04be3	1.6273159
230	0xbfe30c9f	-1.7738227
231	0xbf0fb00d	-0.5612801
232	0xbf799b39	-0.97502476
233	0x3fac6aba	1.347007
234	0x3bc7da06	0.0060989885
235	0xba5a0d60	-0.0008318033
236	0xbbcf79a9	-0.0063316417
237	0x3fec450d	1.8458573
238	0xbf868d83	-1.0511936
239	0x3f12268d	0.57090074
240	0xba9bc066	-0.0011882901
241	0x3ac28783	0.0014841411
242	0x3b09e825	0.002104291
243	0xbe9abbfd	-0.3022155
244	0x3e9f2bd9	0.3108814
245	0xbbf78049	-0.0075531346
246	0xbdd8134f	-0.10550558
247	0x3fd0b571	1.6305372
248	0xbfeed2f5	-1.8658129
249	0xbf2f9e2b	-0.6860072
250	0x3f89f556	1.0777996
251	0x3f02c97f	0.5108871
252	0xbef5572e	-0.47918075
253	0xbed0dffb	-0.40795884
254	0xbf98a345	-1.1924826
255	0x3f37835e	0.71684825

mlp.0.bias f4 [256]
0	0xba33fc65	-0.0006865918
1	0xbd3f57d2	-0.04671461
2	0xba8019c1	-0.00097733
3	0x3ad417f6	0.0016181457
4	0x3a975aca	0.0011547443
5	0x3c88c3b9	0.01669489
6	0xbc81e10d	-0.015854383
7	0x3c9f858e	0.019472864
8	0xbaa59756	-0.0012633603
9	0x3c20b0eb	0.0098078055
10	0x3a33db5a	0.0006860994
11	0xb9ac164e	-0.00032823015
12	0xba7263d8	-0.0009246445
13	0x3a418a6f	0.0007382994
14	0x3a49a3c9	0.00076919474
15	0x3c223e72	0.009902583
16	0x3a5563cb	0.00081401755
17	0xbbe9d3d7	-0.007135849
18	0x3c041781	0.008062244
19	0x3abf5ace	0.0014599205
20	0x39bbb6be	0.00035803573
21	0x39f8d6b2	0.00047462207
22	0xb9aaabdf	-0.0003255298
23	0x39ab2e34	0.00032650086
24	0x39c432ce	0.00037421886
25	0x3c41fb82	0.011839749
26	0xb7199ba8	-9.155752e-06
27	0x3912f19e	0.00014013654
28	0x3a763a34	0.0009392828
29	0xb89c6f5a	-7.4594005e-05
30	0x397d5d6a	0.0002416276
31	0x3d844b9d	0.064597346
32	0xbb6c3f4a	-0.0036048465
33	0xbca0ef12	-0.019645248
34	0x3a38ab7e	0.00070445973
35	0x3a859b3e	0.001019336
36	0xbd1a4cb9	-0.037670825
37	0xbc872fc2	-0.016502265
38	0xbcaad0f1	-0.020851584
39	0xb9cca9a3	-0.000390363
40	0xbc928058	-0.017883465
41	0x3b9d6160	0.004802868
42	0x3d598de6	0.05311384
43	0xbb879a2b	-0.0041382513
44	0x3a855fac	0.0010175607
45	0xbcbce1cb	-0.023056885
46	0x3b2516b7	0.002519054
47	0x3a143de4	0.00056549744
48	0xbc8d7250	-0.017266423
49	0xbde3f6a1	-0.11131025
50	0x3c90f555	0.017695108
51	0x3c754409	0.014969834
52	0xb9b1d124	-0.00033915893
53	0x3bec6769	0.007214476
54	0xbc2fb00e	-0.010723127
55	0x390a4517	0.00013186444
56	0xbb909865	-0.004412698
57	0x3ce89c94	0.028394975
58	0x3b8f0ff1	0.004365914
59	0xba213027	-0.0006148838
60	0x3c9f05c6	0.019411933
61	0xbcd5dc56	-0.02610604
62	0x3bcdb98c	0.0062782224
63	0x3d40ab48	0.047038347
64	0x3c2e73b6	0.010647705
65	0x3bc1bfb6	0.0059127463
66	0x3a2bb5e3	0.00065502356
67	0x3a8ead16	0.0010885324
68	0xbb8f55e1	-0.0043742512
69	0xbc92a559	-0.01790111
70	0xbce3cc1e	-0.027807292
71	0x3c2c0761	0.010499806
72	0xbb6e42df	-0.0036355776
73	0xb8e6ade4	-0.00010999644
74	0x391b655c	0.00014819711
75	0x39c7e926	0.00038129947
76	0xbd95dbde	-0.07317327
77	0xbcd188d3	-0.025577938
78	0x390de801	0.00013533236
79	0x3dae06ec	0.08497414
80	0xb95dd64e	-0.00021156037
81	0x3b71effb	0.003691672
82	0xbda5d3e2	-0.08097054
83	0x3cc686c2	0.02423418
84	0x3c688e2f	0.014194055
85	0x3cf793f9	0.030221926
86	0x3c977079	0.018486248
87	0x3be50f25	0.0069903308
88	0xbc05c92b	-0.008165638
89	0x3c2ca395	0.010537048
90	0xbac7f6b4	-0.0015256018
91	0x397f9b62	0.0002437658
92	0x3af64f1c	0.0018791887
93	0xbd37979e	-0.044822328
94	0x3d5f2b2f	0.054484542
95	0x3caa15dc	0.020762376
96	0x3a6883e3	0.00088697503
97	0xbadc57ea	-0.0016810868
98	0x39507f08	0.00019883749
99	0x3caa65c3	0.020800477
100	0x3c890414	0.016725577
101	0x36974cc0	4.5090856e-06
102	0xbe01bd7b	-0.12669937
103	0xbb93c61e	-0.0045097014
104	0x3c31c285	0.0108496
105	0xb8f3f496	-0.000116327006
106	0xbcfd47b3	-0.030917978
107	0x3a863099	0.0010237872
108	0xba0175c4	-0.0004938508
109	0x378d408e	1.683857e-05
110	0xb9b04f69	-0.000336285
111	0xbca438cf	-0.02004662
112	0xbc2abaad	-0.010420484
113	0x3b42cfd6	0.002972593
114	0xbce4d82f	-0.027935116
115	0x3a5e3b82	0.0008477495
116	0x3a373116	0.00069882104
117	0xb9fd1846	-0.00048274006
118	0xbc4fa6fe	-0.012674091
119	0xba2aaaff	-0.0006510466
120	0xbc686ee3	-0.014186594
121	0x3a2f9760	0.0006698277
122	0xbc39b21b	-0.011333968
123	0xbd02f2a1	-0.03196967
124	0xba05cd25	-0.0005104116
125	0x3ceac616	0.028658908
126	0xbd086b32	-0.033305354
127	0xbc526fb4	-0.012844015
128	0x3bbfb542	0.005850465
129	0xbcc6f967	-0.024288846
130	0x3a55b7ab	0.0008152674
131	0xbe023b6f	-0.12717985
132	0x39fdc1b0	0.0004840023
133	0xb8522d87	-5.0110302e-05
134	0xbca86fa5	-0.020561049
135	0x39e497e4	0.00043600716
136	0xbc90a53a	-0.017656911
137	0x3ac1a9b8	0.0014775312
138	0xbb5119c0	-0.0031906217
139	0xbc72785d	-0.014799205
140	0x3ca040d4	0.019562162
141	0xbd1b68b1	-0.03794164
142	0xb9d18bdf	-0.00039967799
143	0x3a0468d4	0.0005051021
144	0xbd32349d	-0.043507207
145	0x38e21bfa	0.00010781731
146	0x3cfef7e9	0.031124072
147	0xbcc5ff13	-0.02416948
148	0xbe07b24c	-0.13251609
149	0x3bfd2468	0.007725287
150	0xbb3ed569	-0.0029118902
151	0xba0108be	-0.0004922262
152	0x3a6b0dbe	0.00089665863
153	0xb809228c	-3.269552e-05
154	0x3a5c785b	0.00084102683
155	0xbab1b673	-0.0013558402
156	0x3ba58abf	0.00505194
157	0x3d2d1853	0.042259526
158	0x39c1085c	0.00036818057
159	0x3baa523f	0.005197793
160	0xb8300004	-4.1961684e-05
161	0x3a64ef93	0.0008733209
162	0xbc8c737e	-0.017144915
163	0x38a661cc	7.933713e-05
164	0xbbd28442	-0.0064244578
165	0x3c1175e4	0.008878205
166	0x3c4a5301	0.012348891
167	0x3e141339	0.14460458
168	0x3a3c7799	0.00071894523
169	0x398fc006	0.00027418154
170	0xbbcc1141	-0.0062276428
171	0xbb8183b4	-0.003952468
172	0xbc22d071	-0.009937392
173	0x3b25a592	0.002527569
174	0xba7c24a9	-0.00096185
175	0xbcecfb84	-0.028928526
176	0x3c6bb768	0.014386989
177	0xbba176b3	-0.00492748
178	0xbe194253	-0.14966707
179	0xbc41c05e	-0.011825649
180	0xba050ad0	-0.00050751586
181	0xbca5787a	-0.02019905
182	0x3d172d55	0.036908466
183	0xb80d7a08	-3.373067e-05
184	0xbd9ae6fd	-0.07563589
185	0xba9bdb04	-0.0011890833
186	0x3c5b634f	0.013390376
187	0xbbb0c0af	-0.0053940634
188	0xbd170a43	-0.03687502
189	0x3ac5ab14	0.0015080892
190	0xbb19021c	-0.0023347205
191	0xbbdadfc5	-0.0066795074
192	0x3cb3a1af	0.021927683
193	0x3cdeb0c6	0.027183902
194	0xbcb259fc	-0.021771424
195	0xbb15fc8f	-0.0022886132
196	0xbd0a4b4e	-0.033763222
197	0xba8e4cea	-0.0010856662
198	0xbd2ffba8	-0.042964607
199	0x3b923b03	0.004462601
200	0x39bc4830	0.00035911938
201	0x3a8c8895	0.0010721857
202	0xba00a838	-0.0004907879
203	0xbd1f9678	-0.038961858
204	0x3a96a3fd	0.0011492964
205	0x3c349682	0.011022212
206	0xbca9eef8	-0.020743832
207	0x3d006dfd	0.031354893
208	0xb9d51304	-0.00040640694
209	0xba4871e8	-0.0007646368
210	0x3c3c4031	0.011489914
211	0xbd040f83	-0.032241356
212	0xbb163002	-0.0022916798
213	0xbca5100f	-0.020149259
214	0xba3a192a	-0.00070990867
215	0x3930f640	0.00016876403
216	0xbae31626	-0.0017325326
217	0xba839aac	-0.0010040603
218	0xbdb93157	-0.09042614
219	0xbc4aae09	-0.012370595
220	0x3c60df59	0.013725125
221	0xbc8833ac	-0.016626202
222	0x3c99bcbe	0.018766757
223	0x3d19b879	0.037529442
224	0x3a825a07	0.0009945043
225	0xbc50e27b	-0.01274931
226	0xbc29f606	-0.010373598
227	0xbd28b98c	-0.041192576
228	0xbc5e0862	-0.013551803
229	0x3a805e2b	0.0009793689
230	0x3ae86e0c	0.0017732992
231	0x3c6c0c46	0.014407223
232	0xbd2141c5	-0.039369363
233	0x3c925f97	0.017867846
234	0x3bfec3f2	0.0077748233
235	0xbc357a4a	-0.011076519
236	0xbcc9da53	-0.024640238
237	0xb8913b02	-6.92513e-05
238	0x3bd9d413	0.0066475957
239	0x3943317a	0.0001861508
240	0x3cbcd68c	0.023051523
241	0x3afd9cf2	0.0019349142
242	0xbbdc4c3a	-0.006722954
243	0xbd085483	-0.03328372
244	0x3c993cea	0.018705804
245	0xbc917147	-0.01775421
246	0x3d00e138	0.031464785
247	0x3db1d8bc	0.08683917
248	0x3aeecf2d	0.0018219702
249	0xbbd0b46d	-0.0063691647
250	0x39aa3a95	0.00032468574
251	0xbcd8562d	-0.02640828
252	0xbc983d67	-0.018583966
253	0x39a2ae77	0.00031029034
254	0x3cbc372a	0.022975523
255	0xbcba0717	-0.022708459

mlp.2.weight f4 [256, 256]
0	0xbbafbaa7	-0.005362827
1	0x3d6d4c12	0.057933874
2	0x3b5fa9b8	0.003412826
3	0xbbaa63ca	-0.005199884
4	0xbc895131	-0.016762348
5	0x3b806c85	0.0039191865
6	0xbae88f52	-0.0017742908
7	0xbc9dbc7d	-0.019254917
8	0xbb25f088	-0.002532037
9	0x3ce6f5b6	0.028193336
10	0xbc86fa99	-0.016476916
11	0x3d52731d	0.05137931
12	0xbc26df4b	-0.010185073
13	0xbd0481fc	-0.032350525
14	0xbc1003a8	-0.008789934
15	0x3ca2770c	0.019832157
16	0xbc115365	-0.00886998
17	0x3d4a9685	0.049459953
18	0xbcd2cdc1	-0.025732877
19	0x3c83b4a0	0.01607734
20	0x3ba3d1e0	0.0049993843
21	0xbc66a21f	-0.014076739
22	0xba6a6a89	-0.00089422666
23	0x3c8fc951	0.01755205
24	0x3c572d1c	0.0131333135
25	0x3d7e71f1	0.06212038
26	0x3d0f395d	0.034966815
27	0xbbd0afb3	-0.006368601
28	0xbc54db74	-0.012991775
29	0x3c2f8402	0.010712625
30	0xbcf1d286	-0.02951933
31	0xbb28d476	-0.0025761402
32	0xbcb759fe	-0.022381779
33	0xbd3bab26	-0.045817517
34	0x3c9135d6	0.017725866
35	0xbc4b36e2	-0.012403222
36	0x3c1bcf10	0.009509817
37	0xbc906ce7	-0.017630054
38	0x3d324918	0.04352674
39	0x3a01115e	0.00049235474
40	0xbab0cc52	-0.0013488627
41	0xbc258220	-0.010101825
42	0x3d57c083	0.052673828
43	0xbccf2666	-0.025286864
44	0xbd0d1133	-0.03444023
45	0xbc59c932	-0.013292598
46	0x3ceea66c	0.02913209
47	0xbc8e3cd6	-0.017362993
48	0x3c7fd1fc	0.015614029
49	0x3d003176	0.03129717
50	0xbbb5f71e	-0.0055531403
51	0xbcbacd6d	-0.022803033
52	0xbb93c739	-0.004509833
53	0x3c32943c	0.0108996
54	0xbba9cddb	-0.0051820106
55	0xb8c4ca94	-9.3837414e-05
56	0xbc09e1e8	-0.008415677
57	0xbd055f56	-0.032561623
58	0xba0a242e	-0.00052696734
59	0xbc12279a	-0.008920575
60	0xbc92ace3	-0.017904704
61	0xbcc2d343	-0.023782378
62	0x3ceab81c	0.028652243
63	0x3d18b62b	0.037283104
64	0xbd0fb900	-0.03508854
65	0xbd0381a6	-0.032106064
66	0xbc440849	-0.011964866
67	0x3bfde70e	0.007748491
68	0xbcb9f287	-0.022698654
69	0x3bc81cde	0.006106957
70	0xbcd382bb	-0.025819173
71	0x3a8296d1	0.000996316
72	0x3d30b219	0.043138597
73	0x3c7bccdb	0.015368666
74	0xbd0a1815	-0.033714373
75	0xbcbfc3c2	-0.023408774
76	0xbd11013c	-0.035401568
77	0x3c604a83	0.01368964
78	0x3d47f9b7	0.04882213
79	0xbd84c28e	-0.06482421
80	0x3b96d55f	0.0046030725
81	0xbd326955	-0.043557484
82	0xbb96a9df	-0.004597887
83	0x3b962b14	0.004582772
84	0xbcdf6394	-0.027269162
85	0xbc32bfd8	-0.010909997
86	0xbce3ab5d	-0.027791673
87	0x3d267913	0.04064281
88	0xbcc2b94a	-0.023769993
89	0x3d39b884	0.045341983
90	0x3c8f7a7a	0.017514456
91	0xbbfa1591	-0.0076319654
92	0xbcadea2f	-0.021229832
93	0x3c401db6	0.011725834
94	0xbc02c637	-0.007981828
95	0xbc91cc3d	-0.017797584
96	0x3be8ff9a	0.007110548
97	0x3c814d01	0.015783789
98	0xbce043f9	-0.027376162
99	0xbd214fda	-0.039382793
100	0x3d3b9e02	0.045804985
101	0xbcd085ed	-0.025454486
102	0x3cdf50bf	0.027260182
103	0x3a5c4ecb	0.0008404075
104	0x3c6d3045	0.01447684
105	0x3ca4613e	0.0200659
106	0x3b96a3f5	0.004597182
107	0x3baddc65	0.005305814
108	0x3c60c61f	0.013719111
109	0xbd7edaf9	-0.062220547
110	0x3c09a72c	0.008401673
111	0xbcf1add2	-0.02950183
112	0x3bdd3b1d	0.0067514316
113	0xbca044f0	-0.019564122
114	0xbd260360	-0.040530562
115	0x3d8dc84b	0.069229685
116	0x3bcfa7ee	0.0063371575
117	0x3caa7b1d	0.020810658
118	0xbcb0dbbb	-0.02158915
119	0x3c942a06	0.018086445
120	0x3d5ebe14	0.05438049
121	0x3c9fdacc	0.01951351
122	0x3d18c1f1	0.037294332
123	0x3c538f3e	0.01291257
124	0xbc583aa9	-0.013197579
125	0xbce55b69	-0.02799769
126	0x3c8c1631	0.017100425
127	0xbc1e2c4f	-0.009654119
128	0x3a92014e	0.0011139305
129	0xbb30c5c4	-0.0026973346
130	0xbc31b992	-0.010847466
131	0x3b95a2de	0.0045665344
132	0x3ad84748	0.0016500736
133	0xbcd4bdee	-0.025969472
134	0xbd320d93	-0.043469977
135	0x3c6d3054	0.014476854
136	0x3d4209fa	0.047372796
137	0x3cfdba36	0.030972581
138	0xbd3dc9d9	-0.046335075
139	0xbb85d46c	-0.0040841606
140	0xb9588c7c	-0.000206517
141	0x3cd38d79	0.025824295
142	0x3bcba6b0	0.006214939
143	0x3c4142f5	0.011795749
144	0xbc1b861c	-0.009492423
145	0xbc01a7cd	-0.007913542
146	0xbd43e2a2	-0.047823556
147	0xbd5bed93	-0.053693365
148	0x3d474ba0	0.048656106
149	0x3d59614e	0.053071313
150	0xbd61504e	-0.055008225
151	0xbca8e66c	-0.020617686
152	0x3ad84eb3	0.0016502946
153	0x3ce81f63	0.028335279
154	0x3c68fbd2	0.014220195
155	0xbacbe304	-0.0015555327
156	0xbcbc66cd	-0.022998238
157	0x3bef7116	0.007307182
158	0xbbc9410d	-0.006141788
159	0x3d43edde	0.04783427
160	0xbd3a87e4	-0.04553975
161	0xbae45a4b	-0.0017421929
162	0xbd3cd5c4	-0.0461023
163	0xbb1ee63f	-0.0024246124
164	0x3d105ae3	0.035242926
165	0xbb9e2096	-0.004825662
166	0x3d62976c	0.05532019
167	0x3cb90228	0.022584036
168	0x3cadb7de	0.021205839
169	0xbc858634	-0.016299345
170	0xbcdf5d72	-0.027266238
171	0xbbb7b1ce	-0.005605913
172	0x3d30c21e	0.043153875
173	0xbd411a32	-0.047144122
174	0x395d3675	0.00021096489
175	0xbcf975bc	-0.030451648
176	0x3cdfe24e	0.02732959
177	0x3d690995	0.056893904
178	0x3c94a05b	0.01814287
179	0xbd5c58c2	-0.053795584
180	0xbce0e759	-0.027454065
181	0xbd4f5f86	-0.050628208
182	0xbc3f36f3	-0.011670816
183	0xba950da2	-0.0011371861
184	0xbca2a35c	-0.019853286
185	0xbba6ee1f	-0.005094304
186	0x3ceafabb	0.02868401
187	0xbd2bb050	-0.04191619
188	0x3d5961f9	0.05307195
189	0x3ca2617e	0.019821879
190	0xbd0c7fe3	-0.03430165
191	0xbd68cdaf	-0.05683678
192	0xbc1e843c	-0.009675082
193	0x3c36df65	0.01116166
194	0xbce488c0	-0.027897239
195	0xba06c7a6	-0.0005141444
196	0x3cbaf88d	0.022823596
197	0x3c7b098f	0.015322103
198	0xbc891b83	-0.016736751
199	0xbd0f55fa	-0.034994103
200	0x3c84f450	0.016229779
201	0xbc6cf7b0	-0.01446335
202	0xbd532fbc	-0.051559195
203	0xbc6a53c9	-0.0143022025
204	0xbbdb7500	-0.006697297
205	0xbd46e12a	-0.048554577
206	0xbd334791	-0.043769423
207	0x3c0d751f	0.008633881
208	0xbdaa31f6	-0.083103105
209	0xbd01db2c	-0.03170316
210	0xbcf138f5	-0.029446105
211	0xbcbd51e9	-0.023110347
212	0x3d1d24bf	0.038365122
213	0xbd4885b9	-0.048955653
214	0x3d605315	0.054766733
215	0xbc0b02a1	-0.0084845135
216	0x3abd32df	0.0014434716
217	0x3c91adf1	0.017783137
218	0x3d3e61ba	0.046479918
219	0xbca42a56	-0.020039719
220	0xbcca64ee	-0.02470633
221	0xbce5e428	-0.028062895
222	0xbd1c6e05	-0.03819086
223	0x3d441376	0.047870122
224	0x3a932ade	0.0011227985
225	0x3cc2f714	0.023799457
226	0xbc81037b	-0.01574873
227	0x3d731d46	0.05935409
228	0xbaf84020	-0.0018940009
229	0x3c7ae6ec	0.015313845
230	0x3d6d3df6	0.05792042
231	0xbc3ea905	-0.011636977
232	0x3b088fcf	0.002083767
233	0x3d0ad33f	0.033892866
234	0x3d376c3c	0.044780955
235	0xbcdef9f3	-0.027218794
236	0x3c5586f3	0.013032663
237	0xbd1df893	-0.038567137
238	0x3c4357e7	0.011922813
239	0xbbd41378	-0.0064720474
240	0xbd0009f8	-0.031259507
241	0xbc072a30	-0.008249804
242	0xbbbfb850	-0.005850829
243	0xbd2f7d24	-0.042843953
244	0xbd13abfa	-0.03605268
245	0xbcd9a996	-0.026570123
246	0x3cfe15b3	0.031016206
247	0xbd20b1e5	-0.039232153
248	0x3cc91fdf	0.02455133
249	0x3c56dcd7	0.013114176
250	0x3cd068b7	0.025440557
251	0xbc2f0327	-0.010681904
252	0x3d72610f	0.059174594
253	0x3a8e1cb5	0.0010842296
254	0xbc400fde	-0.011722533
255	0x3d6faae1	0.058512572

mlp.2.bias f4 [256]
0	0x3c8ad191	0.016945632
1	0x3d129cd0	0.03579408
2	0x3be480e8	0.0069733746
3	0x3c59957f	0.013280272
4	0x3c6875d6	0.0141882505
5	0x3d4e3c6e	0.0503506
6	0xbca9802a	-0.020690996
7	0xbd1f3b11	-0.03887469
8	0xbbd3f066	-0.0064678667
9	0x3d11f6b6	0.035635673
10	0x3cba5b28	0.022748545
11	0x3c5661f5	0.013084878
12	0xbb9e5ca2	-0.00483282
13	0x3c8fd083	0.01755548
14	0xbd8714dc	-0.065957755
15	0x3cebe0e4	0.02879376
16	0xbdba5472	-0.09098138
17	0x3b5c6fdd	0.0033636012
18	0xbd885d93	-0.06658473
19	0xbc5813a1	-0.013188274
20	0x3c9cd659	0.019145178
21	0xbc9d3c35	-0.019193748
22	0x3bf6a5e4	0.0075271
23	0x3ca4792f	0.020077316
24	0xbcebd6b3	-0.0287889
25	0x3c87d195	0.016579429
26	0x3c84d5b3	0.016215181
27	0xbd17175b	-0.036887508
28	0xbd0b5105	-0.034012813
29	0x3e4bed05	0.19914635
30	0x3cb04bff	0.021520613
31	0x3d2525b1	0.04031915
32	0x3d4d721b	0.050157648
33	0x3bd920fe	0.0066262474
34	0x3d14b7fa	0.036308266
35	0x3cc7be89	0.024382846
36	0xbee9ba64	-0.45650017
37	0x3ccd4633	0.025057888
38	0xbcd5247b	-0.026018372
39	0xbc905ee0	-0.017623365
40	0x3d4a6183	0.0494094
41	0xbcba1232	-0.022713754
42	0x3d409601	0.047018055
43	0xbc9a9b2c	-0.01887282
44	0x3dc8e5bf	0.098094456
45	0xbd4361de	-0.047700755
46	0xbe03c0f4	-0.12866575
47	0xbcec89d3	-0.028874313
48	0x3b0ee083	0.00218013
49	0xbeed5802	-0.46356207
50	0xbadf5bd7	-0.001704092
51	0xbca0a421	-0.019609513
52	0xbca1fbec	-0.019773446
53	0xba2161ca	-0.00061562343
54	0xbd41983b	-0.04726432
55	0xbc059d88	-0.008155234
56	0x3d11f1b4	0.035630897
57	0x3d330e0b	0.043714564
58	0xbc477d28	-0.012175836
59	0x3ca4a9ec	0.020100556
60	0x3c6ffa0b	0.014647017
61	0x3ca1e372	0.019761775
62	0x3d0013cb	0.031268876
63	0xbcc4af49	-0.024009364
64	0xbd1c22c5	-0.038119096
65	0xbb544ae2	-0.0032393266
66	0x3ef8b930	0.48578787
67	0x3ca753e8	0.020425752
68	0xbd08acb7	-0.03336784
69	0xbd757951	-0.05993015
70	0x3b5126d8	0.0031914022
71	0xbcc1e3f4	-0.023668267
72	0xba4fc0e7	-0.0007925168
73	0x3f183b9d	0.5946596
74	0x3c9643af	0.01834282
75	0xbd2806d9	-0.041022155
76	0x3c2b98c5	0.010473435
77	0x3c30f96e	0.010801656
78	0xbc03ac14	-0.008036632
79	0xbd538d2b	-0.0516483
80	0xbcd61cb6	-0.026136737
81	0xbe6c5ea3	-0.23082976
82	0xbea861f2	-0.32887226
83	0xbbe9e5c9	-0.007137988
84	0x3cc300c5	0.023804078
85	0xbce7e52c	-0.02830752
86	0xbd104e3c	-0.03523086
87	0x3c0843c2	0.008316936
88	0xbcad5aa3	-0.021161383
89	0x3c64b884	0.013960008
90	0xbc944e85	-0.018103847
91	0x3d109fac	0.035308525
92	0x3c853a01	0.01626301
93	0xbde6035e	-0.11231111
94	0xbcdfbb62	-0.02731103
95	0x3cf51145	0.029915461
96	0x3d3027c4	0.043006673
97	0xbbe04ba6	-0.0068449555
98	0x3db7f69a	0.089825824
99	0x3a7efc67	0.0009726942
100	0xbcb8c66e	-0.022555556
101	0x3ccf8d2a	0.025335867
102	0xbcb5df2f	-0.022201149
103	0xbd5172bb	-0.051134806
104	0x3d530a83	0.051523697
105	0x3f40c7b0	0.753047
106	0xbc28f99d	-0.010313419
107	0xbc61a713	-0.013772744
108	0x3cfa80ed	0.030579055
109	0x3cdd7d77	0.027037365
110	0x3d9e12e3	0.07718446
111	0xbd10eff5	-0.03538509
112	0xbc9008ba	-0.017582286
113	0x3bdea3bf	0.0067944224
114	0x3c489c28	0.012244262
115	0x3c2e1d11	0.010627047
116	0x3d2e5951	0.042565648
117	0xbcac0b95	-0.021001616
118	0xbb90268d	-0.004399127
119	0x3caf4b7a	0.021398295
120	0xbcba81fc	-0.02276706
121	0x3d1cf9d1	0.03832418
122	0x3b86550f	0.0040994952
123	0x3d082948	0.033242494
124	0x3c8b179b	0.01697903
125	0xbed92022	-0.42407328
126	0xba01057c	-0.00049217767
127	0xbb631fde	-0.0034656445
128	0x3d2f44b2	0.042790122
129	0xbc8fa812	-0.017536197
130	0x3ab09c73	0.001347436
131	0xbcbc20ba	-0.022964824
132	0x3d43c2df	0.047793265
133	0x3cecc1c8	0.028900996
134	0x3c2a3ace	0.010389997
135	0xbd0144cf	-0.03155976
136	0xbaea66d0	-0.0017883424
137	0x3c8e9ac1	0.017407777
138	0xbd164a5c	-0.03669201
139	0xbcf25d64	-0.029585548
140	0xbc016322	-0.00789717
141	0xbc5a3c63	-0.013320061
142	0xbce795b9	-0.028269636
143	0xbc8c102f	-0.01709756
144	0xbccc1c87	-0.024915947
145	0xbd26c6e0	-0.040717006
146	0xbd1efef8	-0.038817376
147	0xbccd31fe	-0.025048252
148	0x3c1a9e5d	0.009437171
149	0xbc2d091d	-0.010561255
150	0x3f372674	0.7154305
151	0xbe3188ba	-0.17337313
152	0x3d355cf8	0.044278115
153	0xbbb3b5f9	-0.0054843393
154	0x3d12be46	0.03582599
155	0x3b271051	0.0025491903
156	0x3cfe9f5b	0.031081846
157	0x3c8f0b4b	0.01746144
158	0xbc3f6ddd	-0.011683908
159	0xbd2bf5ca	-0.04198245
160	0xbcca8670	-0.024722308
161	0x3d11f398	0.0356327
162	0x3c08826f	0.008331879
163	0x3cd7924a	0.026314873
164	0x3bebf8aa	0.007201274
165	0xbe029f7c	-0.12756151
166	0xbc8350db	-0.016029766
167	0x3d157893	0.03649194
168	0x3d8d2cb6	0.068932936
169	0xbd0fd78d	-0.035117675
170	0xbd0f937e	-0.03505277
171	0xbd25ce9b	-0.040480237
172	0x3e8e4bb2	0.27792126
173	0xbb769bcb	-0.003762948
174	0x3c7d4a77	0.015459648
175	0xbbd4b9e7	-0.006491888
176	0xbcd26c8a	-0.025686521
177	0xbc2b9092	-0.01047148
178	0xbcf4213f	-0.02980101
179	0x3cf477e7	0.02984233
180	0xbd4201a9	-0.047364864
181	0xbd18a8a7	-0.037270214
182	0x399161fa	0.00027729553
183	0xbc845fe3	-0.016159004
184	0xbd001c70	-0.03127712
185	0x3dd370ad	0.103242256
186	0xbcc90760	-0.02453965
187	0xbd177c05	-0.03698351
188	0xbcf8d6c0	-0.030375838
189	0x3da19aed	0.07890878
190	0x3b19fce9	0.0023496693
191	0x3cc9e64e	0.02464595
192	0x3b91a0df	0.004444226
193	0x3d324f6e	0.04353278
194	0x3e9f0b37	0.31063244
195	0xbc4dd8c8	-0.012563892
196	0xbd0ddf89	-0.034637008
197	0x3e45fed0	0.19335485
198	0x3db4f40f	0.08835613
199	0xbddd959e	-0.10819553
200	0x3dd6fd07	0.1049748
201	0xbc5f2884	-0.0136204995
202	0x3d9fbedd	0.07800076
203	0x3c803984	0.015652426
204	0x3c915762	0.017741863
205	0xbd6946eb	-0.0569524
206	0xbd2324de	-0.03983008
207	0xbeb5c0ae	-0.35498565
208	0xbc6e4061	-0.014541716
209	0x3c2ca6ee	0.010537846
210	0xbc0fe6e5	-0.008783077
211	0xbe7766d5	-0.24160321
212	0xbd023a6a	-0.03179399
213	0xbcd191e4	-0.025582261
214	0xbb790944	-0.0037999908
215	0xbef4f1aa	-0.47840625
216	0xbcf57cd7	-0.029966755
217	0xbc039d14	-0.008033056
218	0xbceb39ef	-0.028714148
219	0xbd129ce7	-0.035794165
220	0xbc9a58f4	-0.018841244
221	0x3c0d3725	0.0086191045
222	0x3c38d881	0.011282087
223	0xbc08cf51	-0.008350209
224	0x3d9b65a6	0.07587747
225	0x3d11e918	0.035622686
226	0xbc2fc512	-0.010728138
227	0x3cc8c0e0	0.024506032
228	0xbcf93fd9	-0.030425953
229	0x3d030c5e	0.031994216
230	0x3ccbe875	0.024891118
231	0x3c7ac82f	0.015306517
232	0xbd6d53e2	-0.057941325
233	0x3a57fbac	0.0008239101
234	0x3dbaf9cb	0.091296755
235	0xbd842185	-0.06451706
236	0xbe067cf9	-0.13133611
237	0xbd0e895f	-0.034798976
238	0x3ec399aa	0.38203174
239	0x3d39489e	0.04523527
240	0x3c8dc200	0.01730442
241	0xba2e0fe4	-0.0006639941
242	0xbd1bacc5	-0.038006563
243	0xbd0b2a75	-0.033976037
244	0x3d32e7c7	0.04367807
245	0xbd4a7836	-0.04943105
246	0xbdc78a18	-0.09743136
247	0xbf0beb54	-0.5465596
248	0x3aec6f63	0.0018038567
249	0xbe2d966b	-0.16951911
250	0x3af875fb	0.0018956059
251	0xbcefcfa0	-0.029273808
252	0x3ce74322	0.028230254
253	0x3d02c571	0.031926576
254	0x3b9c0ccc	0.0047622677
255	0xbc1428af	-0.009042903

mlp.4.weight f4 [27, 256]
0	0xbb1c1bf7	-0.002382038
1	0x39e796ef	0.00044172208
2	0xbb06f818	-0.0020594653
3	0x38869c96	6.418784e-05
4	0x3b3de0cf	0.0028973108
5	0x3afe5054	0.0019402602
6	0xbb19fbef	-0.0023496111
7	0xbadd5a7e	-0.0016887931
8	0x3ad98fba	0.001659862
9	0x3badf97c	0.005309282
10	0x3b219aa8	0.0024658833
11	0x3e9a994c	0.3019508
12	0xba612840	-0.00085890666
13	0xbadb910a	-0.0016751599
14	0xbe19ecd1	-0.15031745
15	0xbab11c2c	-0.0013512424
16	0x3d5eded5	0.054411728
17	0x3b3efc42	0.0029142057
18	0xba919137	-0.00111059
19	0x39b5bd3a	0.00034663995
20	0x3b31d35c	0.0027134037
21	0x3ac3ff94	0.0014953488
22	0xb9f752e7	-0.00047173278
23	0x3b6e72b7	0.0036384293
24	0xb908039c	-0.00012971315
25	0x3a76e97c	0.0009418947
26	0x3ac9c762	0.0015394504
27	0xbacd4a06	-0.001566232
28	0xbae149c5	-0.0017188123
29	0x3d8bc7e1	0.06825233
30	0x39399ee2	0.00017702163
31	0xbb81e96f	-0.003964595
32	0x3af071a2	0.0018344412
33	0xb9ba1320	-0.00035490934
34	0x3a146254	0.0005660404
35	0xbb9c5edc	-0.0047720503
36	0x3e17c185	0.14819916
37	0x3a4f873a	0.00079165737
38	0xba52b59c	-0.0008037926
39	0xba8a89b5	-0.0010569604
40	0x3a8b7034	0.0010638298
41	0xba2e4699	-0.0006648093
42	0xba8faed7	-0.001096214
43	0xba081ce8	-0.00051922956
44	0xbe2a84ae	-0.16652176
45	0x3aa7ce2d	0.0012802534
46	0xbd9da64b	-0.076977335
47	0xba4027d6	-0.0007330155
48	0x3b0c9eb0	0.002145689
49	0x3d1100ed	0.035401274
50	0xba1ac543	-0.0005904028
51	0x3a9086fe	0.0011026559
52	0xba93a0e6	-0.0011263161
53	0x3ae57b60	0.0017508082
54	0x3b7fb4ba	0.0039017634
55	0xbb38a565	-0.0028174755
56	0xb9f27108	-0.00046242052
57	0x38842673	6.301412e-05
58	0xb9eda820	-0.00045329425
59	0xbb88b788	-0.0041722693
60	0xb993823f	-0.00028135066
61	0xba38af25	-0.00070451415
62	0xbadb48a6	-0.0016730025
63	0x395ce51e	0.00021066188
64	0x3bb9c5d9	0.005669337
65	0x3ca88f1b	0.02057605
66	0x3e5db7e6	0.21652183
67	0xbb4402fd	-0.0029909008
68	0x3b158a65	0.0022818085
69	0x3da5f4b6	0.081033155
70	0x3aaeb197	0.0013328072
71	0x3a74ba3d	0.0009335613
72	0xbb1be5f6	-0.002378819
73	0x3e520686	0.20510301
74	0xbada6e3e	-0.0016664935
75	0x3aafe73f	0.0013420357
76	0x39797b59	0.00023792441
77	0xbaf340cd	-0.0018558741
78	0x39e24ddd	0.00043164092
79	0xbb0d6a5c	-0.0021578288
80	0x3a35844e	0.0006924317
81	0xbd26ba2f	-0.040704902
82	0xbe343dac	-0.17601651
83	0xba784214	-0.00094702956
84	0xbb159432	-0.0022823927
85	0x391f8706	0.00015213722
86	0x3b3e78e0	0.0029063746
87	0xbaf0eab6	-0.0018380496
88	0xb9834d4b	-0.00025043855
89	0x3b0a3c80	0.002109319
90	0xba6b8c35	-0.0008985431
91	0xb7d80fc6	-2.5756552e-05
92	0x3b15cb35	0.0022856717
93	0x3c157a9b	0.00912347
94	0x3bbb4e44	0.005716117
95	0xbae274ee	-0.0017277279
96	0x392d29a5	0.0001651408
97	0x3aef56a0	0.0018260069
98	0x3e40e832	0.18838575
99	0xbb931611	-0.0044887145
100	0xb9ff02ac	-0.0004863938
101	0xbb075db4	-0.0020655217
102	0xbb668fbc	-0.0035180887
103	0x3afd0060	0.001930248
104	0x3a9ce54a	0.0011970189
105	0x3ea3a69d	0.31963053
106	0x3b48b88c	0.0030627577
107	0xbaa96ec7	-0.0012926691
108	0x3b42b474	0.002970961
109	0xbb3b5735	-0.0028585915
110	0x3c9bfe0c	0.019042037
111	0xbdface8f	-0.12246429
112	0xba823dfa	-0.0009936683
113	0x3b576a26	0.0032869666
114	0x3dd1764b	0.10227641
115	0x3a9281c4	0.0011177589
116	0x3aaf7119	0.0013385146
117	0x3b896b9e	0.004193737
118	0x3a57da76	0.00082341523
119	0xb9ca0dec	-0.00038538815
120	0xbaf2bf11	-0.0018520077
121	0x3b4276c1	0.0029672834
122	0xbba69e23	-0.0050847693
123	0x3b1a68b6	0.0023560948
124	0x3b9d9081	0.004808486
125	0x3f735454	0.9505055
126	0x3a8171f9	0.0009875885
127	0x3b89e23d	0.004207878
128	0x3a5ddee5	0.0008463695
129	0xb90807ea	-0.00012972919
130	0x3a117d12	0.0005549948
131	0xb8a2f89a	-7.7710676e-05
132	0xbadf1812	-0.0017020723
133	0x3b2aee5e	0.002608202
134	0x3bc0f4cd	0.0058885575
135	0xb8fe395c	-0.00012122348
136	0xbb9232e3	-0.0044616326
137	0x3b85a93a	0.0040790113
138	0xb9804528	-0.00024465588
139	0xbb1a14e5	-0.002351099
140	0xba8a2111	-0.0010538419
141	0xb9e8b8a2	-0.0004438805
142	0xb9500fee	-0.0001984236
143	0x3aac5cb0	0.0013150182
144	0x3a9f5b72	0.001215799
145	0x3b30dcb9	0.002698703
146	0xbb311b77	-0.0027024427
147	0xba13cd3b	-0.00056381867
148	0x3c0ae1cc	0.008476686
149	0xba159bf0	-0.00057071354
150	0x3c8218aa	0.015880901
151	0xbdeb6bf7	-0.11495202
152	0xb8921d8c	-6.967326e-05
153	0xbb375969	-0.0027976877
154	0x38d3aaa2	0.00010093047
155	0xb8f93791	-0.00011883595
156	0x3aadd29a	0.0013261617
157	0x3b459355	0.0030147631
158	0xbacccc96	-0.0015624936
159	0xba366844	-0.0006958286
160	0xbb158b49	-0.0022818616
161	0xba86881f	-0.0010263956
162	0x3a589884	0.00082624727
163	0xbb22e924	-0.00248582
164	0x3b857e2d	0.004073879
165	0x3cc3c6e0	0.023898542
166	0xbd1e6d01	-0.038678173
167	0x3b198c12	0.0023429436
168	0x39bdcc8b	0.00036201286
169	0x3a057582	0.00050910574
170	0x3aee3083	0.0018172417
171	0xbb40fc23	-0.002944716
172	0x3dc68530	0.09693372
173	0x3af875a6	0.001895596
174	0x3b0aa0c1	0.0021152946
175	0xbbb0c069	-0.005394031
176	0x3a33e4a1	0.00068623765
177	0xbb9be455	-0.004757444
178	0x3ad367ab	0.0016128918
179	0xb9b81060	-0.00035107415
180	0xbe28c8b3	-0.1648281
181	0xb9871dc8	-0.00025771395
182	0x3b9129b6	0.004430021
183	0x3e8a99d9	0.270705
184	0x3b0ff11c	0.002196378
185	0x3df241ff	0.11828994
186	0xba94f148	-0.0011363411
187	0x3a7543d2	0.00093561143
188	0xbb24a6fc	-0.0025123945
189	0xbe28abf3	-0.16471843
190	0x3a98ad12	0.0011648259
191	0x3b3300af	0.002731364
192	0x39820d9c	0.00024805672
193	0x3b27bf5d	0.002559624
194	0xbe39450f	-0.1809275
195	0xb998fb78	-0.00029179058
196	0xb938e85d	-0.0001763417
197	0xbe484f3a	-0.19561473
198	0xbd013bdb	-0.031551223
199	0xbd44db54	-0.04806073
200	0x3e37e055	0.1795667
201	0xba78ca04	-0.0009490552
202	0x3db893c6	0.090125605
203	0xbbe54533	-0.0069967746
204	0x3adbbc14	0.0016764426
205	0xbb8a3303	-0.004217507
206	0xbb302010	-0.002687458
207	0xbde33b21	-0.11095262
208	0x3a9bf465	0.0011898397
209	0x3ab3c554	0.0013715425
210	0xba4267ea	-0.0007415997
211	0xbd22118b	-0.03956751
212	0xbaec3322	-0.001802061
213	0x386dbc0c	5.6680336e-05
214	0xbb3ff412	-0.0029289764
215	0xbd12d3de	-0.035846584
216	0x3886c750	6.426743e-05
217	0x3b308cf9	0.0026939495
218	0xb9e002b2	-0.00042726618
219	0xbac7ec9e	-0.0015253013
220	0x3b170f39	0.0023049845
221	0xb949c6c1	-0.00019242895
222	0xbb294740	-0.0025829822
223	0x3b68cfe5	0.0035524305
224	0x3cd6a45c	0.02620142
225	0x3ae892d6	0.0017743956
226	0xbb3201a9	-0.0027161634
227	0xba88379b	-0.0010392548
228	0x3dac144d	0.084023096
229	0xb9b8dfe7	-0.00035262035
230	0xbab63167	-0.0013900221
231	0xb9425cee	-0.00018535901
232	0xbd7b1550	-0.061299622
233	0xbb58f8c3	-0.0033107258
234	0x3e3e5b8f	0.18589614
235	0x3d51d8d2	0.051232167
236	0x3e3870e0	0.18011808
237	0x396551d6	0.00021869628
238	0x3e4094c8	0.18806756
239	0xb9fbdae7	-0.00048037546
240	0x3aaf8c69	0.0013393286
241	0x3ac7af27	0.0015234695
242	0xba29eff7	-0.0006482596
243	0xb9ff16b0	-0.00048654294
244	0x3ba87488	0.0051408447
245	0xba14925b	-0.00056675606
246	0x3cef98b9	0.029247629
247	0xbc2accbd	-0.01042479
248	0x3aad7e93	0.0013236575
249	0x3decc79f	0.11561512
250	0xbb04dc3f	-0.0020272878
251	0x3b0789cd	0.00206815
252	0x3ad3c05c	0.001615535
253	0x3841ab36	4.617424e-05
254	0xb8b3d93e	-8.57585e-05
255	0xba7c5eb1	-0.0009627147

mlp.4.bias f4 [27]
0	0x3e935b6d	0.2878069
1	0x3e252846	0.16128644
2	0xbad263b6	-0.0016051445
3	0xbe2cfacc	-0.16892546
4	0xbe94cc5c	-0.29062164
5	0xbdd69ba6	-0.10478906
6	0x3d84d1bd	0.06485317
7	0x3d8a0d88	0.06740862
8	0xbd8bd98f	-0.068286054
9	0x3e141847	0.14462386
10	0x3eb1c870	0.34723234
11	0x3dab76bf	0.083722584
12	0x3cf222e7	0.029557658
13	0xbe181d65	-0.14854963
14	0xbec5a523	-0.38602552
15	0xbe05ff67	-0.1308571
16	0xbd000c89	-0.031261954
17	0xbdd0932c	-0.10184321
18	0xbd8f5ed3	-0.07000508
19	0x3e0dfe5a	0.13866559
20	0xbe056c6b	-0.1302964
21	0xbdd71c9d	-0.105035044
22	0xbdbbbc54	-0.0916678
23	0x3ba0131f	0.004885092
24	0xbc9208af	-0.017826406
25	0x3d08442b	0.033268135
26	0x3c2e4326	0.010636127
