notebooks/training/params/DirectNet_100_256x256x256.pt (torch, 546008 bytes, 8 tensors)

mlp.0.weight f4 [256, 11]
0	0xc00fbc24	-2.2458582
1	0xc0510a43	-3.2662513
2	0xbe2014f7	-0.15632997
3	0xbda91a1b	-0.08256932
4	0x3db9e890	0.09077561
5	0xbcb14e85	-0.021643886
6	0xbe2a640c	-0.16639727
7	0xbd602af9	-0.054728482
8	0xbe11f5c6	-0.14253911
9	0x3e833f8a	0.25634414
10	0xbe3c5300	-0.18391037
11	0xc03c40c4	-2.941453
12	0xc02289e6	-2.5396667
13	0xbeb3af18	-0.35094523
14	0xbe3b17bf	-0.18270777
15	0x3e3f0096	0.18652567
16	0x3e5f7284	0.21821028
17	0xbe43b9df	-0.19113873
18	0x3f0d298b	0.55141515
19	0xbcbfc9b2	-0.023411606
20	0xbe90a50e	-0.28250927
21	0xbe77bb97	-0.24192654
22	0xbf11e4ce	-0.56989753
23	0x408af201	4.3420415
24	0xc0702597	-3.7522943
25	0xbc2eec77	-0.010676495
26	0x3ac41a50	0.0014961455
27	0x3c9e6135	0.019333461
28	0x3cfc2e6c	0.030783854
29	0xbcee2b2f	-0.029073326
30	0xbdb2635c	-0.087103575
31	0x3bf04e03	0.0073335185
32	0x3ce8fd1d	0.028441006
33	0xbf1932d3	-0.59843177
34	0xc0232124	-2.5488977
35	0x40910c03	4.5327163
36	0x3ca8d3d8	0.020608827
37	0x3d0775d1	0.033071343
38	0xba78caec	-0.0009490687
39	0xbca9c10b	-0.020721933
40	0x3c5fd31b	0.013661171
41	0xbc83d35c	-0.016091995
42	0x3c029f54	0.007972557
43	0xbc005802	-0.007833483
44	0x3c639c9d	0.01389232
45	0xbbe115ca	-0.0068690525
46	0xb99e7547	-0.00030223487
47	0x3ade953e	0.0016981733
48	0x3af6b764	0.0018822965
49	0xbb9be333	-0.004757309
50	0x3b862d16	0.00409473
51	0x38c4e827	9.38925e-05
52	0xbba40ea2	-0.005006627
53	0x3b133773	0.002246347
54	0x3aafa20d	0.0013399735
55	0x3fe7d7a5	1.8112684
56	0xbfdc9cf2	-1.7235396
57	0x3f2b317f	0.668724
58	0xb9e3f32c	-0.0004347799
59	0x3b23fc2e	0.0025022137
60	0xbad8d527	-0.0016543017
61	0x39c660ca	0.00037837616
62	0xbb91ce14	-0.0044496153
63	0x3b032223	0.002000936
64	0x3b31025e	0.0027009468
65	0xbb0f7330	-0.0021888725
66	0xc0acb3b2	-5.3969355
67	0x3fade16b	1.3584417
68	0xc014fbab	-2.3278606
69	0x3a0d4339	0.000538874
70	0xbcfd9f9c	-0.030959897
71	0xbc14ab33	-0.00907402
72	0x3b87d75c	0.004145546
73	0xbb5dccc7	-0.003384398
74	0x39b67e00	0.00034807622
75	0xbbf4b4d2	-0.0074678445
76	0xbbdb7f89	-0.006698553
77	0x3f5a6b71	0.8532019
78	0x40650074	3.5781527
79	0xc0431de2	-3.048699
80	0x3e44e230	0.19226909
81	0x3df12ba6	0.117759034
82	0x3db8f04a	0.090302065
83	0x3d88c7b2	0.06678714
84	0x3c4145e1	0.011796446
85	0xbd6140a6	-0.054993294
86	0x3d6dca7f	0.058054443
87	0xbca69497	-0.020334525
88	0x40046694	2.0687609
89	0x406bc9c2	3.6841893
90	0x4057dedc	3.3729773
91	0x3b984572	0.0046469504
92	0x3a3466d2	0.00068817765
93	0xbaebe771	-0.0017998052
94	0xbc40288e	-0.011728419
95	0x3c258571	0.010102616
96	0x3c46c03e	0.012130795
97	0x3c5c7ca2	0.013457449
98	0xbce2abd4	-0.027669825
99	0xbfde22c6	-1.7354362
100	0x3f64b750	0.8934221
101	0x3f6e18a1	0.9300633
102	0x3bbea81b	0.0058183796
103	0xbb753493	-0.003741537
104	0xbc04a90c	-0.008096945
105	0x3b11e8b0	0.0022263937
106	0x3b0239ba	0.0019870833
107	0xbbb95d90	-0.0056569055
108	0xbbf13c57	-0.0073619294
109	0x39e5899d	0.00043780814
110	0x3c071ded	0.008246881
111	0x3b2b4218	0.0026131924
112	0xbaadd6b1	-0.0013262836
113	0x3aa3548e	0.0012461112
114	0xbbb5a4f8	-0.0055433474
115	0x3b66ee17	0.0035237127
116	0xb91113e2	-0.00013835685
117	0x3afd44cb	0.001932287
118	0xba922a9f	-0.0011151618
119	0xb887b700	-6.471388e-05
120	0xba21a4a2	-0.0006166195
121	0xbedf2b99	-0.4358795
122	0xc07575e0	-3.8353195
123	0x3fe2ef32	1.7729247
124	0xbc2f26a3	-0.010690364
125	0xbaae55b4	-0.0013300688
126	0x3c1aa505	0.009438758
127	0x3c4378c7	0.011930651
128	0xbbad8a9b	-0.005296064
129	0x3c4cece8	0.012507655
130	0x3c861db9	0.016371595
131	0xbc4d15ee	-0.0125174355
132	0x4020d745	2.513139
133	0x402fd3b3	2.747296
134	0xc05299df	-3.2906415
135	0xbc15aff9	-0.009136193
136	0x3c191717	0.009343884
137	0x3b4fe3d4	0.003172149
138	0xbc11c60b	-0.008897315
139	0x3c493d72	0.012282716
140	0xbc03ef26	-0.008052623
141	0xbace7754	-0.0015752115
142	0xbbed3492	-0.007238933
143	0xc0424cc5	-3.0359356
144	0x40278a44	2.617814
145	0xc0714e75	-3.7704136
146	0xbd7a3959	-0.061089847
147	0x3d421317	0.047381487
148	0xbdcbb109	-0.09945876
149	0x3c3270de	0.010891167
150	0x3dbcf253	0.09225907
151	0xbcdee7d9	-0.027210163
152	0xbc87451c	-0.016512446
153	0x3b993d74	0.0046765152
154	0xc066019d	-3.5938485
155	0xc07c9a53	-3.9469192
156	0xc05e7dd8	-3.476431
157	0xbdbcbc33	-0.09215584
158	0x3faaa8d9	1.3332778
159	0x3c3f3332	0.011669921
160	0xbd2baa84	-0.041910663
161	0xbce9b487	-0.028528465
162	0xbce0a129	-0.027420597
163	0x3d5491eb	0.05189697
164	0x3d8164f3	0.06318083
165	0x3ade7f71	0.0016975236
166	0xbbe70020	-0.0070495754
167	0x3b5d9802	0.0033812528
168	0x3a32da1e	0.0006822663
169	0x3a2bd350	0.00065546203
170	0xbbe55dac	-0.006999692
171	0x3b8cae9e	0.004293277
172	0xb93c4f46	-0.00017958609
173	0x3b6e1262	0.0036326875
174	0x3b18aa7b	0.0023294974
175	0xbb432341	-0.0029775652
176	0xc0510410	-3.265873
177	0x40821a82	4.065736
178	0xc074ae9e	-3.8231578
179	0x3ccc0b33	0.024907684
180	0xbc477d4a	-0.012175867
181	0x3c9eda04	0.019391067
182	0xbb8f29cb	-0.004368996
183	0x3c598616	0.0132765975
184	0x3af39c51	0.0018586015
185	0x3c40a831	0.01175885
186	0x3baf709c	0.0053540003
187	0xbc07797e	-0.008268712
188	0x3c045d77	0.008078924
189	0xbb931940	-0.004489094
190	0xbaeff454	-0.0018307068
191	0xb8ece6fc	-0.00011296381
192	0x3b679965	0.0035339233
193	0xbbd27076	-0.006422098
194	0xbaa0f06a	-0.001227868
195	0x3a31f4bc	0.00067884824
196	0xbb300d27	-0.0026863308
197	0xba20857e	-0.00061234075
198	0xc04ae90e	-3.1704745
199	0xc0800c6f	-4.001518
200	0x408cf3a1	4.40474
201	0xbc45a4ea	-0.012063244
202	0xbb74622b	-0.0037289958
203	0xbb918672	-0.004441076
204	0x3b2f7d96	0.0026777736
205	0xbd5c6d0c	-0.053814933
206	0x3ca3b74d	0.019984866
207	0x3ad481b8	0.0016212976
208	0x3ab948c0	0.0014136061
209	0x3f8fd245	1.1236044
210	0x406e7ecc	3.726489
211	0x408fd563	4.494798
212	0x3c0ad9ef	0.008474811
213	0xbaa167ce	-0.0012314261
214	0xbc6cbbe4	-0.0144490935
215	0xbc96904e	-0.018379357
216	0xbbf5918f	-0.0074941586
217	0x3c478f6a	0.012180189
218	0xbb0060c7	-0.0019588934
219	0x3b82b335	0.0039886483
220	0xc06bc00d	-3.6835968
221	0x3f56c5ce	0.83895576
222	0xc0196788	-2.396944
223	0x3bfaa220	0.0076487213
224	0x3c066610	0.0082030445
225	0x39c92be9	0.00038370423
226	0xbc8d2c37	-0.017232997
227	0x3cb992c4	0.022652991
228	0x3c57e1c0	0.013176382
229	0x3b521497	0.003205573
230	0x3c525409	0.012837418
231	0x407e8a2f	3.977184
232	0x40120562	2.2815785
233	0xc036540e	-2.8488803
234	0xb98a4f88	-0.00026380667
235	0x3c92cf39	0.017921077
236	0x3b5e35a6	0.0033906489
237	0xbcb942cb	-0.022614857
238	0x3c3a14dd	0.011357513
239	0x3cd23730	0.025661081
240	0x3ac67f43	0.0015144128
241	0xbc26217f	-0.010139822
242	0xc05572ab	-3.3351238
243	0x4010512c	2.2549543
244	0xc084adc1	-4.14621
245	0xbcc0442e	-0.02347001
246	0xbc7c7751	-0.015409307
247	0xbc5c4db7	-0.013446263
248	0xbcc1c456	-0.02365319
249	0x3c89dbf9	0.016828524
250	0xbbefd3c7	-0.007318947
251	0xbbb57650	-0.0055377856
252	0x3be05115	0.006845603
253	0xc0610a80	-3.5162659
254	0x4082fc35	4.093287
255	0x400ad553	2.1692703

mlp.0.bias f4 [256]
0	0x3e9a4157	0.30127975
1	0x3f0c5009	0.54809624
2	0xbdce9927	-0.10087805
3	0x3d8f4866	0.06996231
4	0xb8edbbdc	-0.00011336032
5	0x3bb94b75	0.005654747
6	0xbcfa3fdf	-0.030548034
7	0x3d9ece89	0.07754237
8	0x3d432b8a	0.047648944
9	0x3c2d1910	0.010565057
10	0xbb1d756a	-0.0024026283
11	0x3ca7cb48	0.020482674
12	0xbd2252e2	-0.039629824
13	0x3d6a521a	0.057207204
14	0xbec5e26e	-0.38649315
15	0xbaf0d682	-0.0018374475
16	0xbd6c4f9c	-0.05769311
17	0x39db6478	0.0004184579
18	0x3d8c91c3	0.06863739
19	0x3d8db42b	0.0691913
20	0xbd335535	-0.04378243
21	0xbd458645	-0.048223753
22	0xbd00de90	-0.031462252
23	0x3be743d3	0.007057646
24	0xba95ff01	-0.0011443795
25	0x3d4089b8	0.04700634
26	0xbd28e179	-0.041230652
27	0x3d8a05dd	0.067393996
28	0xbdbfd097	-0.09365957
29	0x3a3b95f4	0.00071558286
30	0x3d589cf2	0.05288405
31	0x3e80eb56	0.25179547
32	0x3a7175be	0.00092109654
33	0xbb5611de	-0.0032664458
34	0x3c89e3e1	0.016832294
35	0xbd06c009	-0.032897983
36	0xbd119c53	-0.035549473
37	0x3d08da1b	0.033411127
38	0x3ad6804c	0.001636514
39	0x3af9fa27	0.0019071744
40	0x3b5c0b79	0.0033576174
41	0xbd90f0c7	-0.07077175
42	0xbf20baef	-0.6278524
43	0x3cce2373	0.025163388
44	0x3def0ff4	0.11672965
45	0x3db28687	0.08717065
46	0xbecaeca9	-0.39633682
47	0x3d960eb0	0.0732702
48	0x3d17416f	0.036927637
49	0xbc8cb65b	-0.017176798
50	0x3d3fc9da	0.04682336
51	0x3ddb6cce	0.10714112
52	0x3dcd07e0	0.10011268
53	0xba32ede4	-0.00068256096
54	0x3ad78a92	0.0016444495
55	0xbda18174	-0.07886019
56	0xbec4a0bf	-0.3840389
57	0x3b091001	0.002091408
58	0x3d4609aa	0.04834906
59	0xbd51d80c	-0.05123143
60	0x399362f6	0.00028111757
61	0xbd212b0d	-0.039347697
62	0xbef04279	-0.46925715
63	0x3c9f8c0b	0.019475957
64	0xbd729146	-0.059220575
65	0xbc8ca295	-0.017167369
66	0x3eeca4ee	0.4621958
67	0x3e741c43	0.23838906
68	0xbe9df37d	-0.3084983
69	0x3d72dbf6	0.059291802
70	0xbd8e232f	-0.069403045
71	0xbcb8c138	-0.022553071
72	0xbcca0343	-0.024659758
73	0xba824edc	-0.0009941715
74	0xbc32af79	-0.010906094
75	0x3942baba	0.00018570843
76	0x3d2f1bb0	0.042751014
77	0x3ca50165	0.020142267
78	0xbee7bd06	-0.452614
79	0xbd9eb2b4	-0.07748929
80	0x3e020df7	0.1270064
81	0x3d1d0cc1	0.03834224
82	0x3d2fe124	0.04293932
83	0x3cf9ea59	0.030507253
84	0xbd3f19a8	-0.046655327
85	0x3ce4802d	0.02789315
86	0xbaf65674	-0.0018794076
87	0x3e74a873	0.23892383
88	0x3d803644	0.0626035
89	0xbe9145a3	-0.2837344
90	0x3efea537	0.49735424
91	0xbd008da4	-0.03138508
92	0x3d3db5cf	0.046315964
93	0x3bf771b1	0.007551395
94	0xbc72a750	-0.014810398
95	0x3de64b54	0.112448364
96	0x3d33c84d	0.043892194
97	0xba5fcd6a	-0.0008537384
98	0x3b444a31	0.0029951448
99	0xbdfbf4c8	-0.12302548
100	0x3d98de8b	0.07464322
101	0xbdcf8f40	-0.10134745
102	0x3ddb8d0e	0.107202634
103	0x39627678	0.00021597173
104	0xbf1f8b3c	-0.6232183
105	0x3b2c3c1f	0.0026280952
106	0xbab17f00	-0.0013541877
107	0xbe48d6cd	-0.1961319
108	0x3f394b10	0.7238016
109	0xbebb4617	-0.36576912
110	0xbd25ce37	-0.040479865
111	0x3ad39a56	0.0016144018
112	0xbf0a5ef6	-0.5405115
113	0x3be030d6	0.006841759
114	0x3c04c90f	0.008104577
115	0x3d9fd8eb	0.07805046
116	0x3dbbc44c	0.091683
117	0x3a8a085e	0.0010531058
118	0xbd9a143c	-0.07523391
119	0xbdb6da0e	-0.089283094
120	0x3df168f7	0.117875986
121	0xbc65388b	-0.013990532
122	0x3d1171bf	0.035508867
123	0x3e385f78	0.18005168
124	0x3dba860d	0.091075994
125	0x3d9a3137	0.07528918
126	0xbd240a54	-0.040048912
127	0x3bb9a7ff	0.0056657786
128	0xbac451bf	-0.0014977976
129	0x3c4ef9c5	0.012632792
130	0x3e5be483	0.21473889
131	0xbdc644b4	-0.09681073
132	0xbe92b710	-0.2865529
133	0x3b72b46a	0.0037033805
134	0x3ebe09be	0.37116808
135	0x3d7f9fea	0.062408365
136	0xbef2509d	-0.47327128
137	0x3cb5fb26	0.022214483
138	0x3a849347	0.0010114693
139	0x3db9f201	0.09079362
140	0x3e1115ca	0.14168468
141	0xbaceb3e5	-0.0015770165
142	0xba373675	-0.0006989011
143	0x3e094d9b	0.1340851
144	0x3900cb56	0.0001228278
145	0x3eb9fe0a	0.3632663
146	0x3b9d0696	0.004792045
147	0xbde06929	-0.10957558
148	0xbe6779cb	-0.22605054
149	0x3e8978d7	0.26850006
150	0xbeb90c7f	-0.36142346
151	0x3d48f043	0.049057256
152	0xbdcb0f4a	-0.099150255
153	0xbefdf84b	-0.49603495
154	0x3d1c1c52	0.038112946
155	0xbdd007c9	-0.10157735
156	0x3d82209e	0.063538775
157	0x3df705e5	0.12061671
158	0x3d7bc262	0.061464675
159	0x39c825e2	0.00038175198
160	0xbee52ecd	-0.4476227
161	0xbcfde345	-0.03099216
162	0xbda8edb7	-0.082484655
163	0xbec7dd16	-0.39035863
164	0xbefadcb0	-0.48996496
165	0xbe9eb1d3	-0.30995044
166	0xba94e995	-0.0011361117
167	0x3a109fd3	0.000551698
168	0xbd39febd	-0.045408953
169	0x3e09d3f6	0.13459763
170	0xbd0fcfda	-0.035110332
171	0x3dc4fd54	0.09618631
172	0xba1fb61a	-0.0006092504
173	0x3d1cf778	0.038321942
174	0x3e33056d	0.17482539
175	0x3efbf03c	0.49206722
176	0xbea5886d	-0.32330647
177	0x399d8145	0.00030041687
178	0xbd374f66	-0.044753455
179	0x3df85e41	0.121273525
180	0x3b6dd354	0.0036289291
181	0x3a5d1634	0.00084337895
182	0xba7aeda5	-0.0009572155
183	0x3dc575f3	0.09641638
184	0xb94ce003	-0.00019538407
185	0xbd1026e4	-0.03519334
186	0xbee29de6	-0.44261092
187	0xbb433508	-0.0029786248
188	0xbc68e2ba	-0.014214212
189	0xbd83693f	-0.064165585
190	0xbc8b543f	-0.017007945
191	0xbd3f9723	-0.046774995
192	0x3e268781	0.16262628
193	0x3c9e5cb1	0.019331308
194	0xbce233e4	-0.027612634
195	0xbd047777	-0.032340493
196	0xbda28192	-0.0793487
197	0x3c5f7b9e	0.0136403125
198	0xbee33c8b	-0.44382128
199	0xbddfacc0	-0.10921621
200	0x3ec39af2	0.3820415
201	0x3d8608c7	0.06544643
202	0x3b024d0c	0.001988235
203	0x3d881c42	0.06646015
204	0xbcf6f0ab	-0.030144056
205	0x3e5a4a7d	0.21317478
206	0x3d2179ff	0.039422985
207	0xbd592f8d	-0.053023864
208	0x3a432168	0.00074436376
209	0x3ef05e04	0.46946728
210	0xbe734c33	-0.23759536
211	0xbd21a6b4	-0.03946562
212	0x3f111aa1	0.5668126
213	0x3f05108f	0.5197839
214	0xbd1d0afb	-0.03834055
215	0xbb377945	-0.0027995866
216	0x3d05754b	0.032582562
217	0xbc9b8255	-0.018983046
218	0xbd0b53e2	-0.034015544
219	0xbd63250c	-0.055455253
220	0x397b3620	0.00023957388
221	0xbee64d2e	-0.44980758
222	0x3e59ac64	0.21257168
223	0xbd405cec	-0.046963617
224	0xbee9f565	-0.45695034
225	0xbd4c795d	-0.04992043
226	0x3adcb6da	0.0016839162
227	0xbd2ffc91	-0.042965475
228	0xbc40870f	-0.0117509505
229	0xbd6c63ac	-0.057712242
230	0x3d71e9d2	0.05906088
231	0xbcc26a14	-0.023732223
232	0xbad104df	-0.0015946886
233	0x3ac500c8	0.001503014
234	0x3c327d5f	0.010894149
235	0x3d292f17	0.041304674
236	0xbdc19d46	-0.09453826
237	0xbcf23f78	-0.02957128
238	0x3a05d844	0.00051057735
239	0xbd37ee93	-0.044905256
240	0x3a86a42c	0.0010272316
241	0xbe3fe128	-0.18738234
242	0x3aa30cdf	0.0012439749
243	0xbc5b57d9	-0.013387644
244	0x3cf157d8	0.029460832
245	0x3c30886d	0.010774714
246	0x3d4d6596	0.050145708
247	0xbd30cfde	-0.043166988
248	0x3d2d4445	0.042301435
249	0xbbb387f4	-0.0054788534
250	0xbcdab3a8	-0.026696995
251	0xbec64f57	-0.38732406
252	0xbe5f3a02	-0.21799472
253	0xbf111f3f	-0.566883
254	0x3d387378	0.045031995
255	0xbd8b4765	-0.06800727

mlp.2.weight f4 [256, 256]
0	0xbd197467	-0.037464526
1	0xbe9082ca	-0.28224784
2	0x3d58d59d	0.052938092
3	0xbd9a1d1f	-0.07525086
4	0x3c643d76	0.013930669
5	0x3d62cde8	0.05537215
6	0x3e8b7d37	0.2724397
7	0xbe554103	-0.20825581
8	0xbcb4472d	-0.022006596
9	0x3d7793bf	0.060443636
10	0x3c688f20	0.01419428
11	0xbc906cfa	-0.01763009
12	0xbd5716de	-0.052512042
13	0xbdc423cd	-0.09577141
14	0x3e860a32	0.26179653
15	0xbb96ba05	-0.004599812
16	0x3e919eca	0.2844146
17	0xbc6fbce1	-0.014632435
18	0x3d8d2584	0.06891921
19	0x3ce010af	0.027351705
20	0x3e0aeb19	0.13566245
21	0x3d8de815	0.06929032
22	0x3d8d70ee	0.06906305
23	0x3eada680	0.33916092
24	0x3c064276	0.008194556
25	0xbeb023bb	-0.3440226
26	0x3eaa8aad	0.33308926
27	0xbda828b7	-0.08210891
28	0x3e1f3e00	0.15550995
29	0xbad35461	-0.0016123169
30	0xbe6894d7	-0.22713028
31	0xbe001d69	-0.12511219
32	0x3c00a550	0.007851914
33	0xb8a65cf4	-7.932811e-05
34	0xbd4a605d	-0.049408305
35	0x3eac9965	0.3371078
36	0xbdd59f36	-0.10430758
37	0x3d5d5269	0.05403367
38	0xbc764c08	-0.015032776
39	0xbba965a7	-0.0051695886
40	0x3bc16b79	0.0059027043
41	0xbe36fd47	-0.17870055
42	0x3f1998e0	0.59998894
43	0xbd586bf5	-0.05283733
44	0x3dbf9e3a	0.09356351
45	0x3e12d91f	0.14340638
46	0x3e9b20d3	0.3029848
47	0x3e2f7157	0.1713308
48	0x3bc63381	0.00604862
49	0xbd9b6947	-0.075884394
50	0xbe4562ac	-0.19275922
51	0x3e7b9298	0.2456764
52	0xbcab6b93	-0.020925319
53	0x3c332320	0.010933667
54	0x3b34da3d	0.00275959
55	0x3d8ec699	0.06971473
56	0xbc772abe	-0.015085874
57	0x3c3b7110	0.01144053
58	0x3eb24ea1	0.34825614
59	0xbe187ede	-0.14892146
60	0xba4ad29c	-0.0007737072
61	0x3d870eb7	0.065946035
62	0x3f183fae	0.5947217
63	0x3d1ab049	0.037765775
64	0xbd9b83d9	-0.07593507
65	0xbd63cc32	-0.055614658
66	0x3cbf2723	0.023334092
67	0xbc0ddb06	-0.008658176
68	0x3f82815e	1.019573
69	0xbdf90aa7	-0.12160235
70	0x3d91d83e	0.07121323
71	0xbdce3821	-0.100692995
72	0x3e1a9f46	0.1509982
73	0x3b480019	0.0030517636
74	0x3dbfc386	0.09363465
75	0x3c45b197	0.0120662665
76	0x3d7e8dea	0.06214706
77	0xbd40fdeb	-0.047117155
78	0x3ec02633	0.37529144
79	0xbba32491	-0.0049787243
80	0xbd925137	-0.07144397
81	0x3d161a4c	0.036646172
82	0xbe919d16	-0.2844016
83	0xbde2bdf9	-0.11071391
84	0x3daef791	0.08543313
85	0x3e20c82e	0.15701362
86	0x3c0ca327	0.00858382
87	0xbea8dcaa	-0.32980853
88	0xbf1d3196	-0.6140379
89	0x3e68b719	0.22726096
90	0xbefdf512	-0.49601036
91	0x3c75b829	0.0149975205
92	0xbe7d7f2f	-0.24755548
93	0xbc4d9ebb	-0.012550051
94	0x3db513cc	0.088416666
95	0xbf2d0296	-0.6758207
96	0x3c6b7cda	0.014373029
97	0x3c1fba56	0.009749016
98	0xbbe617c0	-0.007021874
99	0x3f1b23d6	0.60601556
100	0x3d1d47b1	0.03839845
101	0x3dcb6bee	0.09932695
102	0xbc69e645	-0.014276092
103	0xbba25d84	-0.0049549956
104	0x3e7eead5	0.24894269
105	0xbbe55b1a	-0.0069993855
106	0xbd1290b2	-0.035782523
107	0x3c9c6deb	0.019095382
108	0xbe25bc37	-0.1618508
109	0x3dbaec05	0.091270484
110	0x3ca6303b	0.02028667
111	0xbc593eb1	-0.013259576
112	0x3e85f237	0.26161358
113	0x3da028f6	0.07820313
114	0x3c6be5c3	0.014398041
115	0x3d6737bd	0.05644964
116	0x3e150971	0.14554383
117	0x3c8bd39b	0.017068675
118	0x3da18dda	0.07888384
119	0xbd0cd3c0	-0.034381628
120	0xbd9d7d6d	-0.07689939
121	0x3bcd8760	0.0062722415
122	0xbcd589eb	-0.026066741
123	0xbd25f664	-0.04051818
124	0x3d6e42d6	0.05816921
125	0xbe74302a	-0.23846498
126	0x3d414caa	0.047192253
127	0xbc3dc26c	-0.011581998
128	0xbb7c4025	-0.0038490382
129	0x3dc39141	0.09549189
130	0x3dd3f3cd	0.10349236
131	0x3c1d4f1e	0.009601383
132	0xbce4d9ef	-0.02793595
133	0xbdb5a481	-0.08869267
134	0x3d2291d7	0.039689865
135	0xbe89ee9f	-0.26939866
136	0x3ede530e	0.4342274
137	0xbc860264	-0.016358562
138	0x3b93454b	0.0044943443
139	0xbda55cbe	-0.0807433
140	0xbdd44a50	-0.103657365
141	0xbc1edc03	-0.00969601
142	0x3b1e3cd0	0.0024145134
143	0x3dd2447a	0.10266967
144	0xbb4bf870	-0.0031123422
145	0xbd82209c	-0.06353876
146	0x3cdd5308	0.027017131
147	0x3e454e49	0.19268145
148	0x3f46c0fb	0.77638215
149	0x3d42564e	0.047445588
150	0x3e43bb5e	0.19114444
151	0x3d0bfafc	0.034174904
152	0x3ddefe71	0.108883746
153	0x3d03a7b5	0.03214236
154	0x3dd14c3f	0.10219621
155	0xbcc5469d	-0.024081523
156	0xbd91e43a	-0.07123609
157	0xbdd0a494	-0.10187641
158	0xbf13e8b6	-0.57776964
159	0x3bfa8c2f	0.0076461057
160	0x3e97aa93	0.29622325
161	0x3e04bbad	0.12962218
162	0x3e8b1ab0	0.27168798
163	0x3ed899a2	0.42304713
164	0x3e0af608	0.13570416
165	0x3e6677f9	0.22506703
166	0x3b23dc53	0.002500315
167	0xbb29b931	-0.0025897736
168	0x3ec586a8	0.38579297
169	0x3d8ef03d	0.069794156
170	0x3d204aa5	0.039133687
171	0x3d928f13	0.071561955
172	0xbbd0398a	-0.0063545154
173	0x3d64a18d	0.05581813
174	0xbe3a5b5a	-0.1819891
175	0x3cbd92e0	0.023141325
176	0x3e61db2b	0.22056262
177	0x3c97edfd	0.018546099
178	0xbb115dbc	-0.0022181114
179	0x3e49c8bb	0.19705479
180	0x3c416858	0.011804663
181	0xbd857469	-0.06516344
182	0x3b86ceec	0.0041140225
183	0x3d3c3886	0.045952342
184	0xbc2cbb63	-0.010542723
185	0x3e104a93	0.14090948
186	0x3d53d771	0.051719133
187	0x3c5e87d7	0.013582191
188	0xbd960444	-0.07325032
189	0x3e6f3c7b	0.23362915
190	0xbbcc361b	-0.006232036
191	0xbc6e7d09	-0.014556178
192	0xbd7435d8	-0.059621662
193	0xbdc14e65	-0.09438781
194	0x3dadd81d	0.08488486
195	0x3e6346de	0.22195002
196	0xbd8d20ad	-0.06890998
197	0x3e14f4fd	0.1454658
198	0x3ef86337	0.48513195
199	0x3e030ddb	0.12798254
200	0xbdd8c475	-0.10584346
201	0xbe0d4323	-0.13795142
202	0x3c1fa855	0.009744723
203	0xbe0b60ce	-0.13611147
204	0xbd82bee2	-0.06384064
205	0x3cc6fdc8	0.024290934
206	0xbd749403	-0.059711467
207	0xbe628e03	-0.22124486
208	0xbc945db6	-0.018111091
209	0xbe13522c	-0.14386815
210	0xbd72e47a	-0.059299923
211	0x3d35e212	0.04440505
212	0xbdfe337a	-0.12412162
213	0xbcc0bd7e	-0.023527857
214	0xbdd55fd1	-0.10418666
215	0xbc54f6c3	-0.012998286
216	0xbd2be749	-0.041968618
217	0xbd2f3b2b	-0.042781036
218	0xbc62cc5d	-0.013842669
219	0x3d24b87b	0.040214997
220	0xbc33c597	-0.010972402
221	0x3db9ae93	0.090665005
222	0xbc9852b3	-0.018594122
223	0xbd68d3e2	-0.056842692
224	0x3e6c7c2d	0.23094244
225	0xbdcc3343	-0.09970715
226	0x3c9bbaef	0.019010035
227	0x3db369e0	0.087604284
228	0x3c1ce8cb	0.009576987
229	0xbe2510ab	-0.1611964
230	0xbeaa5e6e	-0.3327517
231	0x3d8962fd	0.06708334
232	0x3ae9ba1a	0.0017831952
233	0x3bac26ce	0.0052536493
234	0xbc981d39	-0.018568622
235	0xbe36f12a	-0.17865434
236	0xbdfbfa96	-0.12303655
237	0x3e79286a	0.24331823
238	0x3c4343d0	0.011918023
239	0x3dbfdedd	0.0936868
240	0x39121e67	0.00013934971
241	0xbc827281	-0.01592374
242	0xbbdbd93c	-0.006709246
243	0x3d3a1000	0.045425415
244	0xbdad9998	-0.08476561
245	0xbc0e33cc	-0.0086793415
246	0x3d31b458	0.04338488
247	0xbe10d161	-0.14142372
248	0xbe0dc3ce	-0.13844225
249	0xbc73ab38	-0.014872365
250	0x3e23dd8d	0.16002484
251	0x3da6dd8b	0.08147725
252	0xbe826822	-0.25470072
253	0x3e1d0e4b	0.15337484
254	0x3dbfbb91	0.09361947
255	0x3d1b4500	0.0379076

mlp.2.bias f4 [256]
0	0xbe3b211d	-0.1827435
1	0x3e58cfed	0.21173067
2	0xbe5bd097	-0.2146629
3	0x3e966e97	0.29381248
4	0x3b9932aa	0.004675229
5	0x3e1780fe	0.147953
6	0xbb6744e1	-0.0035288858
7	0x3e3caa65	0.18424375
8	0xbc2c364d	-0.010510993
9	0x3c14218b	0.0090412
10	0xbe34648a	-0.17616478
11	0x3d653a3d	0.055963743
12	0xbc5fab44	-0.013651673
13	0x3ea4d1bc	0.32191265
14	0xbc96f5e4	-0.018427797
15	0xbeb093bb	-0.3448771
16	0xbe9b444e	-0.3032555
17	0xbb76099f	-0.0037542356
18	0xbc06085e	-0.008180706
19	0xbe21f170	-0.15814757
20	0x3c15f65b	0.009152974
21	0x3dce53c6	0.10074572
22	0xbe8dd3db	-0.27700695
23	0x3ceb9592	0.028757844
24	0x3e9b2a15	0.30305544
25	0xbe858e4b	-0.26085123
26	0x3d84cfa7	0.06484919
27	0x3e1b1b63	0.15147166
28	0xbd99f442	-0.075172916
29	0xbdfd8ad3	-0.12379994
30	0xbe4d8e4f	-0.20073818
31	0x3e32af05	0.17449577
32	0xbcae2584	-0.021258123
33	0xbbe3f3c1	-0.006956548
34	0x3e22b582	0.15889552
35	0xbeb56dda	-0.35435373
36	0xbe56f40e	-0.20991537
37	0xbcb80947	-0.022465361
38	0x3d9c6469	0.07636339
39	0x3da2113c	0.079134434
40	0x3e55e8ab	0.20889537
41	0xbbdead37	-0.006795551
42	0x3e0015cb	0.12508313
43	0xbe8eb165	-0.27869716
44	0x3c5cf8a8	0.013487019
45	0xbd445d94	-0.047940806
46	0xbcf3039f	-0.029664813
47	0xbd4708ce	-0.04859238
48	0xbcf6df05	-0.03013564
49	0xbe3edb53	-0.18638353
50	0x3d71112c	0.058854267
51	0x3eabf070	0.33581877
52	0x3c549d77	0.012976996
53	0xbcdd2b12	-0.026998077
54	0xbe21b3ec	-0.15791291
55	0xbed89746	-0.42302912
56	0x3d9d80c7	0.07690578
57	0xbeaaee45	-0.3338491
58	0x3dc88f0a	0.097929075
59	0xbc91b887	-0.017788185
60	0xbdecf11e	-0.11569427
61	0xbc623358	-0.013806187
62	0xbe46b3de	-0.19404551
63	0xbcb2613e	-0.021774884
64	0x3ce5f977	0.028073056
65	0xbdcbe451	-0.09955657
66	0xbb9c5549	-0.004770909
67	0x3d8804c4	0.06641534
68	0xbe402d7b	-0.1876735
69	0xbe7ffd21	-0.24998905
70	0x3c98a35b	0.018632581
71	0x3e1edbab	0.15513484
72	0xbe57e3ce	-0.21082994
73	0x3e419870	0.18905807
74	0x3c83b24f	0.016076235
75	0x3e75d6fd	0.24007793
76	0xbd0db76a	-0.034598745
77	0x3c940a0b	0.018071195
78	0xbe52398d	-0.20529766
79	0x3d113b8e	0.035457186
80	0xbdab79d6	-0.08372848
81	0x3d07b284	0.03312923
82	0xbdc37977	-0.09544652
83	0x3e669837	0.22519003
84	0xbe85e46c	-0.26150835
85	0x3e125ec0	0.14293957
86	0xbd79de3a	-0.061002947
87	0xbc935d61	-0.017988862
88	0x3e20190f	0.15634559
89	0x3d7b58d9	0.06136403
90	0x3ea7c592	0.32767922
91	0xbded9869	-0.116013356
92	0xbe193372	-0.14961031
93	0x3e89f60c	0.2694553
94	0x3e4f71a1	0.2025819
95	0x3ce4652a	0.02788027
96	0xbdd7a155	-0.105288185
97	0x3d854269	0.06506807
98	0x3e90805d	0.28222933
99	0xbeb533c0	-0.35391045
100	0xbe87faab	-0.26558432
101	0x3cd28a04	0.025700577
102	0xbdd3ebb3	-0.103476904
103	0xbe4abc39	-0.19798364
104	0x3e968772	0.29400212
105	0xbdc24dd5	-0.094875015
106	0xbe36119e	-0.17780158
107	0xbc507176	-0.012722364
108	0xbe5939e5	-0.21213491
109	0x3d33c9d0	0.043893635
110	0x3a9f6c51	0.0012163018
111	0x3e8e7361	0.27822402
112	0x3d28a65e	0.041174285
113	0x3e82178f	0.254086
114	0x3dfbe7e7	0.12300091
115	0xbc8f8694	-0.017520227
116	0xbccdfb5b	-0.02514427
117	0xbd0673ba	-0.03282521
118	0xbe12f05e	-0.14349505
119	0xbd1207c4	-0.035651937
120	0xbc1f3804	-0.009717945
121	0xbdabaaa9	-0.0838216
122	0xbe289087	-0.16461383
123	0x3d32ffcd	0.043700982
124	0x3e62fd13	0.22166853
125	0xbd001fd4	-0.031280354
126	0x3ecf7973	0.40522346
127	0xbdc5a886	-0.09651284
128	0xbe009ce2	-0.12559846
129	0xbdf32b16	-0.11873452
130	0xbcfa52f5	-0.030557135
131	0xbdb8c477	-0.09021848
132	0x3d267232	0.04063625
133	0x3da05b57	0.07829922
134	0x3d551ee3	0.05203141
135	0xbdbfff19	-0.09374828
136	0x3e151acd	0.14561005
137	0x3e388f1c	0.18023342
138	0xbe86580f	-0.26239058
139	0xbd760f94	-0.06007345
140	0x3d243736	0.040091716
141	0x3f50d35a	0.81572497
142	0xbe6dca67	-0.23221742
143	0xbe15e5bd	-0.1463842
144	0xbe3b5f9a	-0.18298188
145	0x3dcf52b5	0.10123197
146	0xbe6708ff	-0.22562025
147	0x3e37961f	0.1792836
148	0x3e94a61e	0.29032987
149	0xbe167053	-0.14691286
150	0xbd98d54a	-0.07462557
151	0x3d2bc16c	0.04193251
152	0x3daedb8b	0.08537968
153	0xbe07ffa4	-0.13281113
154	0x3da3da14	0.080005795
155	0xbdc6fc3d	-0.097160794
156	0x3bf2e622	0.007412688
157	0x3da5ad38	0.080896795
158	0xbe148170	-0.14502501
159	0x3d87575f	0.066084616
160	0xbd5621f0	-0.05227846
161	0xbd102e2b	-0.03520028
162	0xbe68a1ab	-0.22717921
163	0xbd147081	-0.036240105
164	0xbc8a0025	-0.016845772
165	0x3d10d92a	0.035363354
166	0xbdb16b71	-0.08663071
167	0x3daf84c5	0.08570246
168	0x3ddf0ba7	0.108908944
169	0xbe43d3a4	-0.19123703
170	0xbe0e8127	-0.13916455
171	0xbe3c4668	-0.18386233
172	0xbe93a49c	-0.28836524
173	0x3d5e2580	0.05423498
174	0x3c813746	0.015773427
175	0x3a502d31	0.00079413044
176	0xbd4bfbb6	-0.049800597
177	0x3e82ef28	0.25573087
178	0xbdd6c575	-0.10486881
179	0xbc6c514e	-0.014423681
180	0xbdce294c	-0.100664705
181	0x3d41d957	0.047326412
182	0xbe6c658d	-0.23085614
183	0x3e7b6c7d	0.24553104
184	0x3d180321	0.03711236
185	0x3aa3b413	0.0012489579
186	0xbe995206	-0.2994539
187	0xbe5e27e2	-0.21694902
188	0xbcc72546	-0.024309766
189	0x3de56408	0.1120072
190	0xbdf83a66	-0.121205136
191	0x3d30f7d8	0.043205112
192	0xbe232d1d	-0.15935178
193	0x3e2868f6	0.1644629
194	0x3c242765	0.010019158
195	0xbb70b949	-0.0036731532
196	0x3e649efd	0.22326274
197	0xbe36ef84	-0.17864805
198	0x3beb6438	0.007183578
199	0xbd2af434	-0.041736796
200	0x3ca7e4e4	0.020494886
201	0x3d8b1528	0.067911446
202	0x3e86f8d9	0.2636173
203	0xbe1774f7	-0.14790712
204	0xbe83dce5	-0.25754467
205	0x3cbfddba	0.023421157
206	0xbc908b32	-0.017644498
207	0xbe013d8f	-0.12621139
208	0x3e0aa8d1	0.13540961
209	0xbd23bc5b	-0.03997455
210	0xbebd6564	-0.36991417
211	0xbd28a561	-0.041173343
212	0xbe15bc4b	-0.1462261
213	0x3e0c62d1	0.1370957
214	0xbd84e03c	-0.06488082
215	0x3e0f3f2b	0.1398894
216	0xbe6b7924	-0.2299543
217	0x3e0f20ce	0.13977358
218	0x3e2c8e93	0.16851263
219	0xbe025995	-0.12729485
220	0xbe727a05	-0.2367936
221	0x3d219d2d	0.039456535
222	0xbcfc3c9b	-0.030790618
223	0xbe81ebd8	-0.25375247
224	0x3e14e0c8	0.14538872
225	0x3b44adc1	0.0030010792
226	0x3d53890e	0.051644377
227	0x3d44fceb	0.048092764
228	0x3e1cc8c8	0.15310967
229	0x3b10d27a	0.002209811
230	0xbe31b3b0	-0.17353702
231	0xbe8c0ec5	-0.27355018
232	0xbe81832e	-0.25295395
233	0xbbfbf840	-0.007689506
234	0xbcd0efe3	-0.025505012
235	0xbe278305	-0.16358574
236	0xbc380150	-0.011230782
237	0x3d4b5027	0.049636986
238	0xbe43c1c2	-0.19116881
239	0x3caa2897	0.020771308
240	0xbcbc556d	-0.022989953
241	0x3e85227c	0.26002872
242	0xbd6f9b2c	-0.058497593
243	0x3e4863f7	0.19569384
244	0x3e125541	0.14290334
245	0xbd68b44f	-0.05681258
246	0xbd0b6022	-0.034027226
247	0xbdf993fa	-0.121864274
248	0x3e197a4c	0.14988059
249	0x3d64fa05	0.0559025
250	0x3d8648c3	0.06556847
251	0xbe3f849d	-0.18702932
252	0x3bdcf07a	0.006742534
253	0x3d2892db	0.041155677
254	0xbe2da57d	-0.1695766
255	0xbda49227	-0.08035689

mlp.4.weight f4 [256, 256]
0	0xbd02aea1	-0.03190482
1	0x3cb0d1dc	0.021584444
2	0xbe21fc22	-0.15818837
3	0xbd122a31	-0.035684768
4	0xbe27aa54	-0.16373569
5	0x3e80d4a1	0.25162223
6	0xbc130358	-0.008972965
7	0xbdc065f3	-0.09394445
8	0xbc2fb587	-0.010724432
9	0xbe2c3a07	-0.1681901
10	0xbe2f006a	-0.17090002
11	0x3e824c47	0.2544882
12	0x3ba6e0e2	0.005092726
13	0x3e6dc8cb	0.23221128
14	0xbb8a4da5	-0.0042206817
15	0x3c29280c	0.010324489
16	0xbe0450c5	-0.12921436
17	0xba802ab1	-0.0009778348
18	0xbb2942d6	-0.002582719
19	0xbd283ed6	-0.04107555
20	0xbb617723	-0.0034403286
21	0x3e44e68a	0.19228569
22	0x3cdbe1e7	0.026841117
23	0x3b9d3b5a	0.004798335
24	0xbd926920	-0.07148957
25	0x3e03e370	0.1287973
26	0xbe45ee6e	-0.19329235
27	0xbe9257ef	-0.28582713
28	0xbd6996c9	-0.057028566
29	0x3de19ccb	0.11016234
30	0x3e380ed9	0.17974414
31	0xbe58bd6c	-0.21166009
32	0x3df5dede	0.12005399
33	0xbdd1e971	-0.102496035
34	0x3d8a3cd7	0.067498855
35	0xbe1d333a	-0.15351573
36	0xbbcdd068	-0.0062809475
37	0xbcd5ebbe	-0.026113387
38	0xbd9273a2	-0.071509615
39	0x3de75066	0.11294632
40	0x3e05b6d3	0.13058023
41	0xbe33d1bc	-0.17560476
42	0xbd2af0e3	-0.041733634
43	0xbe5b7c68	-0.21434176
44	0xbca05569	-0.019571977
45	0xbb158adf	-0.002281837
46	0x3ca7c4d0	0.02047959
47	0x3dea6eb8	0.11446899
48	0xbc0754ce	-0.008259965
49	0x3e9b207f	0.3029823
50	0xbdefcebe	-0.11709355
51	0x3dcfc460	0.101448774
52	0x3b8fb546	0.004385623
53	0x3b3ceeec	0.0028828932
54	0xbdd72d55	-0.10506693
55	0x3db8db0d	0.090261556
56	0x3e75f7b7	0.24020277
57	0xbd925c06	-0.07146458
58	0xbdd95b83	-0.106131576
59	0x3ba1dfab	0.0049399934
60	0xbea7f56f	-0.32804438
61	0x39882955	0.00025970736
62	0xbe7e13b3	-0.24812202
63	0x3ba851d9	0.00513671
64	0xbe0595ad	-0.13045378
65	0xbdf0aa16	-0.11751191
66	0xbc86252a	-0.016375143
67	0x3be8460f	0.0070884298
68	0x3e40f534	0.18843538
69	0xbe43a2b2	-0.19105032
70	0x3c5be9ed	0.0134224715
71	0x3e6b2f62	0.22967294
72	0xbe2d4354	-0.16920215
73	0x3c4693f2	0.012120234
74	0xbd62d746	-0.055381082
75	0xbd870278	-0.06592268
76	0xba2992aa	-0.0006468693
77	0x3adcdf70	0.0016851258
78	0xbd88e20d	-0.06683741
79	0xbbed55db	-0.007242901
80	0xbe7d834e	-0.2475712
81	0x3ece7bd6	0.40328854
82	0xbde8a765	-0.11360053
83	0x3d245f50	0.04012996
84	0xbd54c731	-0.051947776
85	0xbd121973	-0.0356688
86	0x3e10951b	0.14119379
87	0xbb22c0fb	-0.0024834264
88	0xbda6ddc6	-0.08147769
89	0x3da572a3	0.08078506
90	0xbd86fd60	-0.06591296
91	0xbd95f792	-0.07322611
92	0x3e305823	0.17221121
93	0x3e1712cd	0.14753266
94	0x3c4bb6e5	0.012433742
95	0x3791c0d8	1.7375147e-05
96	0xbcc91314	-0.02454523
97	0xbd8048f1	-0.062639125
98	0x3d5ad170	0.05342239
99	0xbe7460c9	-0.23865046
100	0x3e40087b	0.18753235
101	0x3d4a9f09	0.049468074
102	0x3df6f8a7	0.120591454
103	0x3e1cbcad	0.15306349
104	0xbe496fa0	-0.19671488
105	0xbbf7aac7	-0.0075582
106	0xbde657b7	-0.11247199
107	0xbc2738e0	-0.010206431
108	0xbac77a14	-0.0015218877
109	0xb9b4a060	-0.00034451764
110	0xbc51ec7a	-0.012812728
111	0x3e6ad2e7	0.22932015
112	0xbb881173	-0.0041524707
113	0x3e0fe4ed	0.14052172
114	0x3e862520	0.262002
115	0xba9199e4	-0.0011108485
116	0xbb69b867	-0.003566289
117	0x3c0a0da8	0.0084261075
118	0x3e55979e	0.20858619
119	0x3e28f54f	0.16499828
120	0xbb995f8e	-0.0046805805
121	0x3befc2c4	0.007316919
122	0xbcf16bb6	-0.029470306
123	0x3e4cc792	0.19998005
124	0x3dcbc77d	0.09950159
125	0x3b54e4cc	0.0032485006
126	0x3d3cf024	0.046127453
127	0x3e6b01ae	0.2294986
128	0x3e117d5e	0.1420798
129	0x3dcf9d3f	0.10137414
130	0xbc1b42de	-0.009476392
131	0xbde60b40	-0.112326145
132	0x3c753f67	0.01496873
133	0x3da220f0	0.079164386
134	0x3e2f055d	0.1709189
135	0x3e256689	0.16152395
136	0xbd8fa021	-0.07012964
137	0x3e8679c6	0.2626478
138	0xbea6249f	-0.32449815
139	0xbc6c0c84	-0.014407281
140	0xbb5e2364	-0.0033895606
141	0x3e035998	0.12827146
142	0x3d99acd7	0.0750367
143	0x3dd70d29	0.10500557
144	0x3db829c2	0.0899234
145	0x3e49e348	0.19715607
146	0x3d62974d	0.055320073
147	0xbdfdf6c8	-0.124005854
148	0x3e4c5805	0.19955452
149	0xbe63953e	-0.222249
150	0x3cde3cb5	0.027128557
151	0x3d772292	0.060335703
152	0xbd13d349	-0.03609017
153	0x3e873df9	0.2641447
154	0x3d39e694	0.045385912
155	0x3d8a91bc	0.06766078
156	0x3d807f7e	0.06274317
157	0x3e18e2c5	0.14930256
158	0xbe218409	-0.15773024
159	0x3e2e0941	0.16995718
160	0xbe83d815	-0.25750795
161	0xbc54efac	-0.012996595
162	0xbed7e3e1	-0.42166045
163	0x3e9227fd	0.28546134
164	0xba9cdece	-0.0011968256
165	0xbaa4cfd0	-0.001257414
166	0x3dc691b6	0.09695761
167	0xbdf2e8aa	-0.118607834
168	0x3e685832	0.22689894
169	0x3df09055	0.11746279
170	0xbdf2da06	-0.11857991
171	0xbcb5254b	-0.02211251
172	0xbad5d302	-0.0016313496
173	0x3d655628	0.055990368
174	0x3c2d8020	0.010589629
175	0xbc114463	-0.008866402
176	0xbe074205	-0.13208778
177	0x3dfb4125	0.12268285
178	0xbe9ef002	-0.31042486
179	0xbe86b401	-0.26309207
180	0xbe09beb7	-0.13451658
181	0x3ab27368	0.0013614716
182	0xbdd34c39	-0.10317273
183	0x3dc94ae0	0.098287344
184	0x3d8c38b8	0.06846756
185	0x3c148d05	0.009066825
186	0xbdf38d1a	-0.11892147
187	0xbe16b6b9	-0.1471814
188	0x3dfa592b	0.12224039
189	0x3de45542	0.11149074
190	0xbe18a9d1	-0.1490853
191	0x3e400af4	0.18754178
192	0xbd8425a2	-0.064524904
193	0x3e3ffde4	0.18749195
194	0xba95dc97	-0.0011433539
195	0x3b0c5cf4	0.002141771
196	0x3ed3e716	0.41387242
197	0xbcb46636	-0.022021394
198	0xbaa16cf6	-0.0012315798
199	0xbdbee1cc	-0.09320411
200	0xbb5b196c	-0.00334319
201	0xbd9ff4ad	-0.0781034
202	0xbe334acd	-0.17509003
203	0xbd63fe2d	-0.055662323
204	0xbcca3e05	-0.024687776
205	0x3b8ffa86	0.0043938784
206	0x3bc5f18d	0.006040758
207	0xbe1cc65c	-0.15310043
208	0xbe77058d	-0.24123211
209	0xbb1cf6fb	-0.0023950923
210	0xbe455652	-0.1927121
211	0x3b197914	0.0023418115
212	0xbec2b731	-0.3803039
213	0x3a9fd491	0.0012194087
214	0xbcc4c89b	-0.024021437
215	0x3d94c42e	0.07263981
216	0x3dd36728	0.1032241
217	0x3df4bf39	0.11950535
218	0x3e85b62c	0.2611555
219	0xbbfaa09c	-0.0076485407
220	0x3e5eba95	0.21750863
221	0xba0a521f	-0.0005276519
222	0x3b83f735	0.004027272
223	0xbe585d47	-0.21129332
224	0xbd5d16ec	-0.053976938
225	0xbb26d65e	-0.0025457363
226	0x3b7de5d7	0.0038741732
227	0x3be98caf	0.0071273665
228	0xbe166d20	-0.14690065
229	0x3c42e122	0.011894496
230	0x3da1448c	0.078744024
231	0xbe247258	-0.16059244
232	0xbcd681bc	-0.026184909
233	0xbd32d023	-0.043655526
234	0x3d88c96c	0.06679043
235	0xbc905a62	-0.017621223
236	0xbb7379cf	-0.003715146
237	0xba1391c5	-0.00056293263
238	0xbc204dbf	-0.009784161
239	0xbb2f08ee	-0.0026708203
240	0xbbc1ea20	-0.0059178025
241	0x3ccbbfcd	0.024871731
242	0x3c8ce375	0.017198304
243	0x3e36f564	0.17867047
244	0x3e633e7f	0.22191809
245	0xbc11985b	-0.008886422
246	0x3bff6068	0.007793475
247	0xbdd2721b	-0.1027567
248	0x3e016f72	0.1264017
249	0xbcf35e15	-0.029707948
250	0x3e2266bd	0.15859504
251	0xbd419a6e	-0.047266416
252	0x3bdffa35	0.006835247
253	0xbb9c7867	-0.0047750953
254	0xbc87dcf0	-0.016584843
255	0xbe14615a	-0.14490262

mlp.4.bias f4 [256]
0	0x3e307d32	0.17235258
1	0x3b17b6f7	0.0023149827
2	0x3cca0f83	0.0246656
3	0x3de1e75b	0.11030456
4	0x3e63b5d5	0.22237332
5	0xbda78439	-0.08179516
6	0x3d319593	0.043355536
7	0xbcc041f6	-0.023468953
8	0x3db17824	0.08665493
9	0xbd660a46	-0.05616214
10	0x3e2ef5ee	0.17086002
11	0x3bd891da	0.0066091837
12	0xbdaf7927	-0.0856803
13	0xbd0346b8	-0.032049865
14	0x3e2a0339	0.16602792
15	0x3c88514a	0.016640324
16	0x3e487555	0.19576009
17	0xbdb8d7d1	-0.09025539
18	0xbdb61ecf	-0.08892595
19	0x3d582ca4	0.052776948
20	0xbd5bd619	-0.053670976
21	0xbda6d548	-0.08146149
22	0xbdfdcc3e	-0.12392472
23	0x3e1c52a9	0.15265907
24	0xbd89a6e6	-0.067212865
25	0x3e492a3b	0.19645016
26	0x3d34f50d	0.04417901
27	0x3d599ae2	0.053126223
28	0xbd604041	-0.054748777
29	0x3e1773aa	0.14790216
30	0xbd34f12e	-0.04417532
31	0x3c440c37	0.011965803
32	0xbde42536	-0.1113991
33	0x3e3fea83	0.18741803
34	0x3e0621c3	0.13098817
35	0xbdc48614	-0.09595886
36	0x3ddd2a77	0.10799115
37	0x3e2356bc	0.15951055
38	0xbdb567b9	-0.08857674
39	0x3e381423	0.17976432
40	0x3de00bb5	0.10939733
41	0x3d2a7af1	0.041621152
42	0xbe028384	-0.12745482
43	0xbdd639a6	-0.10460214
44	0xbd2ecdaa	-0.042676605
45	0xbd0375ff	-0.03209495
46	0x3dfb7113	0.122774266
47	0xbb69415a	-0.003559193
48	0xbe79908d	-0.24371548
49	0x3e52879c	0.20559543
50	0xbe04b5bc	-0.12959951
51	0xbd3b6f40	-0.045760393
52	0x3e3cb28f	0.1842749
53	0xbdbb722c	-0.09152636
54	0x3d440d03	0.04786397
55	0x3e026bf8	0.127365
56	0x3e066e07	0.1312791
57	0xbd252dba	-0.04032681
58	0x3e4406d9	0.19143237
59	0xbcc25dca	-0.023726363
60	0x3df2f60e	0.118633375
61	0x3e6bbb4d	0.23020668
62	0x3e20367d	0.15645786
63	0xbe2be7f1	-0.16787697
64	0x3c648b70	0.01394926
65	0xbdad2d5a	-0.08455916
66	0xbdc5ed3a	-0.09664388
67	0x3df35f75	0.11883441
68	0xbe1ac978	-0.15115917
69	0x3ced8b63	0.028997129
70	0xbc280996	-0.010256192
71	0xbe3d2bf7	-0.18473803
72	0xbcdae11d	-0.02671867
73	0x3e5003d6	0.20313963
74	0xbd24baad	-0.04021709
75	0x3e0664e3	0.13124423
76	0xbe7240e1	-0.23657562
77	0x3da2e435	0.07953683
78	0xbdf724d8	-0.12067574
79	0x3db414b3	0.087930106
80	0x3d6a1da6	0.05715718
81	0x3e7b2ea8	0.24529517
82	0xbcfe1a81	-0.031018497
83	0xbe451579	-0.19246472
84	0x3d153756	0.036429726
85	0xbcfdc53c	-0.030977838
86	0x3e05e86d	0.13076945
87	0x3e390826	0.18069515
88	0xbe1a512b	-0.15070026
89	0xbe5f691e	-0.21817443
90	0x3e03d38f	0.12873672
91	0xbe2928fe	-0.16519544
92	0x3e5c8395	0.2153457
93	0x3c8411cb	0.016121766
94	0x3dba9504	0.09110454
95	0x3d6291f0	0.055314958
96	0x3ca3bbdc	0.01998704
97	0xbe3a23b7	-0.18177687
98	0x3ea606b7	0.32426998
99	0xbdf4e415	-0.11957566
100	0x3d77737e	0.060412876
101	0x3e134712	0.1438258
102	0xbd1b7c69	-0.037960444
103	0xbe85e5d5	-0.2615191
104	0xbc91ed4d	-0.01781335
105	0xbcd30297	-0.02575807
106	0x3d0a1657	0.03371271
107	0x3daa7d1b	0.08324643
108	0x3e0ad378	0.13557231
109	0x3d8888ee	0.06666742
110	0xbd7deba5	-0.061992306
111	0x3b35c728	0.0027737115
112	0x3e603afa	0.21897498
113	0xbe3ab6a3	-0.18233733
114	0x3d9fac87	0.07796579
115	0x3ddc65b6	0.10761587
116	0xbdff4456	-0.12464206
117	0xbd2e8f42	-0.04261709
118	0x3e92d055	0.2867457
119	0x3e06fe5b	0.13182966
120	0xbe5bede5	-0.21477468
121	0x3ddf40b4	0.10901013
122	0xbe037411	-0.12837245
123	0xbd5142d6	-0.05108913
124	0x3d858e9f	0.065213434
125	0xbdf426ac	-0.119214386
126	0xbe2e3b27	-0.17014752
127	0x3d22b919	0.039727304
128	0xbe99d834	-0.30047762
129	0x3c485e9e	0.01222959
130	0x3e63a073	0.22229175
131	0x3d18c4df	0.037297126
132	0xbe1316e7	-0.14364205
133	0xbe2c91b5	-0.16852458
134	0xbcd02cb9	-0.02541195
135	0x3dfab376	0.12241261
136	0x3e4d5d78	0.20055187
137	0x3c1367f2	0.00899695
138	0xbe0b5fdf	-0.1361079
139	0x3d213df7	0.039365735
140	0x3dade273	0.084904574
141	0xbe1d0289	-0.15332998
142	0x3e29b2e6	0.1657215
143	0x3ddae2f7	0.10687821
144	0xbe2038ad	-0.1564662
145	0x3d100909	0.035164867
146	0x3db3b0f5	0.08773986
147	0xbcfa30df	-0.030540882
148	0xbe1230c5	-0.14276417
149	0x3def4dc1	0.11684752
150	0x3debee1c	0.11520025
151	0x3cfa5402	0.030557636
152	0x3b2a3a6d	0.0025974766
153	0xbe62402a	-0.22094789
154	0x3e03a735	0.12856753
155	0xbdddc8ac	-0.10829291
156	0xbe39da48	-0.18149674
157	0x3d119ba4	0.03554882
158	0x3e13b88d	0.1442587
159	0xbd932789	-0.07185275
160	0x3e04cb42	0.12968162
161	0x3dbb260f	0.091381185
162	0xbd5c4212	-0.053773947
163	0x3e7867d6	0.2425836
164	0xbe7a6e38	-0.24456108
165	0x3d32547f	0.043537613
166	0xbe9bcdf2	-0.3043056
167	0xbe178e79	-0.14800443
168	0xbe45380e	-0.19259664
169	0xbd7686e8	-0.06018725
170	0xbcf0306a	-0.02931996
171	0xbe3790d3	-0.1792634
172	0xbe0b2918	-0.13589895
173	0x3cc65890	0.024212152
174	0xbdeba2d6	-0.11505668
175	0x3dc8eb0d	0.098104574
176	0xbe230c23	-0.15922599
177	0xbddd309b	-0.108002864
178	0x3b9d5f8a	0.004802649
179	0xbdf64b6b	-0.120261036
180	0xbe89c1fb	-0.26905808
181	0xbe571f21	-0.21007968
182	0x3d8ca43c	0.06867263
183	0x3e530f65	0.20611341
184	0xbd89570f	-0.06706058
185	0x3df5e930	0.120073676
186	0x3e2f16ed	0.17098589
187	0x3cf21b26	0.029553961
188	0xbda9e8ed	-0.0829638
189	0xbe37f018	-0.17962682
190	0x3d48a65d	0.04898678
191	0xbd710dbc	-0.05885099
192	0x3dcf0163	0.10107686
193	0x3cd57977	0.026058896
194	0xbde7b4d5	-0.11313788
195	0x3e1e9407	0.15486155
196	0x3e12603c	0.14294523
197	0xbe12bcde	-0.1432986
198	0x3d49380b	0.049125712
199	0xbdb6bc84	-0.08922675
200	0xbe40bab0	-0.18821216
201	0xbe175da6	-0.14781818
202	0x3e1155d7	0.14192902
203	0xbe5ec1b9	-0.21753587
204	0xbe1c8108	-0.15283597
205	0x3cc5805d	0.02410906
206	0xbde648a1	-0.112443216
207	0x3e3da1e8	0.18518794
208	0x3b539f67	0.0032291056
209	0xbd392630	-0.045202434
210	0x3df14275	0.11780254
211	0x3dcbd4e9	0.09952719
212	0xbe3742fd	-0.17896648
213	0xbc4e078a	-0.01257504
214	0x3db63b71	0.08898056
215	0xbaeb0c5e	-0.0017932763
216	0x3d65f1c4	0.05613877
217	0xbe04b38c	-0.12959117
218	0xbe3f262a	-0.18666902
219	0xbdcee906	-0.101030394
220	0x3db18be0	0.08669257
221	0xbd9b312e	-0.0757774
222	0x3c88c68c	0.016696237
223	0x3ded9328	0.116003335
224	0x3de4fe29	0.1118129
225	0x3b685840	0.0035452992
226	0x3d9e89a9	0.077411
227	0x3dcdf516	0.10056512
228	0xbe26b7d6	-0.16281065
229	0xbe1f0a37	-0.1553124
230	0xbceb4b46	-0.028722417
231	0x3e7e7406	0.24848947
232	0x3dabd963	0.083910726
233	0x3cc1a616	0.023638766
234	0xbdebb0ae	-0.11508308
235	0x3b0e093e	0.002167299
236	0x3c341a8e	0.010992659
237	0xbd90002f	-0.07031285
238	0xbceb8a25	-0.028752396
239	0x3e3453d3	0.17610101
240	0xbe5a2fe7	-0.21307336
241	0xbb6bc7b9	-0.0035977198
242	0x3e3f042b	0.18653934
243	0x3e4a94d9	0.19783343
244	0xbdc1dc26	-0.09465818
245	0x3d398dd2	0.045301266
246	0x3d826677	0.063672
247	0xbe1b5551	-0.15169264
248	0x3e258c1f	0.16166733
249	0xbddc547d	-0.10758302
250	0x3e0c7004	0.13714606
251	0x3bb9bc61	0.0056682085
252	0xba90e75a	-0.0011055276
253	0x3dae0a62	0.08498074
254	0xbd954e2d	-0.072903015
255	0xbda26593	-0.0792953

mlp.6.weight f4 [3, 256]
0	0x3c2d75ab	0.010587136
1	0x3d8a438e	0.06751166
2	0x3d06bd40	0.032895327
3	0xbbdc2c1d	-0.006719126
4	0x3d7bb69c	0.061453447
5	0xbcc50b49	-0.024053233
6	0xbcad1dbb	-0.02113234
7	0x3b9704b4	0.004608715
8	0x3c924c2e	0.01785859
9	0x3d7fc494	0.06244333
10	0x3dec9786	0.11552338
11	0xbcb26235	-0.021775344
12	0x3c71a8d1	0.014749722
13	0xbe6deaee	-0.2323415
14	0xbc0fe577	-0.008782736
15	0x3c93667c	0.017993204
16	0xbdba1fd8	-0.09088105
17	0x3d93009b	0.0717785
18	0x3c4884a4	0.012238655
19	0xbbaa5034	-0.0051975492
20	0xbd3d2fd6	-0.046188198
21	0x3b2afd0c	0.002609077
22	0x3dd71182	0.10501386
23	0x3d97eb28	0.07417899
24	0xbccf5c26	-0.025312494
25	0x3dfa02ae	0.12207542
26	0xbc9a30ee	-0.01882216
27	0xbcc3ed0c	-0.023916744
28	0x3bd4548b	0.006479805
29	0x3c86a31b	0.016435197
30	0x3c51a388	0.012795337
31	0xbc772573	-0.015084612
32	0xbd8d360b	-0.068950735
33	0xbe0e5c12	-0.1390231
34	0xbd09a900	-0.033608437
35	0x3e6bc873	0.23025684
36	0x3e1a2f71	0.1505716
37	0xbe1dd425	-0.15412958
38	0xba7796d0	-0.0009444775
39	0xbb27f46b	-0.0025627862
40	0x3dc21aae	0.09477745
41	0x3de686b6	0.11256163
42	0x3caf4680	0.021395922
43	0x3ab633c5	0.0013900927
44	0x3d6f9b0c	0.058497474
45	0x3d2b8f29	0.041884575
46	0x3cae32ae	0.0212644
47	0xbda85ddb	-0.082210265
48	0x3e05a19b	0.13049929
49	0xbd6d1f73	-0.05789132
50	0x3c60e2fa	0.01372599
51	0xbd165c1b	-0.036708932
52	0xbda0b934	-0.07847825
53	0x3aba9924	0.0014236313
54	0xbe0df786	-0.13863954
55	0xbe2eaff3	-0.17059307
56	0x3d4af681	0.04955149
57	0x3c8bfe9c	0.01708918
58	0x3da148a5	0.07875184
59	0xbd54841e	-0.05188381
60	0x3cbb8d85	0.02289463
61	0x3dd9958c	0.10624227
62	0x3da3e9b2	0.08003558
63	0xbe548403	-0.20753483
64	0x3cc00d67	0.02344389
65	0x3d205347	0.03914192
66	0x3d16cc84	0.036816135
67	0x3d09589e	0.033531778
68	0x3c8beebe	0.017081615
69	0xbd70a32d	-0.058749367
70	0x3d3760a5	0.0447699
71	0xbd9dcc9f	-0.07705044
72	0x3db5144c	0.08841762
73	0xbdbb8127	-0.09155493
74	0xbd597a74	-0.053095296
75	0xbd1e5c68	-0.038662344
76	0xbd177ff6	-0.036987267
77	0xbc844b68	-0.016149238
78	0xbcceec35	-0.025259117
79	0xbd0b3aa1	-0.03399146
80	0x3e09694d	0.13419075
81	0xbd3b35d5	-0.045705635
82	0xbd4b0267	-0.049562838
83	0xbe5c6928	-0.21524489
84	0xbdab3cf0	-0.08361232
85	0xbc8aca4e	-0.01694217
86	0x3d483605	0.048879642
87	0xbc6c0c7a	-0.0144072715
88	0x3c40ffe1	0.011779756
89	0x3c6f2688	0.014596589
90	0xbca04d84	-0.019568212
91	0xbd99b297	-0.075047664
92	0x3e527c03	0.20555119
93	0xbbc538a8	-0.006018717
94	0xbd0b7adf	-0.034052726
95	0x3d5d545e	0.054035537
96	0xbdeaf8bf	-0.11473226
97	0x3d82265b	0.06354972
98	0x3df56383	0.11981871
99	0x3d0f522f	0.034990486
100	0xbbff9173	-0.0077993213
101	0x3c432028	0.011909522
102	0xbd706484	-0.05868961
103	0x3e3dd2bc	0.1853742
104	0x3bb26a86	0.0054448275
105	0x3d34704d	0.04405241
106	0x3c4ddc47	0.012564725
107	0x3cea6b5c	0.028615646
108	0xbd77d87f	-0.0605092
109	0xbd163153	-0.036668133
110	0xbaebf709	-0.0018002699
111	0xbe00411d	-0.12524839
112	0xbd60eb17	-0.0549117
113	0xbc96e80a	-0.018421192
114	0x3e564921	0.20926334
115	0x3c1e6847	0.009668416
116	0x3bb1fa64	0.00543146
117	0x3cb7dfb8	0.022445545
118	0x3af16a81	0.0018418581
119	0xbe5c6ebd	-0.21526618
120	0x3d05213b	0.032502394
121	0x3c5edc83	0.013602379
122	0x3d77f4d6	0.060536228
123	0xbd494589	-0.04913858
124	0xbc687e5c	-0.014190283
125	0x3d250ec9	0.040297303
126	0x3c8aab2a	0.01692732
127	0xbcba3639	-0.022730934
128	0x3cb886c8	0.022525206
129	0x3d8ba3b3	0.068183325
130	0xbe1989c5	-0.14993961
131	0x3ca3cbe7	0.01999469
132	0xbc2f12c0	-0.010685623
133	0xbe1b0871	-0.15139939
134	0x3d98bd7d	0.07458017
135	0xbe34b516	-0.17647204
136	0xbd46e6d4	-0.04855998
137	0x3c9842e0	0.018586576
138	0xbcbb867e	-0.02289128
139	0xbdb0e41e	-0.0863726
140	0x3c27e91d	0.01024845
141	0xbdadb4bf	-0.0848174
142	0x3d14da89	0.036341224
143	0x3baac531	0.0052114953
144	0xbdaecc00	-0.08535004
145	0x3c994b9c	0.018712811
146	0xbd3fedb9	-0.04685757
147	0x3cd0bc1a	0.025480319
148	0xbd5e5bdc	-0.054286823
149	0xbda1f466	-0.079079434
150	0xbd765d4e	-0.060147576
151	0xbd92f931	-0.07176436
152	0xbd3499fc	-0.044092163
153	0xbdaf94f0	-0.085733294
154	0x3c036769	0.00802026
155	0x3de9daf4	0.11418715
156	0x3c93ad5a	0.018026996
157	0xbd1fc782	-0.039008625
158	0xbd65e86d	-0.05612986
159	0xbe8bcfcf	-0.27306983
160	0x3df90e08	0.121608794
161	0xbc3d9d58	-0.011573158
162	0xbe513d9a	-0.20433655
163	0xbb8c3ac1	-0.004279465
164	0x3d19088b	0.037361663
165	0xbbd68263	-0.006546305
166	0x3e1f54d5	0.15559705
167	0x3d10875d	0.035285342
168	0xbd995eff	-0.07488822
169	0x3cc32216	0.023819964
170	0x3e09f628	0.13472807
171	0xbe5985de	-0.21242473
172	0x3d8132da	0.06308527
173	0x3cb73ba4	0.022367306
174	0xbbb61dbd	-0.0055577443
175	0xbc38c5c5	-0.011277621
176	0x3b9dcb2d	0.00481548
177	0x3d857281	0.065159805
178	0x3b933ebd	0.004493563
179	0x3cdc252b	0.026873192
180	0xbe2c66a1	-0.16836025
181	0x3e58563e	0.21126649
182	0xb8db2213	-0.000104490806
183	0x3e275798	0.16342008
184	0xbdb08516	-0.08619134
185	0xbd6720c3	-0.05642773
186	0xbd663142	-0.05619932
187	0x3d9e6d06	0.07735638
188	0xbe71807d	-0.2358417
189	0x3c51ba22	0.012800725
190	0x3d59f95b	0.05321632
191	0xbd8dbf5f	-0.06921267
192	0x3d814507	0.06311994
193	0xbdbe1359	-0.09281034
194	0x3d7bcfd4	0.061477497
195	0xbde14d05	-0.110010184
196	0xbcc7a689	-0.024371402
197	0xbe5ea902	-0.21744159
198	0xbdc03f38	-0.09387058
199	0x3d463091	0.04838616
200	0xbd46c476	-0.048527204
201	0xbd5c0bd7	-0.05372223
202	0xbd2cb82c	-0.042167827
203	0x3dafcdd1	0.08584178
204	0xbd50565c	-0.05086361
205	0x3de0d02b	0.10977205
206	0xbdc9e5f3	-0.098583125
207	0xbdd40895	-0.103531994
208	0xba772609	-0.000942797
209	0x3d899383	0.06717589
210	0xbd9e0892	-0.077164784
211	0xbd878366	-0.06616859
212	0x3ddef6da	0.10886927
213	0xbd733ef1	-0.059386197
214	0xbe2f8f9b	-0.17144625
215	0x3d1e695b	0.038674694
216	0x3d88f5d9	0.06687517
217	0x3da35324	0.07974842
218	0xbc12c1e9	-0.008957365
219	0xbd41154a	-0.047139443
220	0xbe176cbf	-0.14787577
221	0x3d01b865	0.031669993
222	0x3bab8bdd	0.005235179
223	0xbcdc657e	-0.026903864
224	0x3cd36c1b	0.025808385
225	0x3d03aabd	0.03214525
226	0x3dbe4871	0.09291161
227	0x3c9c3c7a	0.019071806
228	0xbda450db	-0.080232345
229	0xbdb8bb1f	-0.090200655
230	0x3cdee91a	0.02721076
231	0xbdbcbe77	-0.09216016
232	0xbcab564e	-0.020915177
233	0xbd7167f9	-0.058937047
234	0xbc986359	-0.01860206
235	0xbbbbc8c7	-0.0057307216
236	0xbd8ec385	-0.06970886
237	0xbda7dc51	-0.08196319
238	0x3ca92e3a	0.020651925
239	0xbd8f3626	-0.0699275
240	0xbdac12af	-0.08402001
241	0xbc4deace	-0.012568189
242	0x3d02042e	0.031742267
243	0x3dbaf0a6	0.09127931
244	0xbdba8827	-0.09108
245	0xbb00acbd	-0.001963421
246	0xbd23776d	-0.039908815
247	0xbd093c6e	-0.033504896
248	0xbd087b12	-0.033320494
249	0xbaa1c07b	-0.0012340689
250	0xbd89a582	-0.06721021
251	0x3bf2d921	0.0074111377
252	0x3c4765f6	0.0121703055
253	0xbd989abe	-0.0745139
254	0xbd20b8c1	-0.039238695
255	0xbc4741b5	-0.012161662

mlp.6.bias f4 [3]
0	0x3d1611b8	0.03663799
1	0x3d61c758	0.05512175
2	0xbaf44d47	-0.0018638753
