notebooks/training/params/DirectNet_100_256x256.pt (torch, 282164 bytes, 6 tensors)

mlp.0.weight f4 [256, 11]
000000 f4 af b6 3f cf 7b 2d c0 1a 04 2b 40 78 f1 74 39
       1.4272447 -2.7106817 2.6721253 0.00023359607
000010 c0 5a 06 39 e6 db 16 ba 77 c3 a4 bb 4d 82 10 bb
       0.00012813043 -0.00057548133 -0.005028184 -0.0022050322
000020 2e 38 f9 ba e2 cc 68 3b c3 7c 1b bb a6 58 32 c0
       -0.0019013935 0.003552251 -0.0023725487 -2.7866607
000030 fb f1 6a c0 14 90 60 c0 e1 78 4d bc b8 b4 ad ba
       -3.6710193 -3.5087938 -0.012541027 -0.0013252711
000040 c9 1e d6 bb e6 f2 31 bc fe 06 f7 ba 8d 5b 07 bb
       -0.0065344316 -0.010861134 -0.0018846688 -0.0020653934
000050 ea 19 41 3b 0b fc a7 bb 89 57 0e 40 78 45 1a 3f
       0.002946491 -0.0051264814 2.2240927 0.6026225
000060 45 a7 42 c0 83 51 6d 3b 4f 8d 4f bc 76 52 30 3c
       -3.0414593 0.0036211915 -0.012667968 0.010761848
000070 94 71 4e bc 72 2d 13 3c 71 6a d7 bc 7e e5 4e 3b
       -0.012600321 0.008983003 -0.026295872 0.0031569893
000080 e5 b4 a6 bc 25 be 33 bc e7 aa 11 3c b6 24 22 bc
       -0.02034993 -0.010970627 0.008890844 -0.009896448
000090 c2 52 f0 3a 5c ff 29 b9 d4 cb 54 ba 52 65 c3 39
       0.0018335211 -0.00016212225 -0.0008117531 0.00037268788
0000a0 3a 40 95 ba c3 c5 09 bb 4b 30 28 bb 0e c6 b6 ba
       -0.0011386939 -0.0021022416 -0.002566355 -0.0013944523
0000b0 e6 81 75 c0 2a e6 26 3f 19 0f a0 40 33 d7 1b ba
       -3.8360534 0.6519495 5.001843 -0.0005944848
0000c0 86 91 92 3b 4f 38 06 bb 91 ed d1 ba 10 34 f7 3b
       0.004472914 -0.002048034 -0.0016016235 0.007544048
0000d0 d6 c2 37 bb 00 e8 2b 3c 3b d7 31 bb d1 4d a4 bf
       -0.0028039715 0.010492325 -0.0027136344 -1.2836248
0000e0 e1 ef 4d 3f af 33 08 bf 8e 42 22 3b e5 06 c8 3a
       0.8044415 -0.5320386 0.0024758908 0.0015260844
0000f0 22 10 2f 3b 41 cb 3d ba 35 7a c9 ba 62 18 88 bb
       0.0026712497 -0.0007240065 -0.0015371504 -0.0041532973
000100 94 ec 56 3a 58 93 7f 3a 26 45 ed 3f 4f 11 03 41
       0.0008198705 0.0009749434 1.8536727 8.191726
000110 66 93 8a c0 10 14 86 3c b0 91 4a 3c 9f 48 63 3b
       -4.330493 0.016366988 0.012363836 0.0034680737
000120 65 f5 94 bc 07 2f 2d bd ff e9 05 c1 ee 54 0c bc
       -0.01818342 -0.042281177 -8.369628 -0.008565171
000130 5b ed 1b bd 4e 64 da c0 24 70 ad 40 70 43 6d 40
       -0.038068157 -6.824744 5.419939 3.707241
000140 b1 48 b0 3c ac f7 1d bd 3d 66 9f bd be be fe c0
       0.021519037 -0.038566276 -0.07783172 -7.960784
000150 30 43 56 bd f9 9b 10 bd 55 1e 0c 3c 19 17 a4 3c
       -0.05231017 -0.035304997 0.008552154 0.020030545
000160 c0 5c e3 bf a7 3d e8 be 7a 3c 23 40 b7 e3 5a 3a
       -1.776268 -0.45359537 2.5505662 0.0008349972
000170 4e 3b 3b ba 2f 9e b5 3a 5a cc bd 3a a6 30 58 ba
       -0.0007142321 0.0013856346 0.0014480457 -0.0008246995
000180 44 d8 a9 39 83 43 ea 3a 9c fc 0b 3a 5e ec 7f c0
       0.00032395322 0.0017872903 0.0005340071 -3.9988017
000190 c2 12 f2 3f d8 43 af c0 36 b5 95 bd 69 b6 ff 40
       1.8911974 -5.4770317 -0.07309954 7.991017
0001a0 8e 97 cc 3b 42 5f 84 3d 77 6a 7a bb 59 4e 07 bd
       0.0062436527 0.064634815 -0.003821043 -0.033033703
0001b0 3b 46 11 3d d1 fb f2 3c b0 87 b4 c0 2a 30 9e 40
       0.035467368 0.029661091 -5.6415634 4.9433794
0001c0 ec 95 c1 40 27 7c 54 bb 38 e2 c9 c0 de ca 85 3c
       6.049551 -0.0032422633 -6.3088646 0.016332086
0001d0 ea bc 64 bc de e1 1a 3e 63 23 19 3d d0 73 21 3c
       -0.013961056 0.15125224 0.037387263 0.009854272
0001e0 2f 25 45 3c 00 a4 de bb f0 68 c7 bb 71 ed 22 bc
       0.012032791 -0.0067944527 -0.0060855076 -0.009944306
0001f0 60 55 b2 b9 28 b6 98 3b 5f 4c e0 39 3a c4 e4 3a
       -0.00034014415 0.0046603866 0.0004278151 0.00174535
000200 c9 10 11 3a 18 42 f4 39 84 68 36 bb 84 cc 92 ba
       0.0005533812 0.0004658855 -0.0027833292 -0.0011199866
000210 f7 33 a4 3b 80 0e ab ba 70 3c ed 3a 21 45 b5 ba
       0.0050110775 -0.0013050586 0.0018099677 -0.0013829806
000220 04 d4 a0 3a 38 83 ce 3a 0e 72 20 bb ff 76 05 ba
       0.0012270217 0.0015755659 -0.0024482044 -0.0005091279
000230 9e 6d 88 ba f9 40 23 bb 0c 79 2d ba b2 f2 08 c0
       -0.0010408645 -0.0024910553 -0.00066174637 -2.139813
000240 66 43 0e c0 19 b0 8c 3f 37 66 11 3b b3 68 08 b9
       -2.2228637 1.0991241 0.002218617 -0.00013008974
000250 fc 30 a7 3b c1 a9 b7 ba 22 4b 60 bb 04 f5 8b 3b
       0.005102275 -0.0014012383 -0.003422447 0.0042711515
000260 46 70 49 3b de 40 8c bb da 6e 32 c0 ea 95 96 40
       0.0030737086 -0.0042801937 -2.7880158 4.7058
000270 94 af 7b c0 df 72 94 bd eb 26 8c 3c a6 11 01 bb
       -3.9325914 -0.072484724 0.017108401 -0.0019694357
000280 d3 8a a5 bc 45 57 60 bb 70 d5 0e 3f 53 29 05 3d
       -0.020207798 -0.0034231704 0.5579443 0.032510113
000290 d6 97 01 bc 76 ec ac 40 50 6b b9 40 23 97 f8 bf
       -0.007909736 5.403865 5.7943497 -1.9421123
0002a0 e4 c6 8d bd 96 47 ac 3c bf 44 eb 3c 2b 8a d2 3d
       -0.06922701 0.021030229 0.028719304 0.1028026
0002b0 b2 33 bb bd d1 f8 f1 40 b7 6a 52 3c 0b c1 bf 3d
       -0.091407195 7.561623 0.012842826 0.09362992
0002c0 dd 82 f0 3f 68 16 11 40 38 9b 98 40 93 64 a5 3c
       1.8789936 2.2669926 4.7689476 0.02018956
0002d0 e6 c2 7a bb ce 76 b1 bc 50 46 08 3c 9c a9 21 bd
       -0.0038263141 -0.021663096 0.008317545 -0.039468393
0002e0 ae 44 d5 3a f3 56 46 bc 40 00 48 bc f8 97 b1 40
       0.0016271078 -0.012105691 -0.012207091 5.549801
0002f0 06 71 9a c0 5a 09 81 40 06 05 7d bd 04 5c 78 3d
       -4.826297 4.0323915 -0.06177237 0.060634628
000300 70 1e 16 bc 2c e4 7a b8 a8 fb e6 bc 14 ef 89 3c
       -0.00916253 -5.9817146e-05 -0.02819617 0.016837634
000310 d1 23 da bc 89 d1 27 40 dc 0e c4 3f b4 14 27 c0
       -0.026628407 2.622164 1.5317035 -2.6106386
000320 18 5c 24 40 78 c3 7e 3b f9 e1 c6 3a a9 cd 4a 3b
       2.568121 0.0038873833 0.0015173546 0.0030945337
000330 76 6e 92 bb b3 e2 1e bb 3e db 1c 3a 06 ca c7 3b
       -0.0044687344 -0.002424401 0.00059835974 0.006097081
000340 03 00 84 bb 36 f7 20 41 93 85 8b 40 87 0b 4a c0
       -0.0040283217 10.060354 4.3600554 -3.1569536
000350 cb 0f 15 3a 25 ac 94 3c 7e 53 45 bc 53 e2 39 3d
       0.0005686252 0.018148491 -0.012043832 0.045381855
000360 55 7d c3 3d 7c f0 92 40 2c e1 9d bd ac 1b 1a 3b
       0.095453896 4.591856 -0.07708964 0.002351503
000370 3d 43 6e 3f 42 a6 f0 3f 61 0f 95 bf 1b df 82 3a
       0.9307135 1.8800738 -1.1645318 0.0009984704
000380 2a b8 25 3a 38 16 ff 39 a0 e7 0f 37 aa 14 54 3a
       0.0006321693 0.00048653944 8.577394e-06 0.00080902374
000390 6d fd ec 3a fa 97 18 ba 99 4c 9b 3b e8 02 f1 3f
       0.0018080898 -0.0005820986 0.0047393558 1.8829012
0003a0 f3 74 01 41 18 d6 29 be c5 14 57 bd a3 f3 10 41
       8.091052 -0.16585577 -0.05251004 9.059482
0003b0 46 a2 3c 3d 45 57 05 c1 bf 77 d6 bd cc b2 68 3d
       0.046053194 -8.333806 -0.104720585 0.05681114
0003c0 09 d2 9e bd 7d 65 d2 3d dd bd e5 c0 db e2 bf c0
       -0.07754905 0.102732636 -7.1794267 -5.9964423
0003d0 74 b5 48 3e 88 a9 70 bb 37 75 88 bc 50 ce ca 3b
       0.19600469 -0.0036722142 -0.016657455 0.006189145
0003e0 ae 96 9a bb e1 2f 31 3d 73 ca c8 3f c8 2d 8e 3b
       -0.0047176694 0.04325855 1.5686783 0.0043389536
0003f0 cb 05 8e 3c d7 16 5d c0 1e ca 87 40 00 5f 88 c0
       0.017336747 -3.454519 4.2434225 -4.2615967

mlp.0.bias f4 [256]
000000 76 8c 98 3c 94 2d 67 bd 3a 19 3e bd fb 51 99 37
       0.018621664 -0.05643995 -0.046410777 1.8277196e-05
000010 45 14 03 3d a3 44 81 bb 9f f3 79 be 31 05 75 3e
       0.032001752 -0.0039449497 -0.2440934 0.23927762
000020 f4 92 bc 3c 53 4a 0c bf 46 3f c5 3d 3f 2d a8 3a
       0.023019291 -0.5480091 0.09631209 0.0012830867
000030 e4 17 c6 b9 36 41 1b 3c 17 dc 3c be 4a 4d 2e bf
       -0.00037783303 0.009475997 -0.18443333 -0.68086684
000040 af 51 da 3c 5b 4f 21 3e 2a f4 83 3c 62 52 7c 3d
       0.026650278 0.15752928 0.016107637 0.061602004
000050 8c 69 50 bc af 7f 5e 3f d0 20 8d 3d 75 3c 19 bd
       -0.012720477 0.8691358 0.06891024 -0.037411172
000060 c1 25 4f ba 46 7a cd 3f 7c 5b 71 38 ae 33 04 b9
       -0.0007902049 1.605294 5.754408e-05 -0.00012607753
000070 be ce df bc d0 7b 39 bc 3c 70 15 3e 63 b9 6a bf
       -0.027320262 -0.011321023 0.14593595 -0.9168913
000080 9c e5 ac 3c c5 4e 85 ba 47 23 5f 3e 0f 96 82 3e
       0.02110558 -0.001017057 0.21790801 0.2550511
000090 85 ee c5 bc 5f 74 4b bf 44 36 20 bc f9 da 53 3e
       -0.024161587 -0.79474443 -0.009778563 0.20689
0000a0 21 6a 0e bd c8 bf ee be 15 f2 ec bb 47 55 0e bd
       -0.03476918 -0.46630692 -0.007231007 -0.034749296
0000b0 88 37 b2 b9 b7 ad 34 bd 68 28 19 3e 0f ad 1c 3a
       -0.0003399218 -0.04411098 0.1495682 0.00059767155
0000c0 17 b2 09 ba 40 06 9b b6 a2 49 98 b9 df 03 5f ba
       -0.00052526727 -4.6200876e-06 -0.0002904656 -0.0008507352
0000d0 55 5b b9 3a 50 ea 86 be c7 d7 4b 3d f8 1c 1b 3a
       0.0014141599 -0.2635064 0.04976633 0.00059170974
0000e0 26 28 d0 bd 5a 90 ae bd 4a 86 8c ba f5 f8 c6 bd
       -0.10163908 -0.085236266 -0.0010721174 -0.097154535
0000f0 46 03 28 3f 9f 7d 10 3d 9a 4e 16 ba 0f 12 dd be
       0.65629995 0.03527605 -0.00057337584 -0.4317784
000100 58 23 bc b8 68 ef 70 3d 04 94 e8 bd 1c d3 4d bd
       -8.971122e-05 0.058822066 -0.11356357 -0.050250158
000110 a1 8f 65 bf f6 aa 80 3b 36 56 49 bd bb e8 30 bd
       -0.89672285 0.00392663 -0.049154483 -0.0431907
000120 b6 27 69 bd dd 90 5c 3a d5 db 8d 38 03 57 01 3a
       -0.056922637 0.00084139203 6.764351e-05 0.0004933925
000130 6d b3 76 3f 02 f8 0f 3a 0b 04 b8 3c eb 1e 53 bd
       0.9636753 0.0005491973 0.022462865 -0.051543158
000140 00 c9 26 3a c0 41 7b b7 e7 65 f7 b9 1c 2b da bc
       0.0006362349 -1.4976074e-05 -0.00047187434 -0.026631884
000150 d1 a6 cc 3d 69 e5 1c ba 81 b5 13 3d 25 d9 a3 37
       0.09992755 -0.00059851125 0.036061767 1.953223e-05
000160 8c 04 63 b9 75 0c 7e 3e 13 1e ac 3e 25 04 52 3c
       -0.00021650101 0.2480944 0.33616695 0.012818371
000170 f8 f8 3c bc c6 e9 96 be ca b4 d8 39 fa c0 b9 39
       -0.011533968 -0.2947523 0.0004133343 0.00035429728
000180 aa 48 eb bd 68 f4 96 bd 02 dd 87 bd a4 30 d0 bc
       -0.11488469 -0.073708355 -0.06633951 -0.025413819
000190 7d 44 12 3e 96 01 8e 3a b2 78 0f 3f 26 19 ba 3c
       0.14283939 0.0010834213 0.5604354 0.02271707
0001a0 fd 44 57 ba 9b c8 2d bf 3b 81 bb bc c9 c5 11 3f
       -0.0008211879 -0.67884225 -0.02288877 0.5694242
0001b0 83 e5 59 3d 8d 9e a1 be 3c 54 5d 3d 44 0b 08 bf
       0.053197395 -0.31566277 0.05403541 -0.5314219
0001c0 b0 30 d7 be 1a ef 9e 3c 71 d0 a1 bc c9 a0 20 3a
       -0.42029333 0.019401122 -0.019752713 0.00061274745
0001d0 ad 8d 13 3d d6 a0 37 bd d3 b3 05 3e fa a0 86 be
       0.036023784 -0.04483112 0.13056879 -0.2629469
0001e0 23 e4 17 3a 80 bd d0 3d 0a 99 7c bd a1 ee 1b 3a
       0.0005794188 0.10192394 -0.061669387 0.0005948339
0001f0 bc 17 e5 b9 01 a8 91 3f 02 38 75 3f ba 2f 88 bd
       -0.00043695967 1.1379396 0.95788586 -0.06649728
000200 d4 57 a7 bd 02 1d 81 3d eb 66 10 3c a9 e8 ef 3c
       -0.08171049 0.06304361 0.0088136 0.029285746
000210 32 4d e7 3e 60 ee 24 be 50 ba 95 be f6 7a ae 3b
       0.45176083 -0.16106558 -0.29243708 0.0053247167
000220 8b 78 7a bd 1d 21 5f ba aa 1e 2e bf e1 49 ae 39
       -0.061150115 -0.0008511709 -0.6801554 0.0003324291
000230 2b 36 82 3c 1c 42 6f 3e 2f 4f 01 3d 25 6b 2c ba
       0.01589497 0.23365062 0.031569656 -0.0006577245
000240 02 7d 35 3d 27 59 a7 3e 6b a3 18 b9 ae 14 7a 3c
       0.04430867 0.32685205 -0.00014556728 0.0152637195
000250 31 47 8a bd b7 0a 6a bc b5 70 44 bc c1 84 ab ba
       -0.0675186 -0.014284781 -0.011989762 -0.0013085828
000260 73 59 28 3a 23 71 82 bd d6 b6 6f 3d 09 3f 93 bf
       0.00064220204 -0.06369235 0.058523975 -1.1503612
000270 19 ce 2c bf 7a e1 75 3f 6e 22 47 be 58 6b 29 3e
       -0.6750198 0.96047175 -0.19446728 0.16544855
000280 a0 6e db 3e 05 40 cd 3a cc 0c a3 be 5b 81 d2 bd
       0.42857838 0.0015659338 -0.318457 -0.10278579
000290 02 9e 86 bf 62 13 a2 bc 62 76 9d 39 91 dc 68 bb
       -1.051697 -0.019784633 0.00030033576 -0.0035531858
0002a0 c8 70 a3 3c c1 40 cc be fa 49 3d 3c cb a8 b8 bc
       0.01995124 -0.39893153 0.011553282 -0.022541424
0002b0 f4 16 1c ba 48 2c 29 3e 9c 41 a3 bc 9d db c7 3c
       -0.0005954348 0.16520798 -0.019928746 0.024396712
0002c0 01 46 38 3e 11 ff cd 3f 6b 9b fa bb 77 1f b6 3c
       0.17995454 1.6093465 -0.007647922 0.0222318
0002d0 b9 e3 05 bd 10 3f 43 3e 97 9a 6f be 28 8a 1c be
       -0.032687876 0.19067025 -0.23398815 -0.15287077
0002e0 b3 da a1 3c 6c 4e b9 be 5c a3 c2 39 39 de 6c bc
       0.019757604 -0.36192644 0.00037124276 -0.014457279
0002f0 19 3c dc 3d e2 ec c2 be 8b 48 fc be db 35 76 ba
       0.1075365 -0.38071352 -0.49274096 -0.00093921804
000300 b8 b3 29 3a 93 73 25 bf d2 32 a9 bc 33 1e 41 bd
       0.00064736186 -0.6462948 -0.020654116 -0.04714794
000310 3b 0e 19 ba c5 d3 ff bd e7 5c f2 bd 83 ef 56 3d
       -0.00058386073 -0.12491564 -0.11834126 0.05247451
000320 88 d5 b2 bd a0 ad 86 b8 57 d5 1f bd 2b 5f 16 3f
       -0.08732134 -6.421958e-05 -0.039021816 0.58738965
000330 4e 82 05 bf 98 10 c2 3e a9 59 9b bf f6 3b 36 be
       -0.52151954 0.37903285 -1.2136737 -0.17796311
000340 b5 a1 96 3e 11 5e 1a 3a 42 1c 84 3d b8 24 04 3d
       0.29420248 0.0005888651 0.06450702 0.03226158
000350 26 f1 4e 3a 61 ea 89 3e b2 83 79 bc 8e 95 4a 3d
       0.000789421 0.2693663 -0.0152291525 0.049459033
000360 6e fb 66 3a b8 3a 8a 3e a6 ea e4 bc 7a 58 5d 3e
       0.00088112697 0.26997924 -0.02794392 0.21615782
000370 f9 2e 8f ba 42 45 f3 3c c3 fc 7f ba d4 6e 7e be
       -0.0010924033 0.02969611 -0.00097651425 -0.24846965
000380 57 68 d0 be 5d ec 90 ba 5f 22 09 3a 5e d9 96 bc
       -0.40704605 -0.001105677 0.0005231257 -0.018414196
000390 2c ed b2 3c 64 ac 25 3c 57 e1 22 be fc 47 4c be
       0.021841608 0.010111902 -0.15906273 -0.19949335
0003a0 d0 e9 0f 3c 16 ed 92 bf 02 4a 17 3a 30 2c ae 3d
       0.008783773 -1.1478603 0.0005771221 0.08504522
0003b0 5c f3 9a 3f 2c 74 96 be 6d 96 54 bd ca 6a 49 3a
       1.2105517 -0.29385507 -0.05190127 0.00076834543
0003c0 55 7c 0f 3d 63 66 ac 3d c2 31 47 3f 38 6c 13 bd
       0.03503068 0.08417966 0.778103 -0.035991877
0003d0 4f ee 8e be a7 84 17 3b d4 c2 9f bb 02 c3 86 3e
       -0.2791619 0.0023119838 -0.0048755202 0.26320654
0003e0 24 66 2e bd 25 62 1f 3f cb 62 14 3c e1 d9 76 3d
       -0.042577878 0.6225913 0.009056757 0.06026638
0003f0 44 91 ba bf 94 e7 51 bd fc be 0e b8 02 d9 99 bf
       -1.4575582 -0.05124624 -3.4033306e-05 -1.201935

mlp.2.weight f4 [256, 256]
000000 c1 0a 0d be 92 48 f3 bd a2 c1 8d 3e ab ac e6 3c
       -0.13773634 -0.11879076 0.27686793 0.028158506
000010 ae 5b 63 be ea b6 64 3d 43 68 eb be 8b b6 a3 bb
       -0.22202942 0.055838503 -0.45977983 -0.004996126
000020 ce dc 78 bd 0b 7e b0 3e fb 88 4c be 2f 23 9d bc
       -0.06075745 0.34471163 -0.19974129 -0.019181816
000030 ee 4e 39 3c 12 e6 2e 3d f6 f0 3d 3f 63 3d 98 3e
       0.011310322 0.04269988 0.741958 0.29734334
000040 aa 86 61 3e 85 bb fe be f9 15 b8 bd 95 76 39 3e
       0.22024027 -0.4975244 -0.08988566 0.18111642
000050 d9 b7 ca bd 44 57 3c be 6d 72 0d 3f 54 fc 31 3e
       -0.098983474 -0.18392664 0.55252725 0.17381412
000060 11 e1 ca bb 94 25 f9 3e 02 5b f4 bc 9e c6 20 3b
       -0.006191381 0.48661482 -0.029828552 0.0024532448
000070 81 ff 1c 3e 66 ce 9c 3e e0 52 e7 be 4d 84 0e 3e
       0.15331842 0.3062622 -0.45180416 0.13917656
000080 04 5a b7 3d 40 db 9c 3b e2 d9 7c be dc 71 91 3e
       0.08952716 0.004786879 -0.2469249 0.2840718
000090 4b 8f 3f bd 9a 15 db 3e e9 9e ce bd 0a 3f 58 be
       -0.046767514 0.42789918 -0.100889035 -0.21117797
0000a0 43 4e 6f 3e ab c7 27 3e 4d b9 8d 3d 1c aa 9e 3e
       0.23369698 0.16384761 0.06920109 0.30989158
0000b0 dd c1 66 bc c5 21 2f bd ce bc 55 be 5e 9c 00 bc
       -0.014084307 -0.042756815 -0.20872805 -0.007849781
0000c0 eb a0 e0 bc 36 fb 38 3c f3 41 ba bc 66 58 3a bb
       -0.027420482 0.011290362 -0.022736525 -0.0028434037
0000d0 6d d9 b2 3a ec 00 8d 3c 8b e2 77 be 70 50 b8 3c
       0.001364512 0.017212354 -0.24207513 0.022499293
0000e0 59 f7 57 3f 5a a7 66 3d bb f3 45 bc a5 7e 14 3f
       0.843618 0.056311943 -0.012082036 0.58005744
0000f0 7c 04 2c 3e 1f 04 f1 bd d5 f4 c2 bc 3a 09 26 3d
       0.16798586 -0.11768364 -0.023798386 0.040536143
000100 1c 92 3b 3c 10 80 62 be d6 86 32 be 55 92 8b 3e
       0.011448409 -0.22119164 -0.17434248 0.2726008
000110 26 7f 10 bd c8 a3 9a 3c b8 24 d7 3e ca ea 50 3e
       -0.03527751 0.018876925 0.42020202 0.20402065
000120 60 35 e8 bd b4 87 e8 bb 2f 2f 1e 3c b2 5a ae bb
       -0.113383055 -0.007096255 0.009654804 -0.0053208703
000130 84 08 a4 3d ca 68 37 3c 3d 97 e0 3d 49 61 23 3e
       0.08009437 0.011194417 0.109663464 0.1595508
000140 7d 06 49 3b ba a0 14 3c 2e 8c d2 3c b9 99 5f 3e
       0.0030674033 0.009071523 0.025701609 0.21835984
000150 96 63 71 be 2e f1 0f bc 19 c0 93 be 2e 6d 09 3a
       -0.23573145 -0.008785529 -0.28857496 0.00052424043
000160 f1 3d 83 3b 8a 16 94 3d 96 41 ff bc ef b5 79 be
       0.0040051867 0.072308615 -0.031159203 -0.24385808
000170 d4 9f 92 3d 5e b2 52 3e 02 49 95 ba ef d8 8f 3c
       0.07159391 0.20575854 -0.0011389556 0.017559497
000180 b8 25 8e 3e 3a d0 ec bd b2 a1 6d 3e bc fd af 3c
       0.27763152 -0.115631536 0.23206213 0.021483295
000190 16 95 cd be 6e 3b 98 b8 24 27 a6 bd 11 71 79 be
       -0.40152806 -7.2589944e-05 -0.08112934 -0.24359538
0001a0 e9 e9 27 bc ef 3e dd 3c 12 99 83 3d bf bc 01 bf
       -0.01024864 0.027007548 0.0642568 -0.5067863
0001b0 c6 5e 64 be 4e a5 1d 3f 1c db 9f be ea 23 c2 3d
       -0.22301778 0.6158036 -0.31221855 0.09479506
0001c0 d0 93 80 3e af b6 2e be 13 f0 2b be 8e b5 34 ba
       0.25112772 -0.17061876 -0.167908 -0.0006893509
0001d0 9f 0d 7b be ac c1 17 3e 0a 40 63 be 31 05 61 be
       -0.24516915 0.14819974 -0.22192398 -0.21974637
0001e0 e6 d5 ec bb 4a e9 c5 3b e1 3e 56 be 9e 91 b3 3b
       -0.007227647 0.006039773 -0.20922424 0.0054800054
0001f0 5f bd d9 bb 44 dd 1f bf 1f 6d 08 bf b4 40 f1 bd
       -0.0066448892 -0.62447 -0.53291506 -0.11779919
000200 27 cc 51 3e 4f b1 dc 3d f7 5b 4e 3c ae a5 85 be
       0.20488034 0.107760064 0.012595168 -0.26102966
000210 20 92 71 3e d9 75 32 3f e4 78 38 be 9e 53 f9 3b
       0.23590899 0.6971107 -0.18014866 0.007608845
000220 c7 41 1f 3e 95 b1 a1 3b c2 64 03 3e 86 f9 2b 3c
       0.15552436 0.0049344995 0.12831405 0.010496503
000230 69 ad 9e be a1 0f 8f 3d 1a 4b 25 be 62 64 90 3c
       -0.30991676 0.06985403 -0.1614193 0.017625991
000240 75 8d 0e be c5 c1 47 bf 1f 73 1a bc fc a0 b6 bd
       -0.13921149 -0.78030044 -0.009426861 -0.08917424
000250 66 a2 a5 3e e3 27 18 3d b6 3b 9c 3d f6 53 06 bc
       0.32350463 0.037147414 0.076285765 -0.008198729
000260 76 30 26 3d bc 06 41 be 1c e9 24 bf df d9 70 3e
       0.04057356 -0.18850225 -0.64418197 0.23520611
000270 ec 83 42 be 15 0d 64 be 2d 64 c7 bd 28 82 cb be
       -0.18995637 -0.22270615 -0.09735904 -0.3974774
000280 83 28 f5 bd e7 c3 18 3c 7a 66 3d 3e 26 8c df bd
       -0.119706176 0.0093240505 0.18496123 -0.10915403
000290 7e 7f 92 3e aa d6 59 3d 34 3a 1c bc 8e cd 87 3d
       0.28612894 0.053183235 -0.009535361 0.06631003
0002a0 cc 69 9d bd ab ad f3 be 82 c2 f2 bd 46 5f 11 3e
       -0.07686195 -0.47593436 -0.11853506 0.141965
0002b0 f3 84 0e 3a f4 90 94 be 3c 02 d2 3d 3e 37 22 b9
       0.0005436681 -0.2901684 0.102543324 -0.00015470103
0002c0 a3 ea 73 bd ef 2c b9 be 15 b0 5d 3d 90 1f cb bd
       -0.05954994 -0.36167094 0.054123003 -0.099181294
0002d0 72 3f 06 3f f9 99 f9 bd 9b 4f 8c 3d e4 c9 e5 bd
       0.5244056 -0.12187571 0.06851121 -0.11220148
0002e0 3c d2 49 be 15 ca 86 be 3c 4c 56 bc fa 2c 7f 3d
       -0.19709104 -0.2632605 -0.013079699 0.062298752
0002f0 f9 1c fd b9 12 79 5d be 84 fc 60 3d fe 66 39 3c
       -0.00048277507 -0.21628216 0.054928318 0.011316059
000300 ce 26 ec 3a c8 90 a9 3e 65 4b bb 3e ef 13 67 be
       0.0018016936 0.33118272 0.3658096 -0.22566198
000310 19 7d 13 3c e3 c3 f5 bc 74 45 d9 3e c0 75 07 3e
       0.009001994 -0.030000633 0.424358 0.13228512
000320 48 bf aa 3e a4 43 e2 bb 37 b2 73 3e b6 b4 16 3e
       0.3334906 -0.006905036 0.23798452 0.14717373
000330 a2 14 9a 3d dd e1 c7 3d 24 c9 12 3f 80 20 8d 3e
       0.07523467 0.09759877 0.57338166 0.27563858
000340 43 2b af bd a8 62 97 3a cc 4c 7b 3e 6b 43 0b 3f
       -0.085531734 0.0011549788 0.24541014 0.54399747
000350 f6 05 02 bc 54 85 54 bd 16 f3 e4 3d 74 1b ae be
       -0.0079359915 -0.051884964 0.111791775 -0.3400532
000360 5e 87 a7 3b 5b f4 66 be 1b 44 d4 be 77 23 a5 bc
       0.0051125726 -0.22554152 -0.4145821 -0.020158513
000370 f7 8c a8 bc e2 73 5e 3e b8 f6 d5 bb 30 8a cb 3e
       -0.02057503 0.21723893 -0.0065296553 0.39753866
000380 59 31 95 3c 54 ff 5b 3c 06 62 a4 bb b3 97 0e 3e
       0.018212007 0.013427574 -0.005016568 0.13925056
000390 c1 45 85 be f0 85 d2 3d 13 04 1b 3e 71 16 5e 3e
       -0.2602978 0.10279453 0.15138273 0.21688248
0003a0 db bf cb bc e3 8a 37 3f cc 73 ef bb 13 48 4a be
       -0.024871757 0.716963 -0.0073075052 -0.19754057
0003b0 a0 9b 21 be 28 92 a7 3e c2 41 38 be 0d 6f 00 3c
       -0.15782022 0.32728696 -0.17993835 0.007838977
0003c0 f0 95 4b be d2 2b 3f be c3 96 9c 3d 57 6d dd 3d
       -0.19881415 -0.1866906 0.07645943 0.108118705
0003d0 49 12 f3 3d 7d 29 52 bd 0e e6 65 bd 29 86 74 bf
       0.11868722 -0.051309098 -0.0561276 -0.9551721
0003e0 46 ef f1 3d 97 30 08 bf 17 44 f8 bd aa 42 f0 bd
       0.11813216 -0.5319914 -0.12122362 -0.11731465
0003f0 2a d3 76 be 87 85 84 be b3 42 93 3c d9 23 22 be
       -0.2410399 -0.25883123 0.01797614 -0.15833987

mlp.2.bias f4 [256]
000000 4f 1a 36 be 91 aa 07 be a9 55 79 3e f4 d5 c5 3c
       -0.17783473 -0.1324866 0.24349083 0.024149872
000010 f7 f9 f0 3c 83 32 27 be 85 da 74 3e 34 06 ac bd
       0.029416068 -0.16327862 0.23911484 -0.08399621
000020 61 e0 3a 3e 63 41 d2 3c 23 52 19 bd 9b a1 00 3d
       0.18249656 0.025665944 -0.037431847 0.03140412
000030 57 64 17 be 03 51 17 3e bb 05 4b 3e 07 c2 af be
       -0.1478437 0.14776997 0.19826405 -0.3432772
000040 a8 a6 6a bd 09 53 23 3c b3 fe f9 bd 7d 8b 04 3e
       -0.057287842 0.009968528 -0.12206783 0.12943836
000050 e5 f4 2e 3e d7 11 d1 bc 6c 50 b9 be 05 e1 76 bd
       0.17085607 -0.025521202 -0.3619417 -0.06027319
000060 af 5f ad 3e 15 aa 9f be c9 98 ac 3d f4 83 45 3d
       0.33862063 -0.3118445 0.08427579 0.048221543
000070 68 1c 19 be e0 cd 4c be 78 4b 8b be 31 2c 86 3e
       -0.14952242 -0.2000041 -0.27206016 0.2620559
000080 52 80 27 be ac ee 8a be 35 a4 cc be f5 fc ab bd
       -0.16357544 -0.27135217 -0.3996903 -0.08397857
000090 00 f4 e1 3b 08 29 f7 bd a5 36 ca 3d 0b 70 47 3d
       0.006895542 -0.12068373 0.09873704 0.048690837
0000a0 16 50 38 3d 88 21 be 3d 3c f0 21 3e 6b 37 71 bc
       0.04499825 0.09283739 0.15814298 -0.014722685
0000b0 d4 42 b4 3d da 90 1b bf 99 94 1d bd b3 48 1f 3e
       0.08801809 -0.607679 -0.038471792 0.15555076
0000c0 8d 03 13 3e 91 a4 e4 3d 80 0d 75 bd c6 3f 96 bd
       0.14356823 0.11164201 -0.059827328 -0.073363826
0000d0 c7 91 f9 3d f1 aa 80 3e ad 43 33 be af da 08 be
       0.12186008 0.25130418 -0.17506285 -0.13364671
0000e0 50 97 a5 be 55 a4 9c be 60 72 bd be 3e a4 58 bd
       -0.32342005 -0.30594125 -0.37001324 -0.05289101
0000f0 ae 43 e8 bd 5a f1 b4 bc 56 94 7d 3c be 79 28 be
       -0.11341034 -0.022087742 0.015477261 -0.16452691
000100 bf 65 20 3e ea ea 25 3d be 29 30 3d 21 2a eb bd
       0.15663813 0.040507235 0.04300856 -0.11482645
000110 37 dc 82 be 8b 5d 86 be 98 c0 7b be 19 e7 f1 3b
       -0.25558636 -0.26243243 -0.24585187 0.0073822853
000120 45 80 78 bd 9a aa 68 bd bc ea 2b 3d e5 e9 96 be
       -0.060669202 -0.056803323 0.041971907 -0.29475322
000130 bd bb f1 3d 5f eb 2b 3d 2d 96 25 3c 3e 04 65 3d
       0.11803386 0.041972514 0.0101066055 0.05591225
000140 aa 6b d3 bd bc 14 b3 3d 6f ce 2a 3e be 92 d4 bc
       -0.1032327 0.08744189 0.1668031 -0.025948878
000150 e1 55 2a bd 79 0b 49 be 9b 9e 5b be d7 ad 20 3e
       -0.041585807 -0.19633283 -0.21447222 0.15691315
000160 1e 08 ac 3e 82 e6 08 3e be 13 72 bd 9e ca de bd
       0.33599943 0.13369182 -0.05910086 -0.1087849
000170 ce c0 c2 3d d4 74 51 be e8 43 5a 3e 7e ef 85 bd
       0.09509431 -0.20454723 0.21314967 -0.0653982
000180 5e 1a da 3c 4b 22 ec bd de 12 1f be f9 ce b7 3d
       0.026623901 -0.11529978 -0.15534541 0.08975024
000190 d4 c8 2b be c2 05 a6 3d 6e 0e fb 3c 5a 23 d3 bc
       -0.16775829 0.08106567 0.030646529 -0.025773693
0001a0 97 1d f2 3d 56 f4 0e be 16 23 d6 bd 22 6a 84 3e
       0.1182205 -0.13960394 -0.10455911 0.25862223
0001b0 96 71 35 3e 8f bc 67 3e 62 1a e7 3c fe fd 54 3e
       0.17719111 0.22630523 0.028210822 0.20800015
0001c0 75 ff 27 3e c5 b8 49 bd 56 9d 03 3e 0e 5e 3f 3d
       0.16406043 -0.049248476 0.12852988 0.046720557
0001d0 0c 25 ee bc 04 58 7e bd c7 ed 38 3e 3b 57 ea bd
       -0.0290704 -0.062095657 0.18059455 -0.11442419
0001e0 c7 c8 ea 3d 3b 11 3b be 34 47 05 3d 52 1d 63 3d
       0.114640765 -0.18268292 0.032538608 0.055447884
0001f0 40 9b 05 be 28 1a 58 bd 4d 3e eb bd 6b 64 4b be
       -0.13047504 -0.05275932 -0.11486492 -0.19862525
000200 87 fb bf bd 64 11 b7 bc 99 97 91 3e 40 bd de 3c
       -0.09374147 -0.02234716 0.28435972 0.02718985
000210 33 37 3b 3e 5e 5f 89 be 02 f9 ee bd 00 19 92 be
       0.18282776 -0.26830572 -0.11668588 -0.28534698
000220 c7 3a 90 3d c9 88 98 38 49 66 86 bb cb 19 8b 3e
       0.07042461 7.273403e-05 -0.004101549 0.27168116
000230 71 ef a3 bd 18 23 fd bc df 7b c2 3a 6f 88 9c be
       -0.08004654 -0.030900523 0.0014837942 -0.3057284
000240 b4 91 bc bd 57 d6 87 3c 49 3f 8c 3d 92 ea a4 bd
       -0.09207478 0.016581697 0.06848008 -0.08052553
000250 d6 f1 b0 bd 7b 8c 5b bd b2 00 57 bd 0c db 03 be
       -0.086398765 -0.05360077 -0.052490897 -0.12876529
000260 ef 87 85 3d 54 40 67 3d 10 de bf 3d dd cf b6 3c
       0.06520068 0.056457832 0.09368527 0.022315914
000270 b1 e7 8f be 56 68 0c bd 68 c0 f3 bd d4 06 5f 3e
       -0.28106454 -0.03427919 -0.11901933 0.21779948
000280 43 38 ce bb 27 e8 69 be ce 87 77 bc 12 d7 b5 3a
       -0.006293328 -0.22842465 -0.015108062 0.00138733
000290 ab d7 9b 3e 29 e2 8b bc 2f 70 bb 3c 02 08 00 bd
       0.3043798 -0.017075615 0.022880642 -0.031257637
0002a0 1d d8 51 3d cf e4 b8 bb ab 80 7d be 12 d3 97 3e
       0.051231492 -0.0056425105 -0.24756114 0.2965322
0002b0 ad a3 25 bc db c0 61 3e 0e ed 2d 3e 58 66 0f be
       -0.010109824 0.22046225 0.1698496 -0.14003885
0002c0 0b 15 01 bd ab 99 92 be f9 72 27 bc 4b 4b c7 bd
       -0.03151421 -0.28632864 -0.010220283 -0.09731158
0002d0 26 9f e9 bd 7a c0 43 bc 60 43 e3 3d b8 99 46 3e
       -0.11407308 -0.011947745 0.11096835 0.19394577
0002e0 10 84 63 3e 74 c1 97 be 28 a6 20 be 0e c9 01 be
       0.22218347 -0.2963978 -0.15688384 -0.12674353
0002f0 5f d8 4c 3e 84 b2 e9 bd ed 65 49 3e 18 ee d8 3d
       0.20004414 -0.11411002 0.19667788 0.10592288
000300 e3 02 52 be 10 7e 09 bc 1c b9 3b bd 4d 9a 91 3e
       -0.20508914 -0.008391872 -0.04583083 0.28438035
000310 be 94 40 be 02 34 f2 ba 62 ea ce 3d 71 47 3b 3e
       -0.1880674 -0.0018478634 0.10103299 0.18288971
000320 a6 67 67 bd 3b b4 f5 3d 09 c6 91 3d 3c 42 d7 3c
       -0.05649533 0.11997267 0.0711785 0.0262767
000330 96 c9 19 bc bf af a6 bd 0e 6a d3 3d 4b 78 06 3e
       -0.009386441 -0.0813899 0.10322963 0.13131826
000340 53 d3 81 3b d3 2a 3c 3e 2c e5 49 be 19 8a 53 be
       0.0039619594 0.18375711 -0.19716328 -0.20658149
000350 d8 0f a8 3d 01 74 7e 3c b2 84 a9 be 82 ad 35 be
       0.08206147 0.015530587 -0.3310905 -0.17741969
000360 c5 8c 11 3e 54 16 80 3e ba a5 82 bd c1 fe 75 bd
       0.14213856 0.25017035 -0.06379266 -0.060057405
000370 94 cd 75 bd 98 c5 ad 3e aa 47 8c 3d ac b1 3b be
       -0.060010508 0.33939815 0.06849606 -0.18329495
000380 f5 d7 c0 3c 5b 3a 62 3e 90 34 b0 3e 28 e4 c5 be
       0.023540476 0.22092573 0.34415102 -0.38650632
000390 25 2a bf 3d 66 a2 63 be 60 33 87 3d f3 1d 20 bf
       0.0933421 -0.22229919 0.06601596 -0.625457
0003a0 d1 4b fc 3c 01 0e a4 be 95 1e 25 3e eb b3 f4 3e
       0.03079787 -0.32041934 0.16124947 0.47793517
0003b0 7c 43 b4 bd 0d 4c c4 3d f5 4c 9b 3d 81 96 f1 bd
       -0.08801934 0.09584818 0.07583038 -0.117962845
0003c0 36 0c 83 3c 99 35 64 3e c7 5a 81 bc c2 44 24 bc
       0.015997034 0.22286071 -0.015790356 -0.010026159
0003d0 eb 98 bc 3c 48 29 9b bc 90 e3 b1 bd 4a d8 87 3e
       0.023022136 -0.018940583 -0.08685982 0.26532203
0003e0 15 3f 02 3e 6b 92 b5 bd a1 dc 86 3d 8c c9 b7 bc
       0.12719376 -0.08865818 0.065850504 -0.022434972
0003f0 cc 6d 74 be a2 e5 9c bd dd da 59 be 19 16 46 3e
       -0.23870009 -0.076609865 -0.21274896 0.19344367

mlp.4.weight f4 [3, 256]
000000 9e a5 db 3c d0 b4 ca b9 90 ea 1e be 6a a9 47 b9
       0.02681237 -0.00038663158 -0.15519166 -0.0001904123
000010 8b 93 26 39 b9 da 21 3d cb 28 7f bd c4 7b 33 3e
       0.00015885958 0.03951523 -0.062294763 0.17527682
000020 e2 fe d4 3d 4f 7e 58 b9 dc 7d c2 bd d4 fe ad bd
       0.104001775 -0.00020646419 -0.09496662 -0.0849587
000030 ea 7d c2 3c 9b db 72 bc ee aa 72 be e3 87 8f be
       0.023741681 -0.014822866 -0.23698017 -0.2803336
000040 15 c6 99 bd 2c 58 1d b9 8c e8 13 3b 03 28 08 3d
       -0.07508484 -0.00015005533 0.0022569029 0.033241283
000050 5e 7c a8 bd 33 46 14 3e 1f bc a9 bd 51 61 3f 3d
       -0.08226846 0.14479904 -0.082878344 0.046723668
000060 df 0c dc 3e 0a 94 a9 3e e1 6b 30 3e 12 66 33 bd
       0.4297857 0.33120757 0.17228653 -0.043798514
000070 3f 85 ff 3d 84 e0 df 3d 81 06 fc ba 6d 0f 8f bd
       0.124765866 0.10931495 -0.0019228013 -0.06985364
000080 46 2e ab 3e 37 3a d6 3c 9b 41 d1 3d 91 cd 50 be
       0.3343374 0.026150806 0.102175914 -0.20390917
000090 23 aa 8b 3d aa b1 3c 3e ed 94 1d bd f9 ae a4 bd
       0.068195604 0.18427148 -0.038472105 -0.08041186
0000a0 34 de c7 b9 f1 07 7c be 7c 14 c2 3e ea 63 66 39
       -0.00038121792 -0.24612404 0.37906253 0.0002197173
0000b0 fc 39 1d be ac 0f c1 3e 77 90 6f 3e 45 9a 97 3c
       -0.1535415 0.3770727 0.23394953 0.018506179
0000c0 3f 2c 68 3e 50 ef 31 3e d1 9e 5f be 76 f3 e9 bd
       0.22673129 0.17376447 -0.21837927 -0.114233896
0000d0 1f 91 10 bd 7f 0d 3f 3e e7 5f 38 be b1 3b 72 3d
       -0.03529465 0.18657492 -0.18005334 0.059138957
0000e0 b4 77 e5 bd 7f 09 f9 3d 64 f8 25 3e 50 dc 05 be
       -0.11204472 0.12160014 0.16208035 -0.13072324
0000f0 35 69 8a 3d fd d3 a8 b9 87 cd 3d b9 77 7d c8 3d
       0.06758348 -0.000322014 -0.0001810101 0.097895555
000100 14 0f 2d be bb 73 13 3e 72 25 8e 3e 4d 25 9d 3e
       -0.16900283 0.14399616 0.27762944 0.3069252
000110 aa 16 ec 3b c3 2f 01 3d 97 61 df be 05 86 2d be
       0.00720485 0.03153969 -0.43629143 -0.16945656
000120 f5 26 39 3d 8a d4 13 3e 1a fb 31 39 98 76 e8 bd
       0.045203168 0.14436546 0.00016973578 -0.11350745
000130 67 f7 12 3e 40 64 06 be 57 26 ba bc 2e 78 8f 3a
       0.14352189 -0.1312418 -0.02272336 0.001094585
000140 6f 05 9f bd 94 cd 2a bd fb af 30 3e 27 ff fb bc
       -0.07764708 -0.04169996 0.17254631 -0.030761315
000150 cd 2d ce 39 0c 65 16 bd cb 81 cf bd 50 bb d1 3e
       0.00039325506 -0.03671746 -0.10132178 0.4096322
000160 4f 14 28 3e e8 0a f3 3b ae 58 d6 3b 60 22 81 bd
       0.16413997 0.0074170716 0.006541333 -0.06305385
000170 4c bf bf 3c bb f5 02 bd 7a f1 c7 ba 2c e5 b9 bb
       0.023406647 -0.031972628 -0.0015254461 -0.0056730714
000180 41 d0 71 be 84 0e 46 3e db b6 ba bd a7 6e 9f bd
       -0.23614599 0.19341475 -0.09116908 -0.07784777
000190 16 91 15 3e 86 e9 b1 3c 98 f0 96 bc 52 a0 f7 3d
       0.14606127 0.021717798 -0.01842527 0.120911255
0001a0 2a e0 71 3c be c3 74 bc a7 24 f7 bd ec 7d bd bd
       0.0147629175 -0.014939247 -0.12067538 -0.09252533
0001b0 a3 05 af 3d 4f f7 b9 bd f7 83 d7 bc b4 86 8f be
       0.08545997 -0.090803735 -0.026308043 -0.28032458
0001c0 c7 f7 ed 3b f2 aa 75 3a 9b e7 76 be 68 35 b7 bd
       0.0072622034 0.0009371481 -0.24111788 -0.08945733
0001d0 fb 16 0b 3a 14 d9 99 be 36 92 6f 3e 03 6a 16 3e
       0.00053058536 -0.3004843 0.23395619 0.14688878
0001e0 e9 a3 2b 3e 16 68 25 3b 09 48 46 ba 4f 22 31 3e
       0.16761746 0.0025239042 -0.00075638347 0.17298244
0001f0 63 04 a1 3d fa 89 a2 be 09 3b b8 3d ea b7 8a 3e
       0.07862165 -0.31745893 0.08995635 0.2709344
000200 a4 24 0a 3d 6b c5 92 3e 5b 2a 2e 3e e8 b8 14 3d
       0.03372635 0.28666243 0.17008345 0.036309153
000210 ea d1 66 be 6c cd 70 be 10 5f 83 3d ee 95 b8 be
       -0.22541013 -0.23515862 0.06414616 -0.36051887
000220 24 69 c8 3d 0a 56 96 bd c4 58 13 bd 18 49 44 3e
       0.09785679 -0.073406294 -0.035973325 0.19168508
000230 71 48 03 be ca de fa bc eb 57 00 ba c3 3a 9e be
       -0.12820603 -0.030623812 -0.00048959133 -0.30904207
000240 0b ff fe bc ac 3c 19 3a 64 3f 94 bc 2f 8f 5d be
       -0.031127473 0.00058455276 -0.018096633 -0.21636651
000250 5a 2c 48 3a be 1d 9e 3c 37 97 55 bc 59 f6 1c 3e
       0.00076360034 0.019301292 -0.013036541 0.15328349
000260 b9 08 85 3e 71 5c 76 3e 0c d4 5c 3b b6 37 47 39
       0.25983217 0.24058701 0.0033695726 0.00018998873
000270 4e 27 90 3e 97 68 12 be f3 44 b4 3d f8 3e da bd
       0.28154987 -0.1429771 0.088022135 -0.106565416
000280 bc 2b 7d 3d 1e ab a3 be 11 b5 88 b9 3a cc df 39
       0.061809286 -0.3196649 -0.00026074846 0.00042686035
000290 c6 be 57 3d 54 5c 4b b8 a8 2b 27 38 30 51 2b b9
       0.05267217 -4.848496e-05 3.985656e-05 -0.00016338076
0002a0 f8 b7 b6 bd 84 00 ae 38 f3 cb ca 3c cd e3 2c bd
       -0.08921808 8.2970626e-05 0.024755454 -0.042209435
0002b0 1a 16 6c ba 33 2f 86 bd e4 00 18 be c7 75 0e 3e
       -0.0009005979 -0.06551971 -0.1484409 0.13912116
0002c0 91 b5 7b be 3f 05 95 3e 80 02 12 b8 56 73 6a bd
       -0.24580981 0.29105565 -3.481144e-05 -0.0572389
0002d0 c1 af 1f be f2 db d3 bd a0 31 49 be 0c 07 82 be
       -0.15594389 -0.103446856 -0.19647837 -0.25396
0002e0 42 cb 1d 3d 6b 02 c5 ba e4 3e 36 3d 99 30 f4 bd
       0.03852392 -0.0015030628 0.04449357 -0.11923332
0002f0 8d 0d 2b 3b 44 eb e0 3d 96 83 70 3d 29 49 34 3d
       0.0026100606 0.10982373 0.05871924 0.044015083
000300 20 89 91 3c f2 52 a5 b9 29 9a 8c 3d 3f aa 1d 3e
       0.017765582 -0.00031533052 0.06865341 0.15396975
000310 6c 7c 3d 3d 2c 93 3c ba 89 f4 41 be f1 2a 57 be
       0.046261236 -0.0007193561 -0.18940939 -0.21012475
000320 27 c5 11 39 c0 74 d7 bd 5e 81 40 be fe 8d 83 ba
       0.00013901723 -0.10520315 -0.1879935 -0.0010036824
000330 dc 8e 81 b8 a6 19 18 bd 98 25 f4 bd 97 4c e8 3c
       -6.177809e-05 -0.037133835 -0.11921233 0.028356833
000340 7e b6 0a 38 9c 55 12 be 46 56 b6 3e 45 98 ae bc
       3.3071723e-05 -0.1429047 0.35612696 -0.021312842
000350 61 e1 73 3c 4d aa 78 bc cb 2e 05 be 45 24 b5 bd
       0.0148852775 -0.015177322 -0.13006131 -0.088448085
000360 eb 20 9e 3d c1 0f 5a be f8 b0 55 3e 13 29 50 3d
       0.07721122 -0.21295072 0.2086829 0.05082042
000370 80 4f 8f bd 87 dc 7a 3d fa 7a 15 bd 45 5b 77 3d
       -0.06997585 0.061245468 -0.036494233 0.060389776
000380 3d 50 72 3c 2a 3e 58 be fc 1d 3b 3e 9d 3f 95 3e
       0.014789638 -0.21117464 0.18273157 0.29150096
000390 7c 25 09 be f1 ae 45 3a 44 17 90 3d 8c 16 d9 3e
       -0.13393205 0.0007541022 0.070356876 0.42400014
0003a0 04 71 05 39 e4 0f 8a 3e ad e9 4b 3d 31 44 43 be
       0.0001272597 0.2696525 0.049783397 -0.19068982
0003b0 8e a0 1f 3d f1 49 21 3e d6 5d 64 3d 66 f6 82 3c
       0.038971476 0.15750863 0.05575355 0.015986633
0003c0 8f 42 b5 3c a5 6f 98 3c 7d e9 53 bd cd e3 ce 3d
       0.022126464 0.018607924 -0.051736344 0.10102043
0003d0 08 2e 0c b9 69 61 7c 3d 17 90 f8 3d ea f2 bd bd
       -0.00013368588 0.061616335 0.12136858 -0.09274848
0003e0 24 10 3c 3d c4 73 e3 3b eb 25 3c 3e a6 21 1b 3a
       0.04591383 0.0069412906 0.1837384 0.0005917795
0003f0 5b 90 4b 3d 44 bd 38 bd d4 28 8c 3e 2a 51 80 bd
       0.049698215 -0.045102373 0.273749 -0.06265481

mlp.4.bias f4 [3]
000000 6f a0 82 3c a9 fa 2e 3c 77 62 9a bd
       0.015945641 0.010679879 -0.07538312
