notebooks/training/params/PotentialNet_100_256x256.pt (torch, 280146 bytes, 6 tensors)

mlp.0.weight f4 [256, 3]
0.00037858993 0.0031218277 -0.0022671882 -0.0005833559 0.002704297 -0.0040599327 0.0027948436 0.0005203128
-0.000682927 -0.00033918474 -0.0006777234 -0.0003318217 -0.8338735 -1.6772388 -0.6405565 -0.7564408
-1.7135334 -0.30048245 0.00011535746 -0.002960438 0.00012584659 0.763142 1.2435038 -1.0613313
-0.0016735463 0.00080705096 0.003567391 0.28119656 0.24330434 0.45343393 -1.0488558 0.26176053
-0.40878972 -0.61540616 0.31413987 0.27033484 -0.0014538465 0.0020269286 -0.0021463467 -0.000799728
-3.2221666e-05 0.0015515977 -0.993821 1.6521795 0.34201646 -0.0019545974 0.0027951242 -0.004945935
-1.199612 -0.79132134 -0.9685343 -0.12975359 0.24637374 -0.18965438 0.6214186 0.81267405
0.8617209 0.34066913 1.5211419 0.15909028 -0.0028650973 0.00033323502 -0.0047567515 0.69044906
-0.61430025 -0.5929413 -0.0023306317 0.0015162504 0.0012705091 -0.0055817226 0.0045302687 0.0046614325
0.8921146 -1.3114321 0.44752264 0.40714353 -0.85199004 -0.93811923 0.0011242758 -0.0023898473
0.0035170224 0.5451165 -0.96932906 0.76035595 -0.002036527 -0.0020708619 -0.000120790675 -1.3625232
0.4603383 1.7252234 -1.1810713 -0.38085663 1.5808129 0.7970902 0.8258202 -0.4623981
1.0596689 -0.9845264 -0.82800406 0.0026162332 0.0017265723 -0.0007487624 1.1416881 1.6411722
-0.1586885 -0.48355415 -0.33653393 0.40395495 -0.0021169991 -0.00044474372 -0.00025614144 -0.43408033
-0.3955967 -0.11672257 0.00045114782 0.0030202835 -0.00197726 0.5748372 -0.50108343 -0.023087803
-1.2755256 -0.52217615 -0.6054033 -0.4196711 -2.1424885 -0.40599582 -0.8905788 0.70422935
0.13088588 -0.0028538748 7.787511e-05 0.0008101482 -0.027449217 -0.0077705015 0.010932067 -0.03132068
0.025549838 -0.8074697 0.0026516104 -0.0018760066 -0.0034243802 0.3647748 1.3040649 1.3122661
-0.0027571628 0.0043962444 0.0018435462 -0.3633328 0.34903598 0.4288028 0.54750055 -0.13489644
-1.5413209 0.005558838 -0.003988298 -0.0029453535 -0.00023463792 -0.00060002704 -0.00033591903 1.0040505
0.84712374 0.20411444 0.06701685 -0.3179914 0.5416577 -0.31266454 -0.5437019 -0.16702089
-0.0027261467 -2.1108266e-05 0.0013678214 -0.043994777 -0.067784436 -0.06348209 -0.00092619966 -0.0012025259
0.0037034787 1.591724 -0.7531332 -0.3508864 0.002059627 -0.00061903475 0.00486843 -0.0029119926
0.0012263515 -0.0002712241 -0.15630728 -0.04989957 -0.086557046 -0.0009604249 -0.0017527282 0.0036473635
0.646843 -0.7019606 0.9202651 1.396924 -0.45801976 1.757186 -0.6574508 0.7990686
0.49496764 -0.011342928 0.0076668574 -0.024363605 -0.06343349 0.3975954 -0.9135344 0.0010651314
0.0030651053 0.001263378 0.425119 0.54477 -0.1768203 -0.002020103 -0.0018374722 0.0014611273
1.0515167 -0.027462667 -0.97502756 9.1489346e-05 -0.0003524386 0.000738116 0.0016607828 -0.0012255145
-0.0016219041 0.00019238197 0.0011969045 0.00034253724 0.0011550307 0.0013517108 -0.0038513185 -1.1264672
0.6631114 0.056365177 -0.11950939 1.577166 -1.160675 -1.020597 0.6621962 0.17702892
1.6562616 -0.20364764 1.9874012 -1.2278161 -1.2175882 0.80140907 -0.8152125 0.08755915
1.177314 -0.001548415 0.0011925802 -3.0029623e-06 -0.81262493 -1.1076789 0.86860734 0.0011277001
00000000: 7b7d c639 9497 4c3b 1b95 14bb 5aec 18ba
00000010: 933a 313b 2f09 85bb b229 373b 9a65 083a
00000020: 7506 33ba 9bd4 b1b9 3fa9 31ba 5bf8 adb9
00000030: bc78 55bf c3af d6bf 83fb 23bf 1ba6 41bf
00000040: 1055 dbbf d6d8 99be 11ec f138 e803 42bb
00000050: b0f5 0339 465d 433f 222b 9f3f b4d9 87bf
00000060: e55a dbba 4690 533a e4ca 693b fff8 8f3e
00000070: c624 793e 7e28 e83e e840 86bf 7a05 863e
00000080: e34c d1be 428b 1dbf f1d6 a03e 5469 8a3e
00000090: fe8e beba 38d6 043b b9a9 0cbb d6a4 51ba
000000a0: c025 07b8 fb5e cb3a 0e6b 7ebf 9e7a d33f
000000b0: c81c af3e b418 00bb 672e 373b 8311 a2bb
000000c0: e38c 99bf 0994 4abf ddf1 77bf 20de 04be
000000d0: 6649 7c3e c234 42be 4a15 1f3f 680b 503f
000000e0: be99 5c3f 2f6c ae3e c7b4 c23f 90e8 223e
000000f0: 5bc4 3bbb 0cb6 ae39 86de 9bbb 45c1 303f
00000100: c842 1dbf 00cb 17bf 83bd 18bb ecbc c63a
00000110: 3687 a63a e2e6 b6bb a672 943b eebe 983b
00000120: 9f61 643f 02dd a7bf b021 e53e 1e75 d03e
00000130: 051c 5abf 9528 70bf 705c 933a fc9e 1cbb
00000140: d87d 663b c18c 0b3f f325 78bf b0a6 423f
00000150: 4177 05bb 4cb7 07bb 0051 fdb8 2967 aebf
00000160: 76b1 eb3e 1fd4 dc3f 582d 97bf a4ff c2be
00000170: 1458 ca3f 1a0e 4c3f f468 533f 72bf ecbe
00000180: 3ba3 873f ec09 7cbf 13f8 53bf 1c75 2b3b
00000190: 274e e23a 9848 44ba d622 923f ee11 d23f
000001a0: 3d7f 22be 6994 f7be 2d4e acbe 2fd3 ce3e
000001b0: 5abd 0abb 7e2c e9b9 b94a 86b9 c73f debe
000001c0: a78b cabe 3e0c efbd 0988 ec39 f3ef 453b
000001d0: eb94 01bb 8828 133f 0147 00bf a222 bdbc
000001e0: 6c44 a3bf 56ad 05bf b6fb 1abf 21df d6be
000001f0: 881e 09c0 afde cfbe f9fc 63bf 6048 343f
00000200: f306 063e 1308 3bbb e250 a338 2060 543a
00000210: 2edd e0bc b19f febb 6a1c 333c 1d4a 00bd
00000220: e54d d13c 56b6 4ebf a4c6 2d3b 56e4 f5ba
00000230: 916b 60bb c3c3 ba3e 99eb a63f 56f8 a73f
00000240: 84b1 34bb 5f0e 903b 25a3 f13a c206 babe
00000250: d8b4 b23e 0a8c db3e ff28 0c3f 4b22 0abe
00000260: 014a c5bf ea26 b63b 45b0 82bb d506 41bb
00000270: 2309 76b9 224b 1dba 4a1e b0b9 ba84 803f
00000280: 1add 583f 6003 513e 2140 893d c5cf a2be
00000290: 14aa 0a3f 9115 a0be 0c30 0bbf 8607 2bbe
000002a0: 27a9 32bb a811 b1b7 7848 b33a de33 34bd
000002b0: 91d2 8abd e602 82bd 35cc 72ba 139e 9dba
000002c0: 10b6 723b 9dbd cb3f 56cd 40bf 62a7 b3be
000002d0: cffa 063b b846 22ba 5a87 9f3b 21d7 3ebb
000002e0: 87bd a03a 1533 8eb9 040f 20be 7e63 4cbd
000002f0: d244 b1bd 06c5 7bba cdbb e5ba 9b08 6f3b
00000300: 8197 253f b1b3 33bf 7e96 6b3f 68ce b23f
00000310: 9181 eabe 79eb e03f b24e 28bf c38f 4c3f
00000320: 666c fd3e b0d7 39bc 433a fb3b 2f96 c7bc
00000330: 6be9 81bd a091 cb3e 64dd 69bf e19b 8b3a
00000340: efdf 483b ee97 a53a 33a9 d93e 0c76 0b3f
00000350: 6110 35be b463 04bb 56d7 f0ba 4c83 bf3a
00000360: 1998 863f 63f9 e0bc 689b 79bf f8dd bf38
00000370: 82c7 b8b9 207e 413a a0ae d93a 71a1 a0ba
00000380: 1296 d4ba 24ba 4939 73e1 9c3a 9296 b339
00000390: 6664 973a e32b b13a 6766 7cbb 1430 90bf
000003a0: abc1 293f 2cdf 663d 57c1 f4bd 93e0 c93f
000003b0: 0091 94bf eca2 82bf b185 293f 1247 353e
000003c0: 6100 d43f 0289 50be 2a63 fe3f 1429 9dbf
000003d0: eed9 9bbf 2529 4d3f c4b1 50bf 3652 b33d
000003e0: 3ab2 963f 30f4 caba 5a50 9c3a 8086 49b6
000003f0: 3008 50bf 6cc8 8dbf 0d5d 5e3f 56cf 933a

mlp.0.bias f4 [256]
-0.00015833347 -0.00015702794 0.0006881694 -0.00011436852 0.08402991 0.10987318 -5.985523e-06 -0.101182505
0.00024312138 0.026343184 -0.06244015 0.035344094 5.9730985e-05 0.0007609186 -0.16083887 -0.00026806394
0.06781161 -0.015446979 -0.055673484 -0.124162205 0.00027912363 -0.052469507 -0.0015392047 -0.0022355379
-0.121531874 -0.06408096 0.00022236258 -0.08212258 -0.0009503298 0.08006922 0.125134 -0.07778435
-0.2165756 0.0008901867 0.16319543 -0.038163804 -0.0007806198 -0.033560425 -0.00033664142 0.046474442
-0.08330005 0.119049005 0.064341605 -0.00061845325 0.0020026471 0.0132951625 0.0025686235 0.103600025
-0.00092181267 -0.016232532 -0.07930479 0.0017992057 -0.0011245902 0.079650566 0.030693749 -0.034224313
-0.0012994462 -0.0039165365 -0.0002697197 -0.12125071 -0.00033513177 -0.000607387 0.005480327 -0.0002849095
-0.04374143 0.14570239 -0.07093028 -0.0008783973 -0.047877666 -0.00038792536 0.042363334 -0.0015051567
-0.069630936 0.0009990991 0.00046325673 -0.0017297541 2.6605776e-05 0.26695216 0.12069558 0.06758184
-0.08079805 0.10744885 0.0592161 -0.0010507203 0.09481926 -0.00040123975 -0.057881784 -0.07088224
-0.06746211 -0.001021808 0.1128888 -0.075538225 -0.0004722347 -0.06756048 -0.16525578 0.00081593136
0.059479073 -0.08895412 0.041966442 0.101577185 -0.00065843645 0.06034041 -0.0010310144 0.00042015576
0.05524507 0.0010117051 -0.006535263 -0.0001458395 3.7318736e-05 -0.0004176944 -0.12239461 0.00016505478
0.085241996 -0.0002846911 -0.05500265 0.00089276663 -0.10073743 -0.01379137 0.048861675 -0.0010982392
-0.04445808 0.03769558 0.11208186 0.07096246 -0.00014024985 -0.00048480727 -0.025777996 -0.10957685
0.04700689 0.002456158 -4.056764e-05 0.1378043 0.0014005265 0.21934731 -0.11867414 0.066343874
0.0028057399 0.00047262752 -0.0024580976 -0.1839623 -0.0014872113 -0.00013189521 0.0001925173 0.10086601
0.021322822 -0.00028859376 -0.0009054097 -0.035513513 0.00044518342 0.07319525 -0.034613 0.10310316
-0.00019239492 -0.06593532 0.0009221593 -7.829835e-05 0.00049791526 0.062206563 2.2995227e-06 -0.0029752185
-0.043457 -0.06538758 -0.058719743 -0.036700174 -0.0015132817 0.066141784 -0.0004883874 0.03596865
-0.00019614899 -0.0005239077 -0.00010309726 -0.00029725832 -0.00063803024 -0.00023055138 0.043466527 0.05461247
-0.040243227 -0.00032195885 -0.08779613 0.00011300526 0.11361885 -0.00057438674 0.00055172463 -0.002024112
0.044848777 0.00037288235 -0.00044549507 -0.006192745 0.000956133 0.012770627 0.00019037617 0.059962116
0.00034019168 -0.0014601832 0.049836386 -0.075856835 0.0671817 0.0015191042 0.039223064 -0.0014036543
-0.00057481835 5.2031304e-05 -0.00077815336 0.04359443 0.20881723 -0.00060799025 -0.13899979 6.10227e-05
0.00073978916 -0.017793665 -0.0007707359 0.15833698 -0.05778244 -0.0006926544 -0.00020668088 0.12716846
0.00038528276 0.0015036914 -0.0004789334 -9.68517e-05 -0.0013971643 0.094442725 -0.018433886 -0.001661309
0.00087685726 -0.089476325 0.14655201 -0.021461096 -0.00040893088 -0.05892548 -0.06862056 -0.0005587654
0.14978854 0.054175578 0.2709997 0.04283865 -0.00041795298 -0.001930468 0.2280923 -0.03659949
0.00036138302 -0.0015929533 -0.00047913718 0.00021517446 0.24215634 -0.1635914 -0.0020374034 -0.0002990626
0.009549835 -0.0036996715 -0.00047251198 0.07923034 0.089347936 -0.066085085 0.0005819423 0.21461378
00000000: 5106 26b9 dea7 24b9 4466 343a 22d9 efb8
00000010: e017 ac3d 3105 e13d 40d7 c8b6 c638 cfbd
00000020: 66ee 7e39 a9cd d73c 3ec1 7fbd f8c4 103d
00000030: a887 7a38 6278 473a f2b2 24be ef8a 8cb9
00000040: d0e0 8a3d 5315 7dbc e109 64bd c148 febd
00000050: 5757 9239 44ea 56bd 24bf c9ba 1a82 12bb
00000060: b4e5 f8bd e13c 83bd 002a 6939 e22f a8bd
00000070: 8e1f 79ba 55fb a33d 2123 003e 674d 9fbd
00000080: fec5 5dbe 6b5b 693a b41c 273e a651 1cbd
00000090: 82a2 4cba a876 09bd 3f7f b0b9 fc5b 3e3d
000000a0: 3799 aabd f7cf f33d 88c5 833d b21f 22ba
000000b0: d83e 033b f4d3 593c 5a56 283b 402c d43d
000000c0: cda5 71ba 16fa 84bc 8d6a a2bd 53d3 eb3a
000000d0: fc66 93ba d61f a33d 7571 fb3c cb2e 0cbd
000000e0: 2e52 aaba 4a56 80bb 2a69 8db9 4b52 f8bd
000000f0: a0b4 afb9 0d39 1fba 5194 b33b e85f 95b9
00000100: 372a 33bd 0233 153e e543 91bd 3f44 66ba
00000110: 5f1b 44bd 7662 cbb9 2d85 2d3d ae48 c5ba
00000120: aa9a 8ebd 34f4 823a 44e1 f239 ebb8 e2ba
00000130: 782f df37 f4ad 883e 3f2f f73d 5968 8a3d
00000140: 7379 a5bd 250e dc3d 958c 723d 53b8 89ba
00000150: 9a30 c23d 7d5d d2b9 7315 6dbd b52a 91bd
00000160: 9329 8abd 30ee 85ba 3e32 e73d c9b3 9abd
00000170: 4596 f7b9 265d 8abd d038 29be 3ae4 553a
00000180: 54a0 733d 942d b6bd 01e5 2b3d b307 d03d
00000190: ec9a 2cba 8127 773d 1a23 87ba 5a48 dc39
000001a0: a848 623d 319b 843a c225 d6bb 7eec 18b9
000001b0: b086 1c38 fefd dab9 06aa fabd 8e12 2d39
000001c0: 5b93 ae3d 9842 95b9 754a 61bd 8e08 6a3a
000001d0: 6d4f cebd 33f5 61bc 2e23 483d cbf2 8fba
000001e0: ad19 36bd ae66 1a3d 2d8b e53d c454 913d
000001f0: 0810 13b9 bb2d feb9 602c d3bc d469 e0bd
00000200: 4c8a 403d 7ef7 203b 2c27 2ab8 921c 0d3e
00000210: df91 b73a 959c 603e 6d0b f3bd 4cdf 873d
00000220: 81e0 373b feca f739 0918 21bb 9d60 3cbe
00000230: 88ee c2ba 5a4d 0ab9 78de 4939 d792 ce3d
00000240: 33ad ae3c 664e 97b9 0459 6dba 9e76 11bd
00000250: 8267 e939 64e7 953d 5cc6 0dbd c027 d33d
00000260: 9ebd 49b9 1909 87bd 10bd 713a 1b34 a4b8
00000270: 8786 023a 4fcc 7e3d 8051 1a36 e2fb 42bb
00000280: f8ff 31bd ece9 85bd 1d84 70bd ec52 16bd
00000290: 4f59 c6ba 5875 873d 2007 00ba dd53 133d
000002a0: 58ad 4db9 da56 09ba ec35 d8b8 56d9 9bb9
000002b0: 7c41 27ba 2ac0 71b9 f509 323d 53b1 5f3d
000002c0: 15d6 24bd 96cc a8b9 75ce b3bd 3dfd ec38
000002d0: 00b1 e83d 7192 16ba 9da1 103a f7a6 04bb
000002e0: 5ab3 373d 6c7f c339 5691 e9b9 83ec cabb
000002f0: 00a5 7a3a e43b 513c b79f 4739 d69a 753d
00000300: c15b b239 9e63 bfba 3d21 4c3d d45a 9bbd
00000310: 8f96 893d ae1c c73a 5da8 203d d3fa b7ba
00000320: 68af 16ba 303c 5a38 fdfc 4bba 1390 323d
00000330: 2fd4 553e 8961 1fba f655 0ebe a0f2 7f38
00000340: 69ee 413a 05c4 91bc 360b 4aba 1723 223e
00000350: 48ad 6cbd 4093 35ba 7ab8 58b9 7338 023e
00000360: c7ff c939 8317 c53a 5a19 fbb9 dc1c cbb8
00000370: 0e21 b7ba 306b c13d a902 97bc 48c0 d9ba
00000380: e5dc 653a 5d3f b7bd bb11 163e 2ecf afbc
00000390: c665 d6b9 d85b 71bd f088 8cbd 1c7a 12ba
000003a0: 2b62 193e 36e7 5d3d 79c0 8a3e 9577 2f3d
000003b0: b320 dbb9 c207 fdba 0791 693e 59e9 15bd
000003c0: 0278 bd39 a5ca d0ba b434 fbb9 74a0 6139
000003d0: d5f7 773e 8184 27be f585 05bb 81cb 9cb9
000003e0: e976 1c3c 3076 72bb 7cbb f7b9 8443 a23d
000003f0: 0dfc b63d 9e57 87bd 7d8d 183a b7c3 5b3e

mlp.2.weight f4 [256, 256]
-0.09401365 -0.229086 -0.0285002 -0.0114859305 0.62424964 0.3881148 0.045118432 0.0040512984
0.025575068 -0.15105252 -0.04894427 1.1068444 -0.10695067 -0.020764822 -0.2852673 -0.6146605
1.662074 -0.24351794 -1.1460205 -0.46029943 -0.10763238 -0.3979237 0.050282538 0.028164582
-1.9545026 0.05725513 0.42356825 -4.0936704 -0.016159385 -0.4717218 -0.11112345 -0.12190401
-0.37722078 -0.022145618 0.74858785 -1.0865035 0.00348078 -0.45038956 -0.13744506 0.3700776
-0.015193624 0.3597419 1.4598553 -0.026124077 1.0304174 2.1606307 -0.018864177 -0.036917794
0.044425003 -0.6241961 0.33484894 -0.031943876 -0.016899498 0.37128904 -0.24840356 -0.54970056
0.011902324 -0.28182086 0.077863894 -0.90419054 0.07468431 0.02533013 1.5504208 0.09466606
-2.1476421 -0.238293 -0.40376568 -0.13752545 0.29180893 -0.016722722 0.8624158 0.04199246
-0.020869777 0.021504318 -0.04198316 0.031208437 -0.13945219 0.67031103 2.9778974 1.6386656
-2.3797305 0.116719924 -0.37719476 0.04381691 0.006131375 -0.10277216 -0.2607996 0.093884565
0.17482829 0.088431165 4.021543 0.18315904 -0.074873365 -0.10905978 -0.49174038 0.9456399
-0.18314697 -3.1003115 1.131751 -0.17632592 0.01164836 -0.027275538 -0.14845122 -0.21750692
-0.24505831 1.0106457 -0.9339817 -0.019080253 0.22585644 -0.0801345 -0.18573752 -0.0440354
0.56486523 0.16791269 0.18861341 0.9419064 -0.29346317 -1.7985233 -0.22925125 0.007578554
0.025920141 2.167079 -0.33461127 0.27051443 -0.037765767 0.023090439 -0.9722002 -0.36183724
0.34708533 0.018415062 0.10876514 -0.12313526 1.1064892 0.23482166 0.26286456 -0.34135464
1.2425117 -0.19026475 0.021660741 -1.4397105 0.030705247 0.118312396 0.023976149 0.77931476
1.6291472 -0.02667368 -0.035601858 -2.2550497 0.46744224 0.06713207 -2.2596467 0.22582394
-0.0011319596 -0.72425187 -0.090925895 0.119078845 -0.30528533 -0.20855683 0.000657864 0.051395915
0.54492503 -0.48378524 -1.2982117 0.16132584 0.024986688 -0.05859911 0.032973714 -0.1121263
0.0039180615 -0.8271934 0.101561785 0.07988421 -0.00807778 0.052692793 -0.27979958 -0.0032693844
0.39748782 -0.13924581 0.16627766 0.09614759 0.029818224 0.08999894 -0.016080355 -0.06954089
-0.32641098 -0.121621706 -0.3479091 0.033518028 -0.028130583 0.35302508 -0.019898575 -0.085128725
0.32723212 0.033981264 2.2586203 -0.42295268 0.6348735 0.004633727 -0.051955055 -0.0027108267
-0.70999086 0.47479594 0.0013273847 -0.09667824 0.22894032 -0.25484022 -0.3868357 -0.06589829
0.04760765 -0.06503857 0.04499659 -0.087009735 -0.08533667 -0.027113069 0.029686717 0.70604056
0.022937499 0.01713791 -0.12528256 -0.003357271 0.007069162 1.4515185 1.0951773 -0.95497525
0.027290905 0.40629706 0.4622637 -0.51128507 -0.13367945 -0.22137238 -0.83463734 0.027030693
0.6206886 0.12988055 0.021958848 -0.06806011 -0.16895767 -0.008283591 0.7668803 -0.28158998
0.19449073 0.04956186 -0.29127327 -0.5971216 0.050684363 0.14478113 0.050259117 0.016888618
0.5418755 0.0060610273 -0.037431113 3.711825 0.9494333 -0.3859374 0.08898577 0.3758116
00000000: 3b8a c0bd 8595 6abe 4079 e9bc 7c2f 3cbc
00000010: d3ce 1f3f fcb6 c63e 1bce 383d c1c0 843b
00000020: ce82 d13c 83ad 1abe c979 48bd 14ad 8d3f
00000030: f408 dbbd fd1a aabc 8e0e 92be 645a 1dbf
00000040: d7be d43f c45c 79be cdb0 92bf 5eac ebbe
00000050: 5e6e dcbd a8bc cbbe 10f5 4d3d 69b9 e63c
00000060: 242d fabf 5b84 6a3d f0dd d83e 59ff 82c0
00000070: b060 84bc 8585 f1be b194 e3bd cfa8 f9bd
00000080: 1523 c1be ba6a b5bc 74a3 3f3f 8c12 8bbf
00000090: cc1d 643b 7699 e6be 66be 0cbe d07a bd3e
000000a0: aeee 78bc 1730 b83e 8adc ba3f 2902 d6bc
000000b0: b8e4 833f c647 0a40 0c89 9abc 1d37 17bd
000000c0: fef6 353d 51cb 1fbf 5271 ab3e 95d7 02bd
000000d0: d170 8abc 9919 be3e 815d 7ebe 2db9 0cbf
000000e0: f701 433c d34a 90be 1b77 9f3d 0879 67bf
000000f0: 16f4 983d 2281 cf3c 3074 c63f 47e0 c13d
00000100: f872 09c0 1503 74be 60ba cebe 79d3 0cbe
00000110: fb67 953e 17fe 88bc 48c7 5c3f 4900 2c3d
00000120: 18f7 aabc d329 b03c 89f6 2bbd d6a8 ff3c
00000130: 8ecc 0ebe 8199 2b3f df95 3e40 cbbf d13f
00000140: 814d 18c0 db0a ef3d ac1f c1be 5c79 333d
00000150: b4e9 c83b 367a d2bd 8687 85be 8d46 c03d
00000160: 3006 333e 661b b53d 7bb0 8040 0b8e 3b3e
00000170: 3557 99bd bc5a dfbd 65c5 fbbe 7515 723f
00000180: e18a 3bbe 816b 46c0 37dd 903f c88e 34be
00000190: c3d8 3e3c f370 dfbc 9903 18be 22ba 5ebe
000001a0: 91f0 7abe d75c 813f 6d19 6fbf 314e 9cbc
000001b0: e946 673e 8f1d a4bd fa31 3ebe 775e 34bd
000001c0: 029b 103f 4ef1 2b3e e023 413e c720 713f
000001d0: ce40 96be 0336 e6bf d7c0 6abe 8555 f83b
000001e0: 7a56 d43c 6cb1 0a40 2b52 abbe de80 8a3e
000001f0: 47b0 1abd 2928 bd3c 1de2 78bf bb42 b9be
00000200: 2bb5 b13e 2fdb 963c 42c0 de3d 572e fcbd
00000210: 70a1 8d3f 1775 703e 2f96 863e 09c6 aebe
00000220: a00a 9f3f c3d4 42be de71 b13c 6f48 b8bf
00000230: 9289 fb3c c54d f23d a169 c43c 2c81 473f
00000240: e587 d03f c382 dabc 41d3 11bd bc52 10c0
00000250: 9754 ef3e 8a7c 893d 0d9e 10c0 643e 673e
00000260: 435e 94ba 9268 39bf 5b37 babd 9cdf f33d
00000270: 5c4e 9cbe ec8f 55be 8174 2c3a 8684 523d
00000280: 3580 0b3f b3b2 f7be cd2b a6bf 9a32 253e
00000290: e2b0 cc3c 9f05 70bd 720f 073d 79a2 e5bd
000002a0: 1563 803b f2c2 53bf a0ff cf3d 559a a33d
000002b0: aa58 04bc 66d4 573d e441 8fbe 2b43 56bb
000002c0: 8683 cb3e 7496 0ebe b144 2a3e 07e9 c43d
000002d0: 5945 f43c 5d51 b83d f3ba 83bc 746b 8ebd
000002e0: 571f a7be cd14 f9bd 2421 b2be 334a 093d
000002f0: 1c72 e6bc b4bf b43e 5602 a3bc f857 aebd
00000300: f88a a73e f02f 0b3d 3c8d 1040 418d d8be
00000310: 1287 223f 85d6 973b d3ce 54bd 20a8 31bb
00000320: f6c1 35bf 7418 f33e a4fb ad3a 3eff c5bd
00000330: 556f 6a3e 6b7a 82be 540f c6be aff5 86bd
00000340: 3d00 433d f132 85bd 584e 383d 2932 b2bd
00000350: fec4 aebd 3a1c debc 8f31 f33c 13bf 343f
00000360: 6ce7 bb3c cd64 8c3c 124a 00be a905 5cbb
00000370: 6ea4 e73b 5ccb b93f c52e 8c3f 4279 74bf
00000380: 2d91 df3c 2b06 d03e d4ad ec3e 94e3 02bf
00000390: 44e3 08be 71af 62be cbaa 55bf 796f dd3c
000003a0: 73e5 1e3f 68ff 043e 0be3 b33c 1963 8bbd
000003b0: 3d03 2dbe e6b7 07bc 4452 443f 902c 90be
000003c0: 9428 473e 6001 4b3d c521 95be f6dc 18bf
000003d0: 689a 4f3d 8141 143e 81dc 4d3d 005a 8a3c
000003e0: 5ab8 0a3f 959b c63b 5e51 19bd 8a8e 6d40
000003f0: 100e 733f 9699 c5be 2c3e b63d 616a c03e

mlp.2.bias f4 [256]
0.6350316 0.018077685 4.9397597 -1.2177436 2.2498505 -0.24157277 0.86432713 -5.311467
-5.322868 0.5789355 -5.329428 4.8934836 0.24791764 -0.489379 -0.20907511 2.3123336
-5.2424574 -5.7423563 0.3473 0.50412977 -0.6020409 0.3188038 4.986194 2.2442434
4.897298 -5.3967967 -4.7662005 0.3054273 -2.247942 0.77175754 0.18952796 -5.611965
0.6499989 5.363809 -0.39238864 0.19299023 0.32301018 4.860922 0.36604956 0.8362248
2.2676892 0.09841201 -5.4333453 0.80270493 -0.90307224 -0.9102924 0.4534486 4.978062
-0.77840006 0.68244183 1.5699601 0.42860135 0.66063553 0.27000943 0.5784508 0.91187483
-0.42752364 -4.938609 -5.4492984 1.0918227 -0.35132158 -0.71073085 -5.7344327 -2.3109803
-4.998628 0.6376842 -5.2093368 0.6527153 2.273106 -0.2537342 0.9190357 -5.093869
0.23480669 2.3126514 -0.66784626 0.7429398 -2.265084 0.2537193 5.0437665 0.42176512
0.55298364 -0.4564604 -0.89376634 2.1496663 -2.262844 0.75273466 -0.90720934 -0.6945805
5.4061885 -4.842275 -0.5199688 0.18190892 -1.0035862 5.452964 5.400924 0.7315067
2.330459 -0.43380108 2.203222 -0.73442566 -2.291629 -5.058971 -0.11740833 -0.38006893
5.6133957 0.13706705 4.9744024 4.970458 -0.5812485 2.2852733 -0.54922783 5.0635705
2.2872498 0.589799 -4.99862 -5.1548014 5.5142 -0.62589717 -0.37528014 0.49529785
-0.27519456 0.47076562 -0.30031398 5.1682534 -4.9456263 -4.9137173 5.877823 -0.5455207
-4.8715124 1.4554244 -0.48707935 -0.83582103 0.25018495 0.7693696 -0.19893861 -1.004663
-0.22674432 -2.3103268 -2.257517 0.7164023 -5.7702956 4.985478 -1.106298 5.692615
-0.49979636 0.315625 0.783906 0.5413232 -5.9984813 0.4997807 0.38787192 -0.6245056
-5.7724385 5.7073317 0.139309 -0.40033266 -0.65415275 2.2625635 0.2785742 -4.947746
2.2272735 -5.226703 -5.06524 -0.52818274 -4.991575 -0.18246876 0.69577223 -2.2622495
-1.5295845 -5.3896766 -0.8700099 -0.17372262 5.5847697 -0.5679499 5.0827804 0.7019652
0.28600788 -0.26243153 -0.55842984 -5.1034346 -4.8155956 0.72034353 5.200087 5.492682
0.67616796 -1.0281385 5.1617165 -5.199519 0.43601537 -5.1115885 0.123514034 -0.27680415
-5.5565133 -0.4277238 -4.983553 -5.27619 -0.19414598 0.5123992 2.2405722 -0.26149443
5.373948 0.9028602 -0.84334826 2.0533135 1.1220963 -5.282499 -0.08220998 2.3331156
-0.28867176 -2.3129408 -5.1084785 2.2371795 5.3264737 -0.56423426 4.8276715 4.8877063
5.7243505 0.76204574 -0.45082226 5.4903026 -5.3441343 5.0547237 1.0066487 -5.551687
-0.4890923 -5.510654 0.59829235 0.19292158 5.134271 2.2906783 0.27333862 -0.15556066
-0.6904336 -0.45155767 0.8936171 0.3358751 5.8359265 5.099529 -5.0386853 0.46496662
-2.271602 -0.5323154 5.75727 0.72030956 -1.0247406 0.9962253 -0.605551 0.61878145
0.4946477 1.039743 -5.227358 0.29594836 5.3041935 4.8244967 1.3926333 -5.054617
00000000: 6e91 223f a717 943c 8312 9e40 06df 9bbf
00000010: 8dfd 0f40 da5e 77be 8b44 5d3f 8af7 a9c0
00000020: ef54 aac0 1e35 143f ad8a aac0 6b97 9c40
00000030: 1fde 7d3e e28f fabe c917 56be 46fd 1340
00000040: 36c2 a7c0 62c1 b7c0 4ed1 b13e a60e 013f
00000050: 5a1f 1abf 403a a33e e78e 9f40 afa1 0f40
00000060: aab6 9c40 8fb2 acc0 b784 98c0 f860 9c3e
00000070: 48de 0fc0 e791 453f 9e13 423e 3895 b3c0
00000080: 5466 263f 53a4 ab40 2ae7 c8be 3b9f 453e
00000090: 9761 a53e ac8c 9b40 d96a bb3e d412 563f
000000a0: d221 1140 3c8c c93d f7dd adc0 127e 4d3f
000000b0: be2f 67bf ec08 69bf 6a2a e83e 494c 9f40
000000c0: 3a45 47bf 82b4 2e3f 74f4 c83f a371 db3e
000000d0: 691f 293f ad3e 8a3e 5a15 143f a170 693f
000000e0: 61e4 dabe 1609 9ec0 a760 aec0 d9c0 8b3f
000000f0: 6ce0 b3be 75f2 35bf 7980 b7c0 1ae7 13c0
00000100: c3f4 9fc0 463f 233f e3b2 a6c0 5a18 273f
00000110: 927a 1140 73e9 81be ec45 6b3f fa00 a3c0
00000120: 2a71 703e 7b02 1440 f9f7 2abf 4d31 3e3f
00000130: 23f7 10c0 7fe7 813e 8966 a140 99f1 d73e
00000140: 5690 0d3f 2db5 e9be dfcd 64bf 2294 0940
00000150: 70d2 10c0 38b3 403f df3e 68bf 07d0 31bf
00000160: 7fff ac40 ebf3 9ac0 ad1c 05bf 5546 3a3e
00000170: 8375 80bf ae7e ae40 5fd4 ac40 0644 3b3f
00000180: 3e26 1540 2d1b debe 9701 0d40 5203 3cbf
00000190: 0daa 12c0 17e3 a1c0 c773 f0bd 6598 c2be
000001a0: f0a0 b340 4e5b 0c3e 4e2e 9f40 fe0d 9f40
000001b0: b4cc 14bf eb41 1240 329a 0cbf c508 a240
000001c0: 4d62 1240 11fd 163f b2f4 9fc0 22f4 a4c0
000001d0: 5474 b040 cc3a 20bf b824 c0be ae97 fd3e
000001e0: 4de6 8cbe 3108 f13e c1c2 99be 5562 a540
000001f0: 9242 9ec0 2c3d 9dc0 2017 bc40 3fa7 0bbf
00000200: 6ee3 9bc0 594b ba3f 7762 f9be 5ef8 55bf
00000210: 3e18 803e 68f5 443f 90b6 4bbe cc98 80bf
00000220: aa2f 68be 65dc 13c0 297b 10c0 2466 373f
00000230: 43a6 b8c0 0989 9f40 2c9b 8dbf e729 b640
00000240: 4fe5 ffbe 9a99 a13e 10ae 483f 2894 0a3f
00000250: 8ff3 bfc0 42e3 ff3e 2697 c63e 99df 1fbf
00000260: d1b7 b8c0 76a2 b640 05a7 0e3e 67f8 ccbe
00000270: 8e76 27bf d7cd 1040 47a1 8e3e ef53 9ec0
00000280: a68b 0e40 2741 a7c0 7216 a2c0 fc36 07bf
00000290: fbba 9fc0 17d9 3abe 211e 323f b2c8 10c0
000002a0: 6dc9 c3bf 3b78 acc0 f8b8 5ebf 58e4 31be
000002b0: 6fb6 b240 2a65 11bf 23a6 a240 feb3 333f
000002c0: a06f 923e 6d5d 86be 42f5 0ebf 564f a3c0
000002d0: 5c19 9ac0 6f68 383f 1d67 a640 0dc4 af40
000002e0: 5819 2d3f 0b9a 83bf c82c a540 7662 a6c0
000002f0: 683d df3e 2292 a3c0 edf4 fc3d 46b9 8dbe
00000300: f5ce b1c0 9dfe dabe 4479 9fc0 8cd6 a8c0
00000310: 34ce 46be 982c 033f 8965 0f40 99e2 85be
00000320: 62f7 ab40 d921 673f ace5 57bf 7d69 0340
00000330: daa0 8f3f 3b0a a9c0 b55d a8bd c451 1540
00000340: c9cc 93be 3907 14c0 a878 a3c0 f32d 0f40
00000350: 7972 aa40 a871 10bf 497c 9a40 1768 9c40
00000360: e12d b740 6e15 433f 2dd2 e6be 8fb0 af40
00000370: 2603 abc0 4cc0 a140 ddd9 803f 6ba7 b1c0
00000380: 4e6a fabe 4757 b0c0 b029 193f 3c8d 453e
00000390: f34b a440 799a 1240 0af3 8b3e 4b4b 1fbe
000003a0: 42c0 30bf 9132 e7be 17c4 643f d2f7 ab3e
000003b0: e9bf ba40 572f a340 e93c a1c0 1b10 ee3e
000003c0: ed61 11c0 d245 08bf 8e3b b840 3566 383f
000003d0: b32a 83bf 9f08 7f3f 6405 1bbf 7668 1e3f
000003e0: 7742 fd3e 4c16 853f 8446 a7c0 8b86 973e
000003f0: f4bb a940 4762 9a40 cf41 b23f 6cbf a1c0

mlp.4.weight f4 [9, 256]
-0.12398732 -0.022105519 0.004212605 -0.08471501 0.017463386 0.37820426 -0.12593444 -0.0035363405
-0.0031723494 -0.16627733 -0.0040737335 0.0042550266 0.035517585 0.1653584 0.46323663 0.017193412
-0.0040628784 -0.0026517976 -0.3262806 0.025891444 0.15411986 0.22202775 0.004088799 0.017640503
0.0040960605 -0.0027866166 -0.0044067577 0.08087052 -0.018078571 0.2789404 -0.037993405 -0.0015763467
-0.15154779 0.002374573 -0.054732375 -0.09814901 0.3572462 0.003991027 0.29233503 -0.13133276
0.016813848 -0.057224154 -0.0016533146 0.24458586 -0.22895479 0.1295387 -0.15934728 0.0037490271
0.013491633 0.34212157 0.098104596 -0.15580331 -0.15989727 0.27501813 -0.16463833 0.22325352
-0.03870817 -0.0050330358 -0.0021306158 0.047738943 0.33534557 0.14954838 -0.0013285343 -0.017317545
-0.0038779178 0.18859121 -0.004739778 -0.22854786 0.017284006 0.35500517 0.18975846 -0.0042478773
0.0011950294 0.017615413 0.15694693 -0.11820469 -0.01772093 0.13045596 0.0034799543 -0.18757851
-0.18717001 0.029817972 -0.25492007 0.01898418 -0.01759952 0.058286443 -0.21862972 0.062589
0.0023894946 -0.004128045 0.19932798 0.5385496 -0.2286854 0.0020866375 0.0026872004 -0.14210069
0.017171348 0.17664605 0.017539265 0.077746965 -0.018429523 -0.0041491506 -0.10940587 -0.19650973
0.001617545 0.07736042 0.0038107454 0.00397798 0.16212395 0.018303404 0.15397911 0.004526887
0.01730605 -0.16700341 -0.0036133113 -0.005047044 0.002441887 0.14777009 -0.51629776 -0.18255052
0.03718105 -0.21819244 0.007886987 0.00397609 -0.0034263905 -0.0036904516 0.00081672426 0.1710011
-0.0045441235 0.15716286 0.18101779 -0.08647589 0.19338238 0.25295705 -0.17869072 -0.17678477
0.05784642 -0.017672699 -0.018102238 0.26499635 -0.0017033574 0.0043239733 0.09829933 0.0015841157
0.16955669 0.038318656 0.25807333 -0.0801286 -0.00069164427 -0.17129874 -0.12976961 0.24363866
-0.001948431 0.0019774518 -0.19822212 0.17537276 0.14938039 0.018060124 0.0028506177 -0.004009129
0.017900892 -0.003793146 -0.0032793875 0.1588007 -0.0037862535 0.36050808 -0.15142517 -0.017985282
-0.023036629 -0.0022779808 -0.15224005 0.17835033 0.0015958329 -0.17077637 0.004315982 -0.12830697
-0.05523371 -0.06974981 -0.09801777 -0.004144047 -0.0048352634 0.24065857 0.0044960165 0.002369739
0.21095984 -0.19375029 0.004008796 -0.004295048 0.36440054 -0.0038936008 -0.0492943 0.04617191
-0.0019463492 0.16485818 -0.003986087 -0.003860999 -0.20496672 -0.18218428 0.018484108 0.34444228
0.0023143997 0.23386016 -0.5021394 0.019311188 -0.12032002 -0.0032673609 -0.01254305 0.017284283
-0.044259295 -0.01768897 -0.0038740532 0.01716237 0.0027209101 0.1399558 0.004569764 0.004106381
0.0025477149 -0.16382785 0.054957837 0.001943199 -0.0030385107 0.0042882985 -0.12555547 -0.0020538494
0.17755614 -0.0020203108 -0.16573529 -0.0728942 0.004077042 0.017637473 -0.043308012 -0.103061184
-0.30118728 -0.09696992 -0.20159478 0.19409372 0.001020853 0.0038063272 -0.003606827 0.36143968
-0.016666405 0.1377503 0.0018652083 -0.14342438 -0.19049133 -0.4094883 0.41023543 0.33814237
-0.16915709 0.20629 -0.003624388 0.52305895 0.0032817516 0.0043078572 0.15364401 -0.00408605
00000000: 10ed fdbd a216 b5bc e409 8a3b 107f adbd
00000010: 600f 8f3c fda3 c13e f5f4 00be f3c1 67bb
00000020: 31e7 4fbb 9b44 2abe f47c 85bb c06d 8b3b
00000030: e37a 113d b653 293e 5a2d ed3e 33d9 8c3c
00000040: e521 85bb c8c9 2dbb 400e a7be 4b1a d43c
00000050: 99d1 1d3e 3e5b 633e 55fb 853b d182 903c
00000060: 3f38 863b ab9f 36bb 9066 90bb 719f a53d
00000070: 8319 94bc 47d1 8e3e f99e 1bbd 6b9d ceba
00000080: 582f 1bbe b99e 1b3b 0e2f 60bd 5902 c9bd
00000090: f9e8 b63e 29c7 823b f0ac 953e 187c 06be
000000a0: 32bd 893c e063 6abd 08b4 d8ba b774 7a3e
000000b0: 2073 6abe cba5 043e ef2b 23be 3db2 753b
000000c0: 030c 5d3c 8f2a af3e 10eb c83d e78a 1fbe
000000d0: 1cbc 23be 2dcf 8c3e f396 28be 929c 643e
000000e0: 758c 1ebd 2aec a4bb cda1 0bbb e989 433d
000000f0: 6ab2 ab3e 3623 193e 3722 aeba 86dd 8dbc
00000100: aa24 7ebb 0e1e 413e 2450 9bbb 7308 6abe
00000110: 3097 8d3c 3dc3 b53e 0b50 423e c731 8bbb
00000120: 88a2 9c3a 334e 903c b2b6 203e 4d15 f2bd
00000130: 7c2b 91bc 3f96 053e f20f 643b 9514 40be
00000140: 7fa9 3fbe d244 f43c e284 82be b684 9b3c
00000150: de2c 90bc c4bd 6e3d 78e0 5fbe a92e 803d
00000160: 1199 1c3b 8d44 87bb a21c 4c3e 63de 093f
00000170: 812c 6abe f8bf 083b be1b 303b d882 11be
00000180: edaa 8c3c b4e2 343e 81ae 8f3c cd39 9f3d
00000190: 83f9 96bc 99f5 87bb 2f10 e0bd d939 49be
000001a0: ce03 d43a 246f 9e3d b3bd 793b b759 823b
000001b0: d203 263e 05f1 953c b3ac 1d3e 4856 943b
000001c0: 6bc5 8d3c f102 2bbe 4ecd 6cbb ac61 a5bb
000001d0: 1108 203b 0b51 173e 172c 04bf 86ee 3abe
000001e0: 284b 183d d76d 5fbe 6c38 013c dc49 823b
000001f0: 4b8d 60bb 81db 71bb 7019 563a ea1a 2f3e
00000200: dfe6 94bb 4def 203e ba5c 393e 451a b1bd
00000210: 0806 463e 9683 813e b3fa 36be 1107 35be
00000220: 5ef0 6c3d 56c6 90bc 254b 94bc 9aad 873e
00000230: 3143 dfba 1eb0 8d3b 2951 c93d 1aa2 cf3a
00000240: 45a0 2d3e 06f4 1c3d 3022 843e 771a a4bd
00000250: 764f 35ba f068 2fbe 53e2 04be 6a7c 793e
00000260: 7f62 ffba 2398 013b bdfa 4abe eb94 333e
00000270: 2cf7 183e d3f2 933c 6ed1 3a3b 035f 83bb
00000280: e4a4 923c 6e96 78bb feea 56bb a79c 223e
00000290: cb22 78bb 8494 b83e 330f 1bbe df55 93bc
000002a0: 50b7 bcbc 2d4a 15bb d1e4 1bbe 78a1 363e
000002b0: 442b d13a 00e0 2ebe 156d 8d3b e762 03be
000002c0: be3c 62bd fdd8 8ebd 8abd c8bd c9ca 87bb
000002d0: 2171 9ebb 336f 763e 5253 933b a04d 1b3b
000002e0: db05 583e 7a66 46be 385c 833b 79bd 8cbb
000002f0: b592 ba3e c82b 7fbb d2e8 49bd c21e 3d3d
00000300: a41c ffba 95d0 283e b99d 82bb d008 7dbb
00000310: cce2 51be 848e 3abe fc6b 973c bd5a b03e
00000320: 2fad 173b 0a79 6f3e 358c 00bf 7f32 9e3c
00000330: 586a f6bd 3821 56bb 5d81 4dbc c597 8d3c
00000340: 3c49 35bd 75e8 90bc d4e3 7dbb 1998 8c3c
00000350: 4c51 323b 9350 0f3e f5bd 953b d28e 863b
00000360: 90f7 263b 7dc2 27be 781b 613d f0b2 fe3a
00000370: c021 47bb db84 8c3b 9d91 00be e099 06bb
00000380: 47d1 353e 3167 04bb 83b6 29be 8e49 95bd
00000390: b598 853b 767c 903c be63 31bd be11 d3bd
000003a0: 3835 9abe 2a98 c6bd dd6e 4ebe 81c0 463e
000003b0: 24ce 853a 9373 793b 8460 6cbb 9f0e b93e
000003c0: fc87 88bc 6a0e 0d3e 017a f43a d7dd 12be
000003d0: 2910 43be 73a8 d1be 610a d23e ff20 ad3e
000003e0: 8437 2dbe b03d 533e 2487 6dbb 31e7 053f
000003f0: a812 573b ed28 8d3b db54 1d3e 46e4 85bb

mlp.4.bias f4 [9]
-0.0621021 0.03055247 -0.04102868 0.012713566 -0.043080606 0.035377264 -0.022147343 -0.031140462
0.054667257
00000000: c65e 7ebd 2c49 fa3c b00d 28bd 904c 503c
00000010: 4a75 30bd c0e7 103d 586e b5bc 481a ffbc
00000020: c6ea 5f3d
