notebooks/training/params/PotentialNet_100_256x256x256.pt (torch, 543996 bytes, 8 tensors)

mlp.0.weight f4 [256, 3]
0.057047423 -1.1713516 -0.92657673 -0.00821006 2.1385016 1.3688656 0.0036742976 0.0010952478
0.000692305 0.00022025354 0.0039056109 0.0017730808 1.4738292 0.9114193 0.7294249 -1.521428
0.11009001 0.8572414 0.016287953 0.09390127 0.008575358 0.00061159773 0.00061013654 0.005177134
-0.8684473 0.61161494 -0.18223853 0.005284213 0.0014512214 0.0067872773 -0.0010144076 0.0012237336
-0.0014430826 -0.001804547 -0.0018922114 -0.0020617163 -0.89340216 0.67681015 -0.09459421 1.603743
0.98390776 0.2099578 0.9576534 1.121519 -1.078591 0.9200205 -0.20281592 0.40384924
-0.95069295 -1.7521056 -0.11052938 -0.59366196 -1.8623148 1.6973885 -1.97406 1.0102277
-1.3819623 1.0504892 0.22309184 -0.9151189 -0.13480258 -1.8664708 1.0734948 -0.0026188283
0.00027076586 -0.003457503 -1.5676588 0.30831927 0.8649429 -0.04584756 1.8197436 2.382035
0.03845619 -0.2490203 -0.1538703 1.1706275 1.2145679 1.6506002 -1.0659415 0.30688462
-0.98222274 0.5118993 -1.3529545 1.8330089 -0.99090236 1.0144508 -0.74457526 -2.0132105
0.6490733 -1.3388891 0.19931996 -0.30398554 -0.19994387 0.0008347247 0.0009034195 0.0052926256
2.2416565 0.5837825 0.94100225 0.0025299476 0.00237455 0.0016899183 -0.0013368573 -0.0017580286
-0.0004936054 -0.91272944 1.9007593 -0.7471472 -0.5577006 -1.5619473 0.3726376 -0.78643554
1.4559022 2.8996465 0.6243915 0.11431115 -0.8513042 0.56352943 -0.11819219 -0.34785068
0.0023399126 0.0026999835 0.010630185 0.00036633416 0.0010537722 0.0027367705 0.10568957 -0.14593168
0.071692966 -0.0034189578 5.8983933e-05 -0.00012773302 -1.321554 0.6358343 -1.644967 0.0007213175
0.0007572522 0.0049429717 0.19230457 -0.27097362 -0.20838822 0.0016993035 0.0023608492 0.0019524806
-0.60490537 0.5236265 0.30458248 -0.0018459985 0.00177118 -0.00046412123 -0.23568916 -0.09812262
-0.7066527 0.0020078076 6.126032e-05 -0.002178364 -0.00048362554 -0.0013007399 -0.0031995096 0.7091587
0.3941516 1.5754745 1.314542 -0.902955 0.2829377 0.00057439756 0.00045155102 0.0052258587
-0.59830415 -1.4368669 0.23850933 0.0016937244 0.0014625648 0.0013515931 -1.1725978 -0.4028759
-0.011239196 0.000584265 0.0010978209 0.002178255 1.2725476 0.8686481 1.6848303 -0.54873186
0.6202708 -0.2965623 0.0005441028 -0.002463836 -0.002158656 0.0013992589 -0.00083229487 -0.0014376501
0.0009881862 -0.0015518272 -2.5317062e-05 1.375855 1.6322587 -0.5548184 -0.0019238458 0.0011004162
-0.0026192276 -0.014327634 -0.00788934 -0.014299024 -0.0047506583 0.0012676344 -0.004390535 0.00039049285
0.0012493082 0.005480626 -0.2466573 -1.5980912 0.37009335 -2.2183344 1.0944209 0.5624804
-1.017992 1.3746077 0.58264846 0.73393553 -1.6784666 0.8222419 0.00025673295 0.0019674515
0.0034922496 -0.0011380748 -0.0028859926 -0.003097257 0.00940273 1.7990173 -1.7436817 -0.754219
-0.97612053 -0.7393078 0.0013383329 0.0011773204 0.00319017 0.001886863 0.0016618328 0.0010259593
0.00024207629 0.0005761509 0.004415222 0.26551262 -0.5120716 -0.32853281 0.20340165 -0.05906279
-0.06147699 1.7634364 -1.2664776 -0.31582674 0.0027254527 0.001691622 0.0022168262 -0.0031908923
00000000: 8faa 693d d9ee 95bf 2234 6dbf 7d83 06bc
00000010: 36dd 0840 fd36 af3f 7ccc 703b 6b8e 8f3a
00000020: cd7b 353a dcf3 6639 47f5 7f3b b866 e83a
00000030: 6fa6 bc3f c652 693f 97bb 3a3f 27be c2bf
00000040: df76 e13d 2c74 5b3f 506e 853c 4f4f c03d
00000050: a97f 0c3c a153 203a 92f1 1f3a f3a4 a93b
00000060: 9052 5ebf cc92 1c3f bd9c 3abe 3127 ad3b
00000070: e936 be3a cf67 de3b dff5 84ba b065 a03a
00000080: d125 bdba 8d86 ecba 1404 f8ba dc1d 07bb
00000090: 01b6 64bf 6e43 2d3f 9cba c1bd 7347 cd3f
000000a0: 61e1 7b3f 2dff 563e c628 753f ef8d 8f3f
000000b0: 450f 8abf 7786 6b3f faae 4fbe 54c5 ce3e
000000c0: 9d60 73bf ff44 e0bf 3a5d e2bd 3bfa 17bf
000000d0: 5560 eebf 0744 d93f 00ae fcbf 244f 813f
000000e0: 24e4 b0bf 6e76 863f 3072 643e 3b45 6abf
000000f0: b009 0abe 84e8 eebf 4768 893f a6a0 2bbb
00000100: 94f5 8d39 4697 62bb 0ba9 c8bf 06dc 9d3e
00000110: e66c 5d3f a7ca 3bbd 5ced e83f 4373 1840
00000120: 3d84 1d3d 2dff 7ebe 2d90 1dbe 1fd7 953f
00000130: f676 9b3f de46 d33f c570 88bf fb1f 9d3e
00000140: f372 7bbf d50b 033f 9d2d adbf 09a0 ea3f
00000150: c7ab 7dbf 86d9 813f 7c9c 3ebf 71d8 00c0
00000160: ab29 263f b860 abbf 881a 4c3e fea3 9bbe
00000170: 16be 4cbe 6dd1 5a3a 75d3 6c3a c36d ad3b
00000180: 4d77 0f40 c572 153f 86e5 703f 7acd 253b
00000190: 579e 1b3b 4080 dd3a 7d39 afba a76d e6ba
000001a0: 4c65 01ba a3a8 69bf 154c f33f 0a45 3fbf
000001b0: 77c5 0ebf e4ed c7bf 5bca be3e d753 49bf
000001c0: 015b ba3f cf93 3940 1fd8 1f3f f71b ea3d
000001d0: 12ef 59bf 7743 103f bf0e f2bd 7c19 b2be
000001e0: 3859 193b 35f2 303b 3a2a 2e3c 8a10 c039
000001f0: ba1e 8a3a 645b 333b c673 d83d 1d6f 15be
00000200: c3d3 923d 9810 60bb 8465 7738 12f0 05b9
00000210: ae28 a9bf 09c6 223f 478e d2bf cc16 3d3a
00000220: 5682 463a a7f8 a13b 7deb 443e 0ebd 8abe
00000230: b963 55be 2abb de3a 7ab8 1a3b 61ea ff3a
00000240: 14db 1abf 630c 063f 3cf2 9b3e 6ef5 f1ba
00000250: f026 e83a 4c55 f3b9 8058 71be 83f4 c8bd
00000260: 31e7 34bf 6c95 033b e278 8038 e2c2 0ebb
00000270: 1f8f fdb9 977d aaba ddae 51bb 6d8b 353f
00000280: 3dce c93e 26a9 c93f ea42 a83f 0f28 67bf
00000290: 36dd 903e 2b93 163a 27be ec39 ae3d ab3b
000002a0: 762a 19bf 41eb b7bf ca3b 743e f6ff dd3a
000002b0: 88b3 bf3a f027 b13a af17 96bf c045 cebe
000002c0: 9b24 38bc 5c29 193a c2e4 8f3a 0ec1 0e3b
000002d0: d7e2 a23f b95f 5e3f 85a8 d73f b179 0cbf
000002e0: 11ca 1e3f 04d7 97be 1fa2 0e3a 4f78 21bb
000002f0: 3d78 0dbb 5667 b73a 5d2e 5aba 886f bcba
00000300: 0786 813a ae66 cbba fa5f d4b7 041c b03f
00000310: daed d03f 9408 0ebf 8e29 fcba d73b 903a
00000320: 59a7 2bbb 74be 6abc 4a42 01bc 7446 6abc
00000330: 69ab 9bbb c126 a63a 7ade 8fbb 10bb cc39
00000340: d4bf a33a d396 b33b bb93 7cbe 418e ccbf
00000350: e07c bd3e 31f9 0dc0 fc15 8c3f b7fe 0f3f
00000360: 904d 82bf 25f3 af3f 7328 153f 33e3 3b3f
00000370: fed7 d6bf 727e 523f 1d9a 8639 5cf0 003b
00000380: 3ade 643b 742b 95ba ec22 3dbb 5afb 4abb
00000390: e80d 1a3c 3346 e63f f630 dfbf 7f14 41bf
000003a0: 09e3 79bf 4743 3dbf 006b af3a 5150 9a3a
000003b0: 2c12 513b 9e50 f73a dbd1 d93a 7b79 863a
000003c0: dcd5 7d39 d508 173a 91ad 903b 45f1 873e
000003d0: 2017 03bf 7435 a8be 8648 503e d3eb 71bd
000003e0: 4ccf 7bbd 49b8 e13f f01b a2bf 0bb4 a1be
000003f0: 829d 323b 6ab9 dd3a 2c48 113b 4a1e 51bb

mlp.0.bias f4 [256]
-0.06852282 0.12223279 0.0013129726 -0.0011665036 0.09730614 -0.09576329 -0.0062192557 -0.001639582
0.046491653 -0.001353442 -0.00013526411 0.0011953628 -0.05358856 -0.1013697 -0.0903728 0.04633363
-0.12594083 0.09986917 0.10055604 0.07480547 0.10311469 0.0006192933 -0.09777927 0.077194676
0.011413372 -0.08605123 0.072646365 0.049892206 -0.0828446 -0.12387081 -0.017782735 -0.0018481379
0.12194391 -0.0003649278 0.0006496973 -0.15837605 0.08813372 0.10334988 -0.05167663 -0.029994274
-0.0013118191 -0.0003310752 0.009612705 -0.0007976231 -0.101750754 -0.0017714323 -0.015565872 0.00061923085
0.03839389 -4.6061847e-05 -0.031136895 0.00015339573 0.00079102244 0.08303834 0.07979236 -0.001507455
0.08339326 0.00026190185 -0.0608486 -0.0005008317 0.103605054 0.041140996 -0.00026462806 0.0011808238
-0.0001828092 0.15639722 -0.00043185934 0.0019576645 0.00071761385 -0.0020911745 0.08680546 0.15167928
-0.019742785 -0.059266698 -0.0010846325 0.0007062816 -0.10661487 0.065482944 -0.0008887818 0.00031982188
-0.0012554002 -0.030130817 -0.010263901 0.12806587 0.00019483264 5.3468277e-05 -0.08204074 -0.03581895
0.044279937 -0.10395513 -0.014739753 -0.0040341695 0.0005628307 0.0013107335 -0.0006205236 0.0012632504
0.0054783793 0.086084194 -0.07215844 -0.0059599667 0.08722578 0.08843343 -0.0024375124 -0.0003847121
0.02018682 0.00019616919 0.060815457 -0.09887042 -0.059441023 -0.00032787002 -0.17195922 -0.085153505
-0.09454838 -0.001139583 -0.014150955 0.016503684 -0.15955229 0.08274823 -0.023709552 0.10118727
-0.08543029 -0.046282314 0.09590979 0.09127757 0.14259924 0.08044031 0.053928412 4.1067666e-05
-0.056512237 -0.00077696756 0.14376403 0.0020225726 0.00055284076 0.0005244539 0.0017889771 0.075610526
0.12571771 -0.0017262043 -0.018584454 -0.02580722 -7.156641e-05 -0.098873146 7.57299e-05 0.0004640731
0.1426895 -0.014711968 0.0012884751 -0.09945731 0.070704386 -0.0562942 -0.0009077052 -0.07480615
-0.0022141403 -0.039520316 -0.12335359 0.06338083 -0.00034788722 0.118938595 0.0009378694 -0.031863526
-0.056865323 -0.051265314 0.03212359 0.010965351 0.058532406 0.12716238 0.0002968766 -0.00072050537
-0.000103342696 0.044438776 0.09902059 0.063555546 0.009287006 0.09664246 -0.013994996 -0.020969767
0.037486527 0.0005226127 0.0005935124 0.00017795505 0.11685919 0.008520624 -0.0017766409 0.023025176
-0.00042098452 -0.06763292 -0.111567676 -0.0009079255 0.022129776 0.0013314225 -0.052944373 0.047707807
-0.032530393 -0.0008381035 -0.0017338296 0.10567469 0.032316662 0.0015787139 -0.043070488 0.00054196425
0.0007295233 -0.08954991 -0.00039860106 -0.00038884522 0.025704015 -0.108195536 0.0011428139 0.020922488
0.08029022 -0.00043437112 0.00030702294 -0.00014312309 0.00036440784 -0.0012377104 0.025844034 0.037051532
0.09318045 0.092764944 -0.0001584425 0.052586988 0.08651581 -0.0012996577 -0.004288164 -0.072146766
0.09731852 -0.14985472 -0.08051777 -0.020954033 0.13538867 -0.06252605 0.121087946 -0.00045425288
0.11287536 -0.0050200475 -0.014486355 -0.077643156 0.0007922659 0.12742189 -0.0021175607 4.327827e-06
-0.1128404 0.0006875731 -0.055977233 0.09396442 -4.7836656e-05 -0.02566059 0.029852211 0.0013789082
-0.015095965 -0.0018783719 0.0005439768 0.050491676 0.18573377 -0.14447851 -0.021829007 0.081272855
00000000: b155 8cbd 2f55 fa3d 0d18 ac3a 5ee5 98ba
00000010: 7148 c73d 8b1f c4bd e6ca cbbb 3ee7 d6ba
00000020: 086e 3e3d fa65 b1ba afd5 0db9 b8ad 9c3a
00000030: ae7f 5bbd eb9a cfbd 6015 b9bd 55c8 3d3d
00000040: a2f6 00be 3588 cc3d 53f0 cd3d 9c33 993d
00000050: cb2d d33d 1258 223a 7f40 c8bd 3e18 9e3d
00000060: 27ff 3a3c a13b b0bd 9ec7 943d c55b 4c3d
00000070: 6eaa a9bd fbaf fdbd 19ad 91bc 383d f2ba
00000080: bbbd f93d c853 bfb9 7350 2a3a 552d 22be
00000090: 747f b43d 1aa9 d33d e0aa 53bd 8db6 f5bc
000000a0: 58f1 abba 2994 adb9 9b7e 1d3c 9517 51ba
000000b0: b362 d0bd 682f e8ba 0008 7fbc e153 223a
000000c0: e942 1d3d 8832 41b8 cd12 ffbc dad8 2039
000000d0: 9e5c 4f3a 0110 aa3d 2d6a a33d cc95 c5ba
000000e0: 16ca aa3d df4f 8939 623c 79bd 3f4a 03ba
000000f0: e32e d43d 7683 283d c7bd 8ab9 dfc5 9a3a
00000100: 79b0 3fb9 9826 203e 2e6b e2b9 294c 003b
00000110: 401e 3c3a 160c 09bb 10c7 b13d d051 1b3e
00000120: 9fbb a1bc a3c1 72bd 3a2a 8eba c125 393a
00000130: e658 dabd ec1b 863d 23fd 68ba c4ad a739
00000140: 3e8c a4ba e7d4 f6bc ec29 28bc b323 033e
00000150: fd4b 4c39 2043 6038 fa04 a8bd e4b6 12bd
00000160: e15e 353d 6de6 d4bd 017f 71bc 1131 84bb
00000170: ee8a 133a ebcc ab3a a2aa 22ba a693 a53a
00000180: fa83 b33b e94c b03d cec7 93bd d34b c3bb
00000190: 6ea3 b23d 961c b53d acbe 1fbb 2fb3 c9b9
000001a0: d45e a53c c4b2 4d39 a119 793d 937c cabd
000001b0: 6e78 73bd f8e5 abb9 1416 30be f664 aebd
000001c0: 95a2 c1bd 0f5e 95ba 68d9 67bc bc32 873c
000001d0: ad61 23be e777 a93d 893a c2bc 453b cf3d
000001e0: 13f6 aebd 8692 3dbd 5a6c c43d bcef ba3d
000001f0: 8905 123e e4bd a43d 0ae4 5c3d 1240 2c38
00000200: 6079 67bd 69ad 4bba e136 133e 238d 043b
00000210: 84ec 103a 817b 093a 1c7c ea3a b1d9 9a3d
00000220: 25bc 003e ce41 e2ba 6d3e 98bc aa69 d3bc
00000230: ec15 96b8 017e cabd 2ed1 9e38 d64e f339
00000240: 321d 123e 770a 71bc 0de2 a83a 46b0 cbbd
00000250: 76cd 903d bf94 66bd 11f3 6dba f733 99bd
00000260: 1c1b 11bb 0ee0 21bd cfa0 fcbd cfcd 813d
00000270: a264 b6b9 1496 f33d 5adb 753a 5483 02bd
00000280: 9deb 68bd 94fb 51bd 0794 033d 04a8 333c
00000290: adbf 6f3d db36 023e 1aa6 9b39 4ce0 3cba
000002a0: b0b9 d8b8 6f05 363d 4fcb ca3d 6929 823d
000002b0: 8728 183c 7bec c53d 454b 65bc cac8 abbc
000002c0: 798b 193d f2ff 083a f195 1b3a 7299 3a39
000002d0: df53 ef3d 169a 0b3c 2dde e8ba 4b9f bc3c
000002e0: 96b7 dcb9 2183 8abd 987d e4bd d901 6eba
000002f0: 8149 b53c 2083 ae3a 33dc 58bd 4369 433d
00000300: 973e 05bd 2cb4 5bba ab41 e3ba f96b d83d
00000310: 7a5e 043d d9ec ce3a ae6a 30bd 9b12 0e3a
00000320: 7b3d 3f3a f165 b7bd 54fb d0b9 ecdd cbb9
00000330: 3a91 d23c 9f95 ddbd 79ca 953a a365 ab3c
00000340: 336f a43d 4ebc e3b9 ecf7 a039 5013 16b9
00000350: fe0d bf39 ab3a a2ba deb6 d33c 59c3 173d
00000360: 64d5 be3d 8cfb bd3d 9623 26b9 7465 573d
00000370: 332f b13d 4759 aaba ba83 8cbb afc1 93bd
00000380: ef4e c73d 8473 19be 80e6 a4bd cba7 abbc
00000390: 54a3 0a3e a80d 80bd f5fc f73d ca28 eeb9
000003a0: 322b e73d 367f a4bb 2d58 6dbc 6003 9fbd
000003b0: 11b0 4f3a e27a 023e c6c6 0abb c037 9136
000003c0: de18 e7bd 403e 343a 6248 65bd 6b70 c03d
000003d0: 38a4 48b8 2836 d2bc a08c f43c 7bbc b43a
000003e0: 1155 77bc b433 f6ba aa99 0e3a 5cd0 4e3d
000003f0: fe30 3e3e 2df2 13be bfd2 b2bc 6272 a63d

mlp.2.weight f4 [256, 256]
-0.66183615 0.79966706 -0.4454952 -0.47260135 0.6279376 -0.63929665 -0.48325008 -0.5736046
0.7673809 -0.7784412 0.36851177 0.5123124 -0.5272162 -0.70376503 -0.51555103 0.42734408
-0.62479734 -0.03294508 0.83469987 0.63104326 0.57431644 0.71802187 -0.59452385 -0.13572751
0.54866004 -0.64315045 0.82602674 -0.3232372 -0.4369812 -0.43351924 -0.91084355 -0.72969526
0.53671914 -0.4475694 0.49707764 -0.63715017 0.6195366 -0.02285668 -0.47920316 -0.7132892
-0.62707555 -0.3609499 0.46326235 0.36015195 -0.45206094 -0.6119425 -0.7401549 -0.4890499
0.89879453 -0.3694545 -0.2650107 0.29105935 0.51115763 0.49798492 0.53299284 -0.5392819
0.57901603 -0.5723546 -0.6402201 -0.2838688 0.59138834 0.8845559 0.15040296 0.29537046
-0.32070306 0.61026806 0.40188658 0.7205319 0.77831805 -0.74660575 0.5076727 0.9865733
-0.29661995 -0.6926295 -0.66274214 0.332905 -0.13006729 0.7944048 -0.5637304 -0.5113407
-0.45821348 -0.8818544 -0.84969884 0.6167345 -0.4172002 0.5380957 -0.94090885 -0.9651977
0.62103266 -0.6572243 -0.26591885 -0.6430564 0.44889185 -0.3415042 -0.7132024 0.51897544
0.49478763 0.518733 -0.67641056 0.38806838 0.9491473 0.42987907 -0.36382312 0.37195414
0.5585022 -0.2807573 0.5235174 -0.5070795 -0.79655313 0.5004235 -0.87173134 -0.6617905
-0.5719559 -0.5884464 -0.82959235 0.7670503 -0.5609825 0.7080424 0.2902385 0.760508
-0.42790836 0.13375638 0.56430805 0.6890756 0.8697318 0.41715515 0.4898777 0.45057148
-0.86446476 0.6534077 0.52255535 0.5188468 0.14440058 0.61194295 0.6000533 0.4543133
0.4386987 0.20315653 -0.77280855 -0.8051414 0.36910143 -0.9377988 -0.46535963 0.43804458
0.80656654 -0.44371766 0.7568618 -1.0253247 0.24256514 -0.5916604 0.5276478 -0.604461
-0.693443 -0.37667823 -0.5763273 0.63906103 -0.6352828 0.58030415 0.28778312 -0.621368
-0.49204293 -1.028588 0.56760126 0.56798124 0.5459812 0.547216 0.70549905 -0.38627228
-0.51960504 0.7563734 0.6332344 0.9144552 0.7131953 0.8747332 0.52175325 -0.60207844
0.76043814 -0.4013628 0.35279262 -0.31201485 0.80295223 0.72757447 -0.6893011 0.81336564
-0.44380128 -0.7018484 -0.5473244 -0.5763999 0.45101425 0.7939085 -0.45841038 0.8360879
-0.48498678 0.38461253 -0.639362 0.6270014 0.26152733 0.4451328 -0.43842503 -0.46492648
-0.40047342 -0.44800657 0.65602696 -0.41638762 -0.22680326 -0.4912765 0.87461334 0.33900878
0.85787934 0.12829755 0.26195642 -0.2871786 0.2557487 -0.43356192 0.64508396 0.5371653
0.55099106 0.7038844 -0.5111722 0.56716883 0.6553461 -0.34859967 -0.58271784 -0.26984596
0.7087039 -0.86260104 -0.6471845 -0.39613536 0.6366448 -0.8910109 0.88150144 -0.19866729
0.7092709 -0.38733235 -0.8242893 -0.09120963 0.60676795 0.81158364 -0.7263309 -0.5289584
-0.50821036 0.32464966 -0.65043366 0.65648633 0.5636908 -0.3377769 0.82268274 -0.48673105
0.31672832 -0.5576927 0.30317083 0.6763597 0.87236935 -0.9419798 -0.6361468 0.5443232
00000000: 186e 29bf fbb6 4c3f f217 e4be cef8 f1be
00000010: 85c0 203f f2a8 23bf 8e6c f7be c0d7 12bf
00000020: 1373 443f ec47 47bf 93ad bc3e e826 033f
00000030: a4f7 06bf f229 34bf 27fb 03bf d8cc da3e
00000040: b8f2 1fbf 6cf1 06bd e4ae 553f 0d8c 213f
00000050: 6706 133f 48d0 373f b732 18bf 27fc 0abe
00000060: fc74 0c3f 82a5 24bf 7d76 533f 597f a5be
00000070: 00bc dfbe 3cf6 ddbe 0b2d 69bf 4fcd 3abf
00000080: 6d66 093f d127 e5be f680 fe3e 461c 23bf
00000090: f399 1e3f ef3d bbbc 1e5a f5be 1f9a 36bf
000000a0: 0688 20bf 6dce b8be b930 ed3e d665 b83e
000000b0: 8874 e7be 44a8 1cbf cb7a 3dbf c064 fabe
000000c0: 6617 663f 2429 bdbe 7caf 87be bb05 953e
000000d0: 3adb 023f e1f7 fe3e 3872 083f 610e 0abf
000000e0: 653a 143f d585 12bf 77e5 23bf 4057 91be
000000f0: 3a65 173f 4172 623f 3c03 1a3e cc3a 973e
00000100: 3133 a4be 873a 1c3f 14c4 cd3e c774 383f
00000110: da3f 473f 8e21 3fbf d7f6 013f 1190 7c3f
00000120: 92de 97be 2b50 31bf 78a9 29bf 8672 aa3e
00000130: 5c30 05be 1d5e 4b3f a350 10bf 39e7 02bf
00000140: f59a eabe 36c1 61bf dd85 59bf 50e2 1d3f
00000150: 449b d5be a4c0 093f 67df 70bf 3217 77bf
00000160: fffb 1e3f da3f 28bf 8426 88be 589f 24bf
00000170: 27d5 e53e a3d9 aebe 6f94 36bf 93db 043f
00000180: ce54 fd3e b0cb 043f 3e29 2dbf e6b0 c63e
00000190: 51fb 723f 1c19 dc3e 0647 babe c670 be3e
000001a0: 00fa 0e3f 6cbf 8fbe 3c05 063f f6cf 01bf
000001b0: e8ea 4bbf c11b 003f c929 5fbf 1a6b 29bf
000001c0: b46b 12bf 6ca4 16bf 2a60 54bf 695d 443f
000001d0: 8d9c 0fbf 4442 353f 249a 943e a7b0 423f
000001e0: ce16 dbbe 6ff7 083e 7e76 103f 4267 303f
000001f0: bea6 5e3f 5c95 d53e 40d1 fa3e 4eb1 e63e
00000200: 904d 5dbf ba45 273f 30c6 053f 25d3 043f
00000210: bfdd 133e 4ba8 1c3f 189d 193f c19b e83e
00000220: 1e9d e03e 4408 503e c8d6 45bf bf1d 4ebf
00000230: ddfa bc3e 9513 70bf 9e43 eebe 6147 e03e
00000240: 257b 4e3f f62e e3be b2c1 413f d73d 83bf
00000250: ff62 783e 0e77 17bf ed13 073f f5bd 1abf
00000260: 7b85 31bf f8db c0be 308a 13bf 8199 233f
00000270: e5a1 22bf d08e 143f 4f58 933e f911 1fbf
00000280: 0ded fbbe c6a8 83bf 514e 113f 3867 113f
00000290: 6dc5 0b3f 5916 0c3f 969b 343f 7bc5 c5be
000002a0: d604 05bf b0a1 413f a61b 223f bc19 6a3f
000002b0: f893 363f 84ee 5f3f 9f91 053f d021 1abf
000002c0: 13ac 423f 6d7f cdbe 3ca1 b43e 69c0 9fbe
000002d0: 478e 4d3f 5242 3a3f 0976 30bf bb38 503f
000002e0: ec39 e3be 56ac 33bf 741d 0cbf f28e 13bf
000002f0: 57eb e63e 963d 4b3f c4b4 eabe db09 563f
00000300: 3050 f8be efeb c43e 3aad 23bf 2a83 203f
00000310: e9e6 853e 72e8 e33e 3f79 e0be d80a eebe
00000320: da0a cdbe 1e61 e5be 62f1 273f c230 d5be
00000330: 1d3f 68be 9888 fbbe a9e6 5f3f 8f92 ad3e
00000340: fb9d 5b3f 6f60 033e 271f 863e 1309 93be
00000350: 7ef1 823e d4fb ddbe 3924 253f aa83 093f
00000360: c00d 0d3f c531 343f 2edc 02bf fa31 113f
00000370: c3c4 273f a87b b2be ff2c 15bf 4029 8abe
00000380: 9e6d 353f 6cd3 5cbf e2ad 25bf 41d2 cabe
00000390: 27fb 223f 4a19 64bf 14aa 613f 706f 4bbe
000003a0: c792 353f 6d50 c6be a004 53bf 1dcc babd
000003b0: 2555 1b3f f2c3 4f3f d2f0 39bf d169 07bf
000003c0: 131a 02bf 7b38 a63e d282 26bf 7d0f 283f
000003d0: 0a4e 103f 18f1 acbe 569b 523f d034 f9be
000003e0: 372a a23e f3c4 0ebf 3539 9b3e e925 2d3f
000003f0: 9953 5f3f 9725 71bf 84da 22bf c458 0b3f

mlp.2.bias f4 [256]
0.8500285 -0.15479942 -0.053769663 -0.35263592 0.34871954 0.26825806 -0.54266036 1.0530748
-1.4692857 -1.574142 -1.1609509 0.37204352 -0.8879478 -1.189919 1.7244477 -0.08432364
-0.65940183 0.20237724 -1.7959774 1.9321795 -0.13793795 0.9421179 0.6814053 0.5855217
-0.20019986 0.14746699 -1.4221649 -1.0517867 -0.5975244 -1.4167544 -1.0649925 1.3346331
-0.13878776 0.5774427 -1.0735635 -1.6610157 -0.4320415 -0.26714906 0.7106065 -1.3765243
0.611754 0.7639577 -1.5314525 -1.0368031 0.33087406 -0.6729689 0.9414771 -0.99557275
0.8799505 -0.33115098 0.39705303 1.146117 0.2354441 0.50963247 -0.824968 -0.89502394
-0.25648576 -0.847855 -1.4333699 0.42047656 0.5223317 0.96619517 -0.9939153 -0.15013152
-0.33670044 0.9349289 1.030984 -0.6081173 -1.2864197 -0.70794487 -1.0980722 -1.2980376
-0.5239625 -0.16141135 0.9088711 -1.0113804 1.0855982 0.31091782 -1.0530609 -0.07688785
1.0017797 0.90447634 0.8919168 -1.0813844 1.058046 2.0853474 1.4010369 -0.6883176
-0.96453875 -0.8333173 1.1283493 0.7440327 1.0176624 -0.19506522 -0.7452286 -0.97181964
-0.9801367 -1.0103188 0.8138974 0.6749945 1.4341228 -0.43182608 -1.0728794 0.91038936
-0.79636174 -0.50447464 0.86625725 1.1744809 -0.53168815 -0.9822568 -0.1840879 0.8271028
0.72245777 0.23482102 0.2279161 0.6740446 0.7849216 0.23440506 1.1641335 -0.62283427
0.73187643 0.55829567 -0.22667669 -1.0198641 1.44264 -0.57629174 -1.2333729 -0.7607988
-1.1148874 0.01588568 0.6324229 -0.8007435 0.80676895 -1.3768475 1.3465686 -0.8070434
-0.8496097 -0.6363869 0.5808918 -0.29459402 -0.38045797 0.64608616 -0.2848447 0.42964897
1.1325167 -1.0528015 1.2821269 -1.2609587 -0.12567353 1.6529655 1.2675431 0.17333756
0.1992149 2.075746 -0.6985802 -0.28504997 -1.0381635 0.9402145 -1.9594822 -0.7662191
-1.903954 -0.58942634 0.21295477 -0.8717501 -1.364162 -0.8518524 -0.93271154 1.0350274
-0.8691646 -0.96024853 0.6659465 -0.39740166 -0.51781946 1.6310151 0.8142374 0.07794594
-0.8389569 -0.6926793 -0.91018045 -1.1603572 0.85181385 -1.2736988 0.07917362 0.13260014
0.553344 0.6008718 0.7107064 0.69706607 -0.32465458 -1.0511824 2.1829984 -1.1600819
-1.498895 -0.9130406 -0.4004526 0.9448594 0.6177625 1.6382275 -1.1710967 0.11700439
0.26183763 -0.6378153 -0.21184549 1.232107 -0.5931886 0.6333481 0.92255837 -0.7796444
-1.0570929 0.8568081 -0.2522689 -1.2487142 0.44884542 -1.0970181 0.23321407 -0.12702124
1.0518838 -0.18610929 0.6065221 -1.17896 0.75680363 -0.7091745 -0.14893349 0.56373274
-0.3348497 0.3736297 -0.93880534 0.38355696 -0.02962188 0.93675935 0.25143173 -1.1501541
0.79423505 -0.98503184 0.7415016 0.87529886 -0.6231057 -1.2380457 0.8724908 0.75157493
-0.40939477 -0.3658494 -0.93451464 -1.3261437 0.6146022 1.0258625 0.07686981 0.13767822
1.0678202 -0.854757 -1.1578536 -0.6775491 1.6631372 0.5662403 -0.9209893 -1.0062926
00000000: 789b 593f bd83 1ebe 943d 5cbd b28c b4be
00000010: 5e8b b23e 1f59 893e caeb 0abf 28cb 863f
00000020: 8e11 bcbf 7c7d c9bf 0a9a 94bf 7d7c be3e
00000030: 8c50 63bf 444f 98bf b4ba dc3f dfb1 acbd
00000040: 8fce 28bf fb3b 4f3e 96e2 e5bf a851 f73f
00000050: 9b3f 0dbe a42e 713f 9470 2e3f c0e4 153f
00000060: 3101 4dbe 9601 173e 8009 b6bf f2a0 86bf
00000070: 5cf7 18bf 3558 b5bf ad51 88bf 42d5 aa3f
00000080: 611e 0ebe 49d3 133f 876a 89bf 2a9c d4bf
00000090: 8b34 ddbe c3c7 88be 4fea 353f f331 b0bf
000000a0: e99b 1c3f bb92 433f a306 c4bf f7b5 84bf
000000b0: 5368 a93e b147 2cbf a504 713f dbdd 7ebf
000000c0: 7044 613f 9f8c a9be 894a cb3e f6b3 923f
000000d0: 4218 713e 4677 023f 1a31 53bf 4a20 65bf
000000e0: 1a52 83be 060d 59bf aa78 b7bf b448 d73e
000000f0: 88b7 053f 9158 773f 3c71 7ebf 14bc 19be
00000100: 0064 acbe 8057 6f3f 49f7 833f 93ad 1bbf
00000110: 67a9 a4bf e03b 35bf a18d 8cbf 1926 a6bf
00000120: 6822 06bf 0449 25be c7ab 683f ea74 81bf
00000130: e2f4 8a3f 9f30 9f3e b3ca 86bf 6177 9dbd
00000140: 513a 803f c38b 673f a954 643f ce6a 8abf
00000150: 0d6e 873f 5576 0540 2d55 b33f 9535 30bf
00000160: 03ec 76bf 4854 55bf c06d 903f ed78 3e3f
00000170: c342 823f 2dbf 47be 4dc7 3ebf 2cc9 78bf
00000180: 3dea 7abf 2052 81bf 945b 503f 71cc 2c3f
00000190: 5691 b73f 4f18 ddbe 1d54 89bf 470f 693f
000001a0: 5dde 4bbf 4025 01bf 09c3 5d3f 6455 963f
000001b0: b71c 08bf 2f75 7bbf 8a81 3cbe 02bd 533f
000001c0: fef2 383f ec74 703e d762 693e 308e 2c3f
000001d0: 9ff0 483f e107 703e 5402 953f 1172 1fbf
000001e0: 415c 3b3f 77ec 0e3f ef1d 68be e88a 82bf
000001f0: 6da8 b83f db87 13bf 2adf 9dbf b6c3 42bf
00000200: a1b4 8ebf b022 823c 78e6 213f 87fd 4cbf
00000210: 6988 4e3f 8a3c b0bf 5c5c ac3f 659a 4ebf
00000220: 0580 59bf 40ea 22bf 53b5 143f 07d5 96be
00000230: 63cb c2be e765 253f 2ad7 91be f3fa db3e
00000240: 4ff6 903f 33c2 86bf bc1c a43f 1867 a1bf
00000250: 90b0 00be 6094 d33f da3e a23f 677f 313e
00000260: fefe 4b3e 06d9 0440 27d6 32bf 12f2 91be
00000270: 8be2 84bf e6b1 703f 50d0 fabf ef26 44bf
00000280: c4b4 f3bf a5e4 16bf d110 5a3e 042b 5fbf
00000290: dc9c aebf 0013 5abf 2fc6 6ebf c77b 843f
000002a0: 9281 5ebf d9d2 75bf 787b 2a3f 3b78 cbbe
000002b0: d18f 04bf 1ac5 d03f dd71 503f 1fa2 9f3d
000002c0: e1c5 56bf 6e53 31bf 9601 69bf 9686 94bf
000002d0: 7910 5a3f 9008 a3bf c725 a23d 55c8 073e
000002e0: f4a7 0d3f bcd2 193f dbf0 353f ec72 323f
000002f0: 2039 a6be 258d 86bf 3fb6 0b40 907d 94bf
00000300: cbdb bfbf 07bd 69bf 2008 cdbe 4ee2 713f
00000310: af25 1e3f 70b1 d13f 7fe6 95bf ff9f ef3d
00000320: 950f 863e dd47 23bf 06ee 58be afb5 9d3f
00000330: 35db 17bf 1a23 223f c92c 6c3f c796 47bf
00000340: d24e 87bf c757 5b3f 6429 81be ded5 9fbf
00000350: 11cf e53e 176b 8cbf abcf 6e3e db11 02be
00000360: 21a4 863f 6f93 3ebe 0845 1b3f 29e8 96bf
00000370: e2bd 413f 768c 35bf 0582 18be ca50 103f
00000380: 6b71 abbe 644c bf3e 8c55 70bf 9461 c43e
00000390: 96a9 f2bc 76cf 6f3f a9bb 803e 4038 93bf
000003a0: fd52 4b3f 0c2b 7cbf 0dd3 3d3f 9613 603f
000003b0: db83 1fbf 4878 9ebf 8f5b 5f3f 3767 403f
000003c0: 319c d1be 9d50 bbbe 5a3c 6fbf 14bf a9bf
000003d0: 9256 1d3f 764f 833f eb6d 9d3d 85fb 0c3e
000003e0: 55ae 883f 5bd1 5abf 8c34 94bf dc73 2dbf
000003f0: aee1 d43f 20f5 103f f4c5 6bbf 32ce 80bf

mlp.4.weight f4 [256, 256]
-0.046526443 -0.029208595 -0.00045809493 0.054569017 -0.06305069 -0.049468715 0.060862504 -0.09145864
0.044440128 0.06113262 0.04012873 -0.05554066 0.08135232 -0.0058463123 -0.029000891 -0.054395184
0.1113973 -0.056527585 0.015062152 -0.028346835 0.015139156 -0.05634099 -0.012601705 -0.019295467
0.019720346 0.008849315 0.036120743 0.01103738 0.0002693712 -0.00037317962 -0.0030790123 -0.04397081
0.18254249 -0.003749623 0.09089114 0.012979519 0.036786158 -0.073797666 0.015750783 0.12605713
-0.053531274 -0.05231994 0.06867786 0.07632925 -0.03217119 0.064752616 -0.10716853 0.07757639
-0.10668747 0.07013193 -0.05795414 -0.017964017 0.05291346 0.0013406948 0.013918272 0.037673943
0.073091954 0.0983839 0.0031255418 -0.037102535 -0.08527312 -0.029792655 -0.006753626 0.07296117
0.013376991 -0.019749232 0.04829192 0.04696095 0.008981288 0.048580714 -0.0033038263 0.03653541
-0.0047277394 -0.014113841 -0.05805035 0.06618968 -0.088785164 -0.114982046 0.016579287 -0.0963936
-0.008494791 -0.018866913 -0.028215306 0.060726978 -0.07174639 -0.014611168 -0.0040155426 0.03929472
0.048266243 0.046922505 -0.045065127 -0.035750818 -0.052551765 -0.020473002 0.014081096 -0.0014134545
0.055550545 0.12224567 -0.08941978 0.0139591135 -0.06950528 0.052497774 -0.0044986564 -0.09451313
0.07309877 0.006300079 -0.02179478 -0.0382635 0.0273517 0.069162734 -0.009071834 -0.019594058
0.0112386495 -0.071475595 0.10329158 -0.03235599 -0.0135583235 -0.075172536 -0.07846286 -0.0023373917
-0.017915303 -0.033082422 0.036214553 0.038044747 0.0103421165 0.084226675 0.043406762 0.0678454
0.021942636 0.01770082 -0.042676084 -0.003029673 -0.075400345 0.09537716 -0.028674264 0.04680912
0.09193158 0.013333499 -0.055918712 -0.04405251 0.06964907 -0.025833799 -0.02090914 -0.001885076
-0.012648527 0.084859304 -0.012532764 0.10267599 0.008546014 -0.0028515959 -0.068998806 -0.00767196
-0.018130751 -0.013596591 -0.0127811255 0.031159366 0.096669845 -0.05932373 0.07073477 -0.017082551
0.03824243 0.13189472 -0.067345195 0.07422123 0.04704939 -0.03633196 0.0064999103 0.006606794
0.04363017 0.013690935 -0.084569305 0.075832486 0.015983589 -0.08165923 -0.057412107 0.10294585
0.07159841 0.046003018 0.026429506 0.048266143 0.016460834 0.035773307 0.0074163494 0.08969856
-0.082537726 -0.035144504 0.04702966 -0.023581345 -0.01879183 -0.0053068656 -0.066608615 0.031221388
0.038517777 0.050418258 0.08267411 -0.008860106 -0.08526902 -0.0103667015 0.032716885 -0.20064645
-0.07957491 0.03646299 -0.020172058 -0.08849215 0.006334949 -0.10036712 -0.048668146 0.037114874
0.024586605 -0.04185055 0.027347473 0.044675488 -0.024438698 0.05737056 0.04496984 -0.02404736
0.014188087 -0.11107276 0.010514589 0.07930967 -0.076426566 0.039365586 -0.0036116738 -0.07236375
0.047528513 -0.094057396 0.07951017 -0.025498481 0.14229394 -0.036341034 0.01965044 0.073863044
-0.11053476 0.016393064 -0.06596151 -0.05957804 0.040541448 0.07749715 -0.025373433 -0.010033324
0.20179482 -0.11214483 -0.020490298 0.049447037 -0.0038203748 0.013593529 -0.062079415 0.16475987
-0.02664262 0.056172248 0.04415555 0.043679997 -0.08581576 -0.0149048325 -0.03149496 -0.008756267
00000000: 8392 3ebd dd46 efbc 762c f0b9 c383 5f3d
00000010: b820 81bd b59f 4abd f64a 793d ab4e bbbd
00000020: da06 363d 3366 7a3d 065e 243d 9a7e 63bd
00000030: 0c9c a63d 6c92 bfbb 4793 edbc 7ccd 5ebd
00000040: 4524 e43d 7889 67bd 3fc7 763c 9f37 e8bc
00000050: 390a 783c cfc5 66bd 6277 4ebc 8711 9ebc
00000060: 908c a13c b8fc 103c 58f3 133d 21d6 343c
00000070: 643a 8d39 52a7 c3b9 41c9 49bb bc1a 34bd
00000080: 6bec 3a3e 3cbc 75bb 2225 ba3d 0ca8 543c
00000090: 15ad 163d 3b23 97bd c907 813c 1f15 013e
000000a0: 9c43 5bbd 6f4d 56bd faa6 8c3d 8352 9c3d
000000b0: f0c5 03bd 059d 843d 2d7b dbbd 5fe0 9e3d
000000c0: f67e dabd 54a1 8f3d 5261 6dbd 4629 93bc
000000d0: c9bb 583d 41ba af3a 7709 643c fe4f 1a3d
000000e0: 3cb1 953d 807d c93d e4d5 4c3b d4f8 17bd
000000f0: aca3 aebd ba0f f4bc 854d ddbb aa6c 953d
00000100: 2b2b 5b3c 24c9 a1bc c0cd 453d 205a 403d
00000110: 4126 133c 92fc 463d 0285 58bb 27a6 153d
00000120: 27eb 9abb bd3d 67bc 34c6 6dbd 748e 873d
00000130: ffd4 b5bd b57b ebbd 49d1 873c 026a c5bd
00000140: bc2d 0bbc c98e 9abc c923 e7bc dabc 783d
00000150: c5ef 92bd ae63 6fbc d094 83bb 80f3 203d
00000160: d3b2 453d d031 403d 3696 38bd 736f 12bd
00000170: 8540 57bd ffb6 a7bc 66b4 663c aa43 b9ba
00000180: f888 633d f05b fa3d b821 b7bd c4b4 643c
00000190: c958 8ebd e807 573d 7769 93bb 1a90 c1bd
000001a0: cfb4 953d e570 ce3b f78a b2bc 30ba 1cbd
000001b0: ac10 e03c 31a5 8d3d 08a2 14bc b883 a0bc
000001c0: 5022 383c cc61 92bd 898a d33d b787 04bd
000001d0: bb23 5ebc 0ff4 99bd 23b1 a0bd ed2e 19bb
000001e0: 1dc3 92bc 6f81 07bd b655 143d cfd4 1b3d
000001f0: fb71 293c 097f ac3d 4acb 313d 87f2 8a3d
00000200: 0bc1 b33c 4f01 913c 1ecd 2ebd 7a8d 46bb
00000210: 7f6b 9abd 1a55 c33d 4ae6 eabc ebba 3f3d
00000220: a046 bc3d c074 5a3c 050b 65bd 6870 34bd
00000230: 2ca4 8e3d 67a1 d3bc a549 abbc a814 f7ba
00000240: c43b 4fbc b7ca ad3d 3956 4dbc ca47 d23d
00000250: 9504 0c3c d7e1 3abb 3f4f 8dbd 1165 fbbb
00000260: f186 94bc 3cc4 5ebc ed67 51bc ed41 ff3c
00000270: d7fa c53d 71fd 72bd 64dd 903d b5f0 8bbc
00000280: 18a4 1c3d 690f 073e 47ec 89bd 4d01 983d
00000290: dcb6 403d d2d0 14bd 33fd d43b ce7d d83b
000002a0: 8db5 323d f24f 603c ac32 adbd 104e 9b3d
000002b0: 04f0 823c f43c a7bd f528 6bbd 46d5 d23d
000002c0: 30a2 923d a96d 3c3d b182 d83c b8b2 453d
000002d0: dfd8 863c 0887 123d d904 f33b e1b3 b73d
000002e0: 8a09 a9bd aff3 0fbd 2ca2 403d aa2d c1bc
000002f0: 53f1 99bc 37e5 adbb 196a 88bd ffc3 ff3c
00000300: d1c4 1d3d 6083 4e3d 0b51 a93d fa29 11bc
00000310: 86a1 aebd 19d9 29bc 2402 063d 4376 4dbe
00000320: 2cf8 a2bd 375a 153d df3f a5bc 5f3b b5bd
00000330: 6795 cf3b 478d cdbd 4058 47bd c405 183d
00000340: d969 c93c 7b6b 2bbd cf07 e03c a5fd 363d
00000350: aa33 c8bc 64fd 6a3d 4c32 383d f8fe c4bc
00000360: 2675 683c 1d7a e3bd 6245 2c3c 1c6d a23d
00000370: 8885 9cbd cf3d 213d d5b1 6cbb 7233 94bd
00000380: 42ad 423d 2aa1 c0bd 3ad6 a23d 31e2 d0bc
00000390: 81b5 113e 56da 14bd f6f9 a03c 8245 973d
000003a0: 0c60 e2bd bf4a 863c d416 87bd 1a08 74bd
000003b0: ca0e 263d d3b6 9e3d f2db cfbc d062 24bc
000003c0: 4da3 4e3e 30ac e5bd 45db a7bc fa88 4a3d
000003d0: 415f 7abb 65b7 5e3c fc46 7ebd d0b6 283e
000003e0: a041 dabc df14 663d 73dc 343d cce9 323d
000003f0: 2cc0 afbd 6633 74bc dc00 01bd 7276 0fbc

mlp.4.bias f4 [256]
-0.04703278 0.083855346 -0.06479029 0.0938033 0.04212946 -0.06176047 -0.04881999 0.034446217
-0.103608154 0.01139706 0.02412909 0.021174297 -0.06738767 0.0200496 -0.017626883 0.081815384
-0.10544762 -0.13080934 0.003418447 0.031200517 -0.11633742 -0.06542198 0.05415836 0.02235628
-0.04989543 -0.07023303 0.044455398 0.037197586 0.074782304 0.04141626 0.083194405 -0.111638226
0.024419518 0.014125586 0.08052319 -0.031510342 0.027394874 -0.08345255 -0.024979599 0.06471385
-0.013336307 -0.057971362 -0.09723583 -0.050796043 0.19235991 -0.05461328 0.028361635 0.059218287
-0.08372803 0.079402395 0.07576725 0.072976075 -0.10369878 -0.065922335 0.011543207 0.034285743
0.22283398 0.069362246 0.0017261663 -0.07734554 -0.07828594 -0.15049091 0.07370273 0.0031761318
-0.0069439695 0.07398534 0.007678137 -0.065862976 0.10301597 0.047533825 0.047460753 0.08906182
0.074299015 -0.10251247 0.005978648 -0.06753989 -0.017861305 0.15588419 0.0627986 -0.058221623
-0.035158042 0.09357577 0.03100538 -0.064127065 -0.0022395996 -0.013111336 -0.032227285 0.018556861
-0.098914966 -0.09751054 0.0680171 -0.1958631 -0.031134525 -0.11156017 0.025743948 -0.047528014
-0.065465726 -0.03750696 -0.022827161 0.085035846 -0.0016032954 0.10393104 0.11466613 -0.019024296
-0.09254691 -0.005968452 0.08530584 0.03302118 0.031706046 -0.042396724 -0.074528426 -0.16309294
-0.060291033 0.069306925 0.090583615 -0.07210672 0.1032047 0.07047841 0.019890599 -0.059172668
0.06967962 0.044636805 0.014226099 -0.16051874 0.00536474 0.1712024 0.07354803 0.016571397
0.017745038 -0.031619966 -0.006513678 0.021495264 0.028665189 -0.1355809 0.03751375 -0.06626809
0.024929525 0.09143096 -0.020783013 -0.042472415 0.012190322 0.07928707 0.025084535 -0.053971305
0.0775401 0.026112463 0.10589951 0.0500489 -0.043913685 -0.0018832698 -0.17912267 -0.062393166
-0.041194804 0.021930313 -0.010167527 0.02106824 0.06506098 -0.031101203 -0.035071813 -0.12072016
-0.0860739 -0.12123041 -0.07638841 0.10653634 0.009378834 0.036180772 0.07156125 -0.012769775
-0.08125856 0.14212954 -0.15723298 -0.10837782 -0.033181947 0.09634709 -0.015079756 0.01789738
0.04380148 -0.07182804 -0.007275794 0.00238961 -0.005751655 0.04460823 0.02343969 0.019223487
-0.065645285 -0.11110258 -0.042876318 0.1024904 -0.050152842 0.041457206 -0.00025737024 0.02295669
-0.04372421 -0.11046999 0.031098424 -0.21801917 0.15551576 -0.07926352 -0.017665565 0.032955077
0.17333025 0.022308383 -0.054298796 0.048041753 0.07105131 -0.081990615 0.03860957 0.07871578
0.06580156 -0.03529855 0.06503925 0.14673181 -0.09475989 -0.07064852 -0.023895025 -0.07891455
0.028408408 -0.004014666 -0.027684571 0.06226919 -0.14953844 -0.03774556 -0.026984585 0.087081686
-0.035872232 -0.037027348 -0.028985634 -0.19984125 0.04864438 -0.031650085 0.03115613 0.05135325
0.08789631 0.032991815 0.09731816 -0.037089784 -0.014703583 -0.08210765 0.011324242 -0.008792096
-0.060448393 0.09149509 -0.1123881 -0.097527124 -0.067478545 -0.012809312 -0.06268413 0.069301605
0.08800681 0.07045397 -0.039712783 0.011908714 0.011340235 0.011378886 -0.14185934 0.050236378
00000000: 72a5 40bd 5abc ab3d c6b0 84bd f21b c03d
00000010: f18f 2c3d 8cf8 7cbd 78f7 47bd 7a17 0d3d
00000020: 8330 d4bd bcba 3a3c 5faa c53c b875 ad3c
00000030: 8c02 8abd 0f3f a43c 4166 90bc d38e a73d
00000040: ecf4 d7bd e2f2 05be 0608 603b 3a98 ff3c
00000050: 5042 eebd f6fb 85bd 28d5 5d3d 8424 b73c
00000060: 275f 4cbd 56d6 8fbd dd16 363d 7f5c 183d
00000070: 7727 993d 19a4 293d d461 aa3d 95a2 e4bd
00000080: 710b c83c 006f 673c 58e9 a43d fd10 01bd
00000090: 376b e03c 2ce9 aabd 04a2 ccbc b288 843d
000000a0: 8780 5abc 6173 6dbd 9423 c7bd 830f 50bd
000000b0: fff9 443e 2db2 5fbd a956 e83c e08e 723d
000000c0: 9a79 abbd b99d a23d dc2b 9b3d 7b74 953d
000000d0: 0760 d4bd 4a02 87bd b81f 3d3c 356f 0c3d
000000e0: 972e 643e cb0d 8e3d 8840 e23a 5767 9ebd
000000f0: 6154 a0bd 4a1a 1abe 75f1 963d a626 503b
00000100: 3d8a e3bb a085 973d e298 fb3b 2be3 86bd
00000110: 09fa d23d d4b2 423d 3566 423d 0b66 b63d
00000120: 152a 983d 0ff2 d1bd 89e8 c33b 5b52 8abd
00000130: df51 92bc 1ba0 1f3e 8d9c 803d cc79 6ebd
00000140: e101 10bd a7a4 bf3d fffe fd3c 0d55 83bd
00000150: 3fc6 12bb eed0 56bc c200 04bd 8f04 983c
00000160: ee93 cabd 9bb3 c7bd 8d4c 8b3d 5690 48be
00000170: d50d ffbc a979 e4bd f9e4 d23c bcac 42bd
00000180: e512 86bd e6a0 19bd 0700 bbbc 4627 ae3d
00000190: ab25 d2ba ccd9 d43d 13d6 ea3d d7d8 9bbc
000001a0: 3c89 bdbd 0193 c3bb d4b4 ae3d 3841 073d
000001b0: 33de 013d 30a8 2dbd 5ca2 98bd d601 27be
000001c0: bbf3 76bd caf0 8d3d e783 b93d b0ac 93bd
000001d0: fc5c d33d fc56 903d 9cf1 a23c 0a5f 72bd
000001e0: 30b4 8e3d 15d5 363d 9514 693c 065f 24be
000001f0: b3ca af3b af4f 2f3e 59a0 963d bdc0 873c
00000200: 0b5e 913c f083 01bd b170 d5bb d616 b03c
00000210: 42d3 ea3c b8d5 0abe 05a8 193d 90b7 87bd
00000220: 0139 cc3c 2840 bb3d 2341 aabc 8ef7 2dbd
00000230: ebb9 473c 4261 a23d 157e cd3c 0411 5dbd
00000240: 58cd 9e3d cee9 d53c d8e1 d83d 1300 4d3d
00000250: d6de 33bd 0cd8 f6ba ef6b 37be fa8f 7fbd
00000260: e2bb 28bd 33a7 b33c b395 26bc 4d97 ac3c
00000270: b13e 853d f3c7 febc 76a7 0fbd 223c f7bd
00000280: 8347 b0bd a647 f8bd 8771 9cbd ba2f da3d
00000290: aea9 193c 4a32 143d b48e 923d 5238 51bc
000002a0: e36a a6bd 688a 113e af01 21be 31f5 ddbd
000002b0: cbe9 07bd a051 c53d 1511 77bc 879d 923c
000002c0: 2e69 333d 941a 93bd c969 eebb 019b 1c3b
000002d0: 6178 bcbb 1fb7 363d 9804 c03c 937a 9d3c
000002e0: 0971 86bd c089 e3bd 149f 2fbd 7de6 d13d
000002f0: 116d 4dbd 08cf 293d a6ef 86b9 ab0f bc3c
00000300: 2818 33bd 173e e2bd 1fc2 fe3c 6b40 5fbe
00000310: 863f 1f3e ea54 a2bd 60b7 90bc e7fb 063d
00000320: 7c7d 313e 12c0 b63c 6a68 5ebd 6ec7 443d
00000330: 5983 913d b2ea a7bd 1225 1e3d bd35 a13d
00000340: f8c2 863d 3695 10bd 4c33 853d dd40 163e
00000350: 7911 c2bd 2cb0 90bd 80bf c3bc f49d a1bd
00000360: c0b8 e83c 768d 83bb c1ca e2bc fa0d 7f3d
00000370: 9b20 19be 179b 1abd c70e ddbc e257 b23d
00000380: c3ee 12bd fda9 17bd 4873 edbc 2fa3 4cbe
00000390: 543f 473d 85a3 01bd 243b ff3c c957 523d
000003a0: fb02 b43d 6d22 073d be4e c73d 75eb 17bd
000003b0: 4ce7 70bc 0e28 a8bd 5089 393c b90c 10bc
000003c0: bc98 77bd c761 bb3d bb2b e6bd 4dbc c7bd
000003d0: 3132 8abd 26de 51bc 8a60 80bd 00ee 8d3d
000003e0: ea3c b43d 2c4a 903d dfa9 22bd c41c 433c
000003f0: 65cc 393c 826e 3a3c 9343 11be a9c4 4d3d

mlp.6.weight f4 [9, 256]
0.019303467 -0.02076911 0.03191348 0.004878702 0.019184347 0.08053369 -0.027736137 -0.0073517016
-0.03997992 -0.11742115 0.053821083 0.054581568 -0.011963148 -0.022155859 -0.043949727 -0.09664898
-0.057070624 0.015277231 -0.024401704 -0.019043129 -0.020524994 -0.27898258 0.10012637 0.0056349966
0.04367748 -0.04352842 0.055422485 0.0029909683 0.0081767645 0.02615192 -0.016730579 -0.090804376
0.0133699225 -0.029559601 0.03891521 -0.009752835 -0.032505363 -0.057743073 -0.013065317 0.008706302
0.034213495 -0.020124348 -0.020451272 -0.058168806 -0.06592328 -0.010870964 -0.019363146 -0.04785803
-0.008388163 -0.10175905 0.007313206 -0.038095422 0.008294315 0.043714434 0.010768559 0.002643282
-0.033628684 -0.020072838 0.045161854 -0.07007085 0.0326794 0.028397894 -0.10346026 0.047615852
0.024512965 0.08529216 0.011735897 0.04359869 -0.07353383 0.054866593 0.07003347 -0.02611454
-0.04234375 -0.048347924 0.021517474 0.055965673 0.033163935 -0.053416602 -0.032375045 0.064768225
0.038639467 0.010760432 -0.020198014 0.06325174 -0.00921375 0.0072275754 0.0052594943 0.06410194
-0.10198821 -0.0053695133 0.084222116 0.080248125 0.022140605 -0.056389943 -0.019680552 -0.04826998
-0.05867639 -0.1257022 -0.04325836 -0.010049785 0.032191634 -0.024075978 0.051374223 -0.055085924
-0.10989777 0.035980884 -0.004951746 -0.03434106 -0.064920984 -0.022429248 0.05734053 -0.028027672
-0.10763738 -0.0034422334 0.09111862 0.02746198 0.0672959 0.09648656 0.03768709 0.00788408
-0.11054018 -0.021936394 0.011818763 -0.036712714 -0.0061384644 -0.0012715304 0.04936822 -0.0059852824
0.06633005 0.022094969 0.008988837 0.036585674 -0.02468519 -0.008708549 -0.094858974 0.023954593
-0.035957653 0.039427232 -0.042818498 0.0022851017 0.079075985 -0.10645582 -0.04383189 -0.015277778
0.113645434 -0.08920396 -0.028351668 0.06997636 -0.008172438 -0.041774705 -0.034670275 -0.03149957
0.009437382 0.015880503 -0.036828704 0.054654725 -0.04025533 0.033249836 0.0071660774 0.034161076
0.029976273 0.010285435 -0.049583178 -0.027360681 -0.06707689 0.035421748 0.04836734 0.0029802097
0.05711155 0.037974954 0.13458438 0.0030850386 0.01431079 -0.012627684 -0.021703286 -0.029036544
-0.026646674 -0.111518845 -0.083801195 0.011519431 -0.009834838 -0.12413222 0.09083777 0.008205366
-0.14095479 -0.00797306 0.0116944285 0.017856808 -0.025912888 0.012727519 0.0025049902 -0.087693684
-0.05917653 0.09072049 0.010592518 0.033719875 -0.024198463 -0.0689428 -0.09983571 -0.023033328
0.03785089 -0.031858966 -0.07297127 0.013116661 0.079740584 -0.021102069 0.013943032 -0.073733635
0.015485278 -0.020042213 0.058983974 -0.03903873 0.019077549 -0.008571594 0.06960355 0.03041717
0.023147965 0.016094213 -0.01484184 -0.051175404 0.014765542 -0.018242322 0.05221336 0.02489473
-0.07569828 -0.0015215682 -0.07189654 -0.005781118 -0.079452045 -0.04628487 -0.0007063053 0.06537065
-0.058398798 0.01089295 0.031678267 0.050619837 -0.14051935 -0.09852125 0.06250683 0.021755064
0.04952941 -0.05563294 0.04529546 -0.0019617814 -0.01824547 -0.078133106 -0.119337454 -0.026915748
-0.04383574 0.09077444 -0.06957994 -0.07891326 0.09853172 -0.0638845 -0.1164699 0.097535945
00000000: 4e22 9e3c fb23 aabc b6b7 023d 85dd 9f3b
00000010: 7e28 9d3c d9ee a43d e536 e3bc 8be6 f0bb
00000020: fcc1 23bd 807a f0bd 7f73 5c3d ec90 5f3d
00000030: 1401 44bc 3480 b5bc a104 34bd e7ef c5bd
00000040: e3c2 69bd 5a4d 7a3c 15e6 c7bc 5600 9cbc
00000050: 0824 a8bc ced6 8ebe 0e0f cd3d c7a5 b83b
00000060: 28e7 323d db4a 32bd b002 633d 1f04 443b
00000070: d6f7 053c 8d3c d63c 910e 89bc a5f7 b9bd
00000080: 850d 5b3c fa26 f2bc 8e65 1f3d 5bca 1fbc
00000090: 5824 05bd 0084 6cbd e90f 56bc e1a4 0e3c
000000a0: 7323 0c3d d1db a4bc 6d89 a7bc 6a42 6ebd
000000b0: c902 87bd 211c 32bc 769f 9ebc c806 44bd
000000c0: 816e 09bc 0c67 d0bd 9ea3 ef3b f209 1cbd
000000d0: e1e4 073c e80d 333d 9c6e 303c ea3a 2d3b
000000e0: 3bbe 09bd cb6f a4bc a3fb 383d 4e81 8fbd
000000f0: d6da 053d b3a2 e83c f9e2 d3bd d708 433d
00000100: 6acf c83c a8ad ae3d eb47 403c 8a94 323d
00000110: e898 96bd cbbb 603d b56d 8f3d 29ee d5bc
00000120: a470 2dbd 7908 46bd 6a45 b03c 433c 653d
00000130: e8d6 073d 5ecb 5abd b29b 04bd 34a5 843d
00000140: 6b44 1e3d 864c 303c 4e76 a5bc 218a 813d
00000150: 45f5 16bc 4cd5 ec3b d657 ac3b e147 833d
00000160: 32df d0bd bef2 afbb a57c ac3d 2159 a43d
00000170: 3760 b53c 24f9 66bd 1c39 a1bc beb6 45bd
00000180: a856 70bd 14b8 00be ae2f 31bd daa7 24bc
00000190: 60db 033d fc3a c5bc c76d 523d c7a1 61bd
000001a0: 1512 e1bd b160 133d 4242 a2bb 36a9 0cbd
000001b0: 4bf5 84bd 8bbd b7bc e7dd 6a3d 4a9a e5bc
000001c0: fd70 dcbd 1897 61bb 669c ba3d f2f7 e03c
000001d0: 6fd2 893d bf9a c53d c75d 1a3d 3a2c 013c
000001e0: e462 e2bd f4b3 b3bc 7ca3 413c 1260 16bd
000001f0: 2c25 c9bb 7ba9 a6ba 5536 4a3d 3020 c4bb
00000200: 0dd8 873d 8200 b53c ea45 133c dcda 153d
00000210: 9838 cabc 4dae 0ebc 6c45 c2bd 6c3c c43c
00000220: 5548 13bd 737e 213d 7362 2fbd a5c1 153b
00000230: 97f2 a13d 8205 dabd 1189 33bd a54f 7abc
00000240: f0be e83d 91b0 b6bd c241 e8bc c44f 8f3d
00000250: b0e5 05bc f41b 2bbd 6b02 0ebd b105 01bd
00000260: 409f 1a3c d417 823c b2d9 16bd a2dd 5f3d
00000270: c6e2 24bd fb30 083d 6ad1 ea3b 7cec 0b3d
00000280: cd90 f53c 3e84 283c bb17 4bbd 8223 e0bc
00000290: 9c5f 89bd 6516 113d d51c 463d 9f4f 433b
000002a0: cded 693d a08b 1b3d 7dd0 093e 5c2e 4a3b
000002b0: ce77 6a3c 58e4 4ebc 17cb b1bc 0cde edbc
000002c0: 204a dabc fe63 e4bd f69f abbd ffbb 3c3c
000002d0: 4d22 21bc 0939 febd 2709 ba3d cd6f 063c
000002e0: 7456 10be 70a1 02bc fd99 3f3c 7148 923c
000002f0: 4447 d4bc 1587 503c c32a 243b bf98 b3bd
00000300: 1763 72bd aacb b93d 3e8c 2d3c da1d 0a3d
00000310: db3b c6bc e231 8dbd aa76 ccbd 64b0 bcbc
00000320: 8909 1b3d 8c7e 02bd f671 95bd 44e7 563c
00000330: 084f a33d 3fde acbc 5171 643c a901 97bd
00000340: f7b5 7d3c 912f a4bc 2e99 713d 13e7 1fbd
00000350: 8548 9c3c df6f 0cbc 4e8c 8e3d 6e2d f93c
00000360: cda0 bd3c 03d8 833c 302b 73bc 4d9d 51bd
00000370: 2ceb 713c ec70 95bc addd 553d 08f0 cb3c
00000380: b307 9bbd 5b6f c7ba 7e3e 93bd 886f bdbb
00000390: c1b7 a2bd 3495 3dbd 5927 39ba 0ce1 853d
000003a0: 9433 6fbd 5878 323c 12c1 013d bf56 4f3d
000003b0: 4ee4 0fbe 82c5 c9bd 9503 803d ad37 b23c
000003c0: 5adf 4a3d 5edf 63bd bb87 393d 3b91 00bb
000003d0: 8677 95bc 4004 a0bd 3267 f4bd 6a7e dcbc
000003e0: 1b8d 33bd f3e7 b93d ed7f 8ebd 469d a1bd
000003f0: 00cb c93d e0d5 82bd c587 eebd edc0 c73d

mlp.6.bias f4 [9]
0.0013571903 -0.014974892 -0.013277456 0.046725236 -0.010890573 0.05724281 -0.013994031 -0.05984649
-0.00045605004
00000000: c0e3 b13a 4059 75bc b089 59bc f662 3f3d
00000010: 606e 32bc 7077 6a3d 3847 65bc 9821 75bd
00000020: 001a efb9
